node {
  name: "input_x"
  op: "Placeholder"
  attr {
    key: "dtype"
    value {
      type: DT_FLOAT
    }
  }
  attr {
    key: "shape"
    value {
      shape {
        dim {
          size: -1
        }
        dim {
          size: 224
        }
        dim {
          size: 224
        }
        dim {
          size: 3
        }
      }
    }
  }
}
node {
  name: "densenet121/conv1/weights"
  op: "VariableV2"
  attr {
    key: "_class"
    value {
      list {
        s: "loc:@densenet121/conv1/weights"
      }
    }
  }
  attr {
    key: "container"
    value {
      s: ""
    }
  }
  attr {
    key: "dtype"
    value {
      type: DT_FLOAT
    }
  }
  attr {
    key: "shape"
    value {
      shape {
        dim {
          size: 7
        }
        dim {
          size: 7
        }
        dim {
          size: 3
        }
        dim {
          size: 64
        }
      }
    }
  }
  attr {
    key: "shared_name"
    value {
      s: ""
    }
  }
}
node {
  name: "densenet121/conv1/Conv2D"
  op: "Conv2D"
  input: "input_x"
  input: "densenet121/conv1/weights"
  attr {
    key: "T"
    value {
      type: DT_FLOAT
    }
  }
  attr {
    key: "data_format"
    value {
      s: "NHWC"
    }
  }
  attr {
    key: "dilations"
    value {
      list {
        i: 1
        i: 1
        i: 1
        i: 1
      }
    }
  }
  attr {
    key: "explicit_paddings"
    value {
      list {
      }
    }
  }
  attr {
    key: "padding"
    value {
      s: "SAME"
    }
  }
  attr {
    key: "strides"
    value {
      list {
        i: 1
        i: 2
        i: 2
        i: 1
      }
    }
  }
  attr {
    key: "use_cudnn_on_gpu"
    value {
      b: true
    }
  }
}
node {
  name: "densenet121/BatchNorm/gamma"
  op: "VariableV2"
  attr {
    key: "_class"
    value {
      list {
        s: "loc:@densenet121/BatchNorm/gamma"
      }
    }
  }
  attr {
    key: "container"
    value {
      s: ""
    }
  }
  attr {
    key: "dtype"
    value {
      type: DT_FLOAT
    }
  }
  attr {
    key: "shape"
    value {
      shape {
        dim {
          size: 64
        }
      }
    }
  }
  attr {
    key: "shared_name"
    value {
      s: ""
    }
  }
}
node {
  name: "densenet121/BatchNorm/beta"
  op: "VariableV2"
  attr {
    key: "_class"
    value {
      list {
        s: "loc:@densenet121/BatchNorm/beta"
      }
    }
  }
  attr {
    key: "container"
    value {
      s: ""
    }
  }
  attr {
    key: "dtype"
    value {
      type: DT_FLOAT
    }
  }
  attr {
    key: "shape"
    value {
      shape {
        dim {
          size: 64
        }
      }
    }
  }
  attr {
    key: "shared_name"
    value {
      s: ""
    }
  }
}
node {
  name: "densenet121/BatchNorm/moving_mean"
  op: "VariableV2"
  attr {
    key: "_class"
    value {
      list {
        s: "loc:@densenet121/BatchNorm/moving_mean"
      }
    }
  }
  attr {
    key: "container"
    value {
      s: ""
    }
  }
  attr {
    key: "dtype"
    value {
      type: DT_FLOAT
    }
  }
  attr {
    key: "shape"
    value {
      shape {
        dim {
          size: 64
        }
      }
    }
  }
  attr {
    key: "shared_name"
    value {
      s: ""
    }
  }
}
node {
  name: "densenet121/BatchNorm/moving_variance"
  op: "VariableV2"
  attr {
    key: "_class"
    value {
      list {
        s: "loc:@densenet121/BatchNorm/moving_variance"
      }
    }
  }
  attr {
    key: "container"
    value {
      s: ""
    }
  }
  attr {
    key: "dtype"
    value {
      type: DT_FLOAT
    }
  }
  attr {
    key: "shape"
    value {
      shape {
        dim {
          size: 64
        }
      }
    }
  }
  attr {
    key: "shared_name"
    value {
      s: ""
    }
  }
}
node {
  name: "densenet121/BatchNorm/FusedBatchNorm"
  op: "FusedBatchNorm"
  input: "densenet121/conv1/Conv2D"
  input: "densenet121/BatchNorm/gamma"
  input: "densenet121/BatchNorm/beta"
  input: "densenet121/BatchNorm/moving_mean"
  input: "densenet121/BatchNorm/moving_variance"
  attr {
    key: "T"
    value {
      type: DT_FLOAT
    }
  }
  attr {
    key: "data_format"
    value {
      s: "NHWC"
    }
  }
  attr {
    key: "epsilon"
    value {
      f: 1.1000000085914508e-05
    }
  }
  attr {
    key: "is_training"
    value {
      b: false
    }
  }
}
node {
  name: "densenet121/Relu"
  op: "Relu"
  input: "densenet121/BatchNorm/FusedBatchNorm"
  attr {
    key: "T"
    value {
      type: DT_FLOAT
    }
  }
}
node {
  name: "densenet121/MaxPool2D/MaxPool"
  op: "MaxPool"
  input: "densenet121/Relu"
  attr {
    key: "T"
    value {
      type: DT_FLOAT
    }
  }
  attr {
    key: "data_format"
    value {
      s: "NHWC"
    }
  }
  attr {
    key: "ksize"
    value {
      list {
        i: 1
        i: 3
        i: 3
        i: 1
      }
    }
  }
  attr {
    key: "padding"
    value {
      s: "SAME"
    }
  }
  attr {
    key: "strides"
    value {
      list {
        i: 1
        i: 2
        i: 2
        i: 1
      }
    }
  }
}
node {
  name: "densenet121/dense_block1/conv_block1/x1/BatchNorm/gamma"
  op: "VariableV2"
  attr {
    key: "_class"
    value {
      list {
        s: "loc:@densenet121/dense_block1/conv_block1/x1/BatchNorm/gamma"
      }
    }
  }
  attr {
    key: "container"
    value {
      s: ""
    }
  }
  attr {
    key: "dtype"
    value {
      type: DT_FLOAT
    }
  }
  attr {
    key: "shape"
    value {
      shape {
        dim {
          size: 64
        }
      }
    }
  }
  attr {
    key: "shared_name"
    value {
      s: ""
    }
  }
}
node {
  name: "densenet121/dense_block1/conv_block1/x1/BatchNorm/beta"
  op: "VariableV2"
  attr {
    key: "_class"
    value {
      list {
        s: "loc:@densenet121/dense_block1/conv_block1/x1/BatchNorm/beta"
      }
    }
  }
  attr {
    key: "container"
    value {
      s: ""
    }
  }
  attr {
    key: "dtype"
    value {
      type: DT_FLOAT
    }
  }
  attr {
    key: "shape"
    value {
      shape {
        dim {
          size: 64
        }
      }
    }
  }
  attr {
    key: "shared_name"
    value {
      s: ""
    }
  }
}
node {
  name: "densenet121/dense_block1/conv_block1/x1/BatchNorm/moving_mean"
  op: "VariableV2"
  attr {
    key: "_class"
    value {
      list {
        s: "loc:@densenet121/dense_block1/conv_block1/x1/BatchNorm/moving_mean"
      }
    }
  }
  attr {
    key: "container"
    value {
      s: ""
    }
  }
  attr {
    key: "dtype"
    value {
      type: DT_FLOAT
    }
  }
  attr {
    key: "shape"
    value {
      shape {
        dim {
          size: 64
        }
      }
    }
  }
  attr {
    key: "shared_name"
    value {
      s: ""
    }
  }
}
node {
  name: "densenet121/dense_block1/conv_block1/x1/BatchNorm/moving_variance"
  op: "VariableV2"
  attr {
    key: "_class"
    value {
      list {
        s: "loc:@densenet121/dense_block1/conv_block1/x1/BatchNorm/moving_variance"
      }
    }
  }
  attr {
    key: "container"
    value {
      s: ""
    }
  }
  attr {
    key: "dtype"
    value {
      type: DT_FLOAT
    }
  }
  attr {
    key: "shape"
    value {
      shape {
        dim {
          size: 64
        }
      }
    }
  }
  attr {
    key: "shared_name"
    value {
      s: ""
    }
  }
}
node {
  name: "densenet121/dense_block1/conv_block1/x1/BatchNorm/FusedBatchNorm"
  op: "FusedBatchNorm"
  input: "densenet121/MaxPool2D/MaxPool"
  input: "densenet121/dense_block1/conv_block1/x1/BatchNorm/gamma"
  input: "densenet121/dense_block1/conv_block1/x1/BatchNorm/beta"
  input: "densenet121/dense_block1/conv_block1/x1/BatchNorm/moving_mean"
  input: "densenet121/dense_block1/conv_block1/x1/BatchNorm/moving_variance"
  attr {
    key: "T"
    value {
      type: DT_FLOAT
    }
  }
  attr {
    key: "data_format"
    value {
      s: "NHWC"
    }
  }
  attr {
    key: "epsilon"
    value {
      f: 1.1000000085914508e-05
    }
  }
  attr {
    key: "is_training"
    value {
      b: false
    }
  }
}
node {
  name: "densenet121/dense_block1/conv_block1/x1/Relu"
  op: "Relu"
  input: "densenet121/dense_block1/conv_block1/x1/BatchNorm/FusedBatchNorm"
  attr {
    key: "T"
    value {
      type: DT_FLOAT
    }
  }
}
node {
  name: "densenet121/dense_block1/conv_block1/x1/Conv/weights"
  op: "VariableV2"
  attr {
    key: "_class"
    value {
      list {
        s: "loc:@densenet121/dense_block1/conv_block1/x1/Conv/weights"
      }
    }
  }
  attr {
    key: "container"
    value {
      s: ""
    }
  }
  attr {
    key: "dtype"
    value {
      type: DT_FLOAT
    }
  }
  attr {
    key: "shape"
    value {
      shape {
        dim {
          size: 1
        }
        dim {
          size: 1
        }
        dim {
          size: 64
        }
        dim {
          size: 128
        }
      }
    }
  }
  attr {
    key: "shared_name"
    value {
      s: ""
    }
  }
}
node {
  name: "densenet121/dense_block1/conv_block1/x1/Conv/Conv2D"
  op: "Conv2D"
  input: "densenet121/dense_block1/conv_block1/x1/Relu"
  input: "densenet121/dense_block1/conv_block1/x1/Conv/weights"
  attr {
    key: "T"
    value {
      type: DT_FLOAT
    }
  }
  attr {
    key: "data_format"
    value {
      s: "NHWC"
    }
  }
  attr {
    key: "dilations"
    value {
      list {
        i: 1
        i: 1
        i: 1
        i: 1
      }
    }
  }
  attr {
    key: "explicit_paddings"
    value {
      list {
      }
    }
  }
  attr {
    key: "padding"
    value {
      s: "SAME"
    }
  }
  attr {
    key: "strides"
    value {
      list {
        i: 1
        i: 1
        i: 1
        i: 1
      }
    }
  }
  attr {
    key: "use_cudnn_on_gpu"
    value {
      b: true
    }
  }
}
node {
  name: "densenet121/dense_block1/conv_block1/x2/BatchNorm/gamma"
  op: "VariableV2"
  attr {
    key: "_class"
    value {
      list {
        s: "loc:@densenet121/dense_block1/conv_block1/x2/BatchNorm/gamma"
      }
    }
  }
  attr {
    key: "container"
    value {
      s: ""
    }
  }
  attr {
    key: "dtype"
    value {
      type: DT_FLOAT
    }
  }
  attr {
    key: "shape"
    value {
      shape {
        dim {
          size: 128
        }
      }
    }
  }
  attr {
    key: "shared_name"
    value {
      s: ""
    }
  }
}
node {
  name: "densenet121/dense_block1/conv_block1/x2/BatchNorm/beta"
  op: "VariableV2"
  attr {
    key: "_class"
    value {
      list {
        s: "loc:@densenet121/dense_block1/conv_block1/x2/BatchNorm/beta"
      }
    }
  }
  attr {
    key: "container"
    value {
      s: ""
    }
  }
  attr {
    key: "dtype"
    value {
      type: DT_FLOAT
    }
  }
  attr {
    key: "shape"
    value {
      shape {
        dim {
          size: 128
        }
      }
    }
  }
  attr {
    key: "shared_name"
    value {
      s: ""
    }
  }
}
node {
  name: "densenet121/dense_block1/conv_block1/x2/BatchNorm/moving_mean"
  op: "VariableV2"
  attr {
    key: "_class"
    value {
      list {
        s: "loc:@densenet121/dense_block1/conv_block1/x2/BatchNorm/moving_mean"
      }
    }
  }
  attr {
    key: "container"
    value {
      s: ""
    }
  }
  attr {
    key: "dtype"
    value {
      type: DT_FLOAT
    }
  }
  attr {
    key: "shape"
    value {
      shape {
        dim {
          size: 128
        }
      }
    }
  }
  attr {
    key: "shared_name"
    value {
      s: ""
    }
  }
}
node {
  name: "densenet121/dense_block1/conv_block1/x2/BatchNorm/moving_variance"
  op: "VariableV2"
  attr {
    key: "_class"
    value {
      list {
        s: "loc:@densenet121/dense_block1/conv_block1/x2/BatchNorm/moving_variance"
      }
    }
  }
  attr {
    key: "container"
    value {
      s: ""
    }
  }
  attr {
    key: "dtype"
    value {
      type: DT_FLOAT
    }
  }
  attr {
    key: "shape"
    value {
      shape {
        dim {
          size: 128
        }
      }
    }
  }
  attr {
    key: "shared_name"
    value {
      s: ""
    }
  }
}
node {
  name: "densenet121/dense_block1/conv_block1/x2/BatchNorm/FusedBatchNorm"
  op: "FusedBatchNorm"
  input: "densenet121/dense_block1/conv_block1/x1/Conv/Conv2D"
  input: "densenet121/dense_block1/conv_block1/x2/BatchNorm/gamma"
  input: "densenet121/dense_block1/conv_block1/x2/BatchNorm/beta"
  input: "densenet121/dense_block1/conv_block1/x2/BatchNorm/moving_mean"
  input: "densenet121/dense_block1/conv_block1/x2/BatchNorm/moving_variance"
  attr {
    key: "T"
    value {
      type: DT_FLOAT
    }
  }
  attr {
    key: "data_format"
    value {
      s: "NHWC"
    }
  }
  attr {
    key: "epsilon"
    value {
      f: 1.1000000085914508e-05
    }
  }
  attr {
    key: "is_training"
    value {
      b: false
    }
  }
}
node {
  name: "densenet121/dense_block1/conv_block1/x2/Relu"
  op: "Relu"
  input: "densenet121/dense_block1/conv_block1/x2/BatchNorm/FusedBatchNorm"
  attr {
    key: "T"
    value {
      type: DT_FLOAT
    }
  }
}
node {
  name: "densenet121/dense_block1/conv_block1/x2/Conv/weights"
  op: "VariableV2"
  attr {
    key: "_class"
    value {
      list {
        s: "loc:@densenet121/dense_block1/conv_block1/x2/Conv/weights"
      }
    }
  }
  attr {
    key: "container"
    value {
      s: ""
    }
  }
  attr {
    key: "dtype"
    value {
      type: DT_FLOAT
    }
  }
  attr {
    key: "shape"
    value {
      shape {
        dim {
          size: 3
        }
        dim {
          size: 3
        }
        dim {
          size: 128
        }
        dim {
          size: 32
        }
      }
    }
  }
  attr {
    key: "shared_name"
    value {
      s: ""
    }
  }
}
node {
  name: "densenet121/dense_block1/conv_block1/x2/Conv/Conv2D"
  op: "Conv2D"
  input: "densenet121/dense_block1/conv_block1/x2/Relu"
  input: "densenet121/dense_block1/conv_block1/x2/Conv/weights"
  attr {
    key: "T"
    value {
      type: DT_FLOAT
    }
  }
  attr {
    key: "data_format"
    value {
      s: "NHWC"
    }
  }
  attr {
    key: "dilations"
    value {
      list {
        i: 1
        i: 1
        i: 1
        i: 1
      }
    }
  }
  attr {
    key: "explicit_paddings"
    value {
      list {
      }
    }
  }
  attr {
    key: "padding"
    value {
      s: "SAME"
    }
  }
  attr {
    key: "strides"
    value {
      list {
        i: 1
        i: 1
        i: 1
        i: 1
      }
    }
  }
  attr {
    key: "use_cudnn_on_gpu"
    value {
      b: true
    }
  }
}
node {
  name: "densenet121/dense_block1/conv_block1/concat/axis"
  op: "Const"
  attr {
    key: "dtype"
    value {
      type: DT_INT32
    }
  }
  attr {
    key: "value"
    value {
      tensor {
        dtype: DT_INT32
        tensor_shape {
        }
        int_val: 3
      }
    }
  }
}
node {
  name: "densenet121/dense_block1/conv_block1/concat"
  op: "ConcatV2"
  input: "densenet121/MaxPool2D/MaxPool"
  input: "densenet121/dense_block1/conv_block1/x2/Conv/Conv2D"
  input: "densenet121/dense_block1/conv_block1/concat/axis"
  attr {
    key: "N"
    value {
      i: 2
    }
  }
  attr {
    key: "T"
    value {
      type: DT_FLOAT
    }
  }
  attr {
    key: "Tidx"
    value {
      type: DT_INT32
    }
  }
}
node {
  name: "densenet121/dense_block1/conv_block2/x1/BatchNorm/gamma"
  op: "VariableV2"
  attr {
    key: "_class"
    value {
      list {
        s: "loc:@densenet121/dense_block1/conv_block2/x1/BatchNorm/gamma"
      }
    }
  }
  attr {
    key: "container"
    value {
      s: ""
    }
  }
  attr {
    key: "dtype"
    value {
      type: DT_FLOAT
    }
  }
  attr {
    key: "shape"
    value {
      shape {
        dim {
          size: 96
        }
      }
    }
  }
  attr {
    key: "shared_name"
    value {
      s: ""
    }
  }
}
node {
  name: "densenet121/dense_block1/conv_block2/x1/BatchNorm/beta"
  op: "VariableV2"
  attr {
    key: "_class"
    value {
      list {
        s: "loc:@densenet121/dense_block1/conv_block2/x1/BatchNorm/beta"
      }
    }
  }
  attr {
    key: "container"
    value {
      s: ""
    }
  }
  attr {
    key: "dtype"
    value {
      type: DT_FLOAT
    }
  }
  attr {
    key: "shape"
    value {
      shape {
        dim {
          size: 96
        }
      }
    }
  }
  attr {
    key: "shared_name"
    value {
      s: ""
    }
  }
}
node {
  name: "densenet121/dense_block1/conv_block2/x1/BatchNorm/moving_mean"
  op: "VariableV2"
  attr {
    key: "_class"
    value {
      list {
        s: "loc:@densenet121/dense_block1/conv_block2/x1/BatchNorm/moving_mean"
      }
    }
  }
  attr {
    key: "container"
    value {
      s: ""
    }
  }
  attr {
    key: "dtype"
    value {
      type: DT_FLOAT
    }
  }
  attr {
    key: "shape"
    value {
      shape {
        dim {
          size: 96
        }
      }
    }
  }
  attr {
    key: "shared_name"
    value {
      s: ""
    }
  }
}
node {
  name: "densenet121/dense_block1/conv_block2/x1/BatchNorm/moving_variance"
  op: "VariableV2"
  attr {
    key: "_class"
    value {
      list {
        s: "loc:@densenet121/dense_block1/conv_block2/x1/BatchNorm/moving_variance"
      }
    }
  }
  attr {
    key: "container"
    value {
      s: ""
    }
  }
  attr {
    key: "dtype"
    value {
      type: DT_FLOAT
    }
  }
  attr {
    key: "shape"
    value {
      shape {
        dim {
          size: 96
        }
      }
    }
  }
  attr {
    key: "shared_name"
    value {
      s: ""
    }
  }
}
node {
  name: "densenet121/dense_block1/conv_block2/x1/BatchNorm/FusedBatchNorm"
  op: "FusedBatchNorm"
  input: "densenet121/dense_block1/conv_block1/concat"
  input: "densenet121/dense_block1/conv_block2/x1/BatchNorm/gamma"
  input: "densenet121/dense_block1/conv_block2/x1/BatchNorm/beta"
  input: "densenet121/dense_block1/conv_block2/x1/BatchNorm/moving_mean"
  input: "densenet121/dense_block1/conv_block2/x1/BatchNorm/moving_variance"
  attr {
    key: "T"
    value {
      type: DT_FLOAT
    }
  }
  attr {
    key: "data_format"
    value {
      s: "NHWC"
    }
  }
  attr {
    key: "epsilon"
    value {
      f: 1.1000000085914508e-05
    }
  }
  attr {
    key: "is_training"
    value {
      b: false
    }
  }
}
node {
  name: "densenet121/dense_block1/conv_block2/x1/Relu"
  op: "Relu"
  input: "densenet121/dense_block1/conv_block2/x1/BatchNorm/FusedBatchNorm"
  attr {
    key: "T"
    value {
      type: DT_FLOAT
    }
  }
}
node {
  name: "densenet121/dense_block1/conv_block2/x1/Conv/weights"
  op: "VariableV2"
  attr {
    key: "_class"
    value {
      list {
        s: "loc:@densenet121/dense_block1/conv_block2/x1/Conv/weights"
      }
    }
  }
  attr {
    key: "container"
    value {
      s: ""
    }
  }
  attr {
    key: "dtype"
    value {
      type: DT_FLOAT
    }
  }
  attr {
    key: "shape"
    value {
      shape {
        dim {
          size: 1
        }
        dim {
          size: 1
        }
        dim {
          size: 96
        }
        dim {
          size: 128
        }
      }
    }
  }
  attr {
    key: "shared_name"
    value {
      s: ""
    }
  }
}
node {
  name: "densenet121/dense_block1/conv_block2/x1/Conv/Conv2D"
  op: "Conv2D"
  input: "densenet121/dense_block1/conv_block2/x1/Relu"
  input: "densenet121/dense_block1/conv_block2/x1/Conv/weights"
  attr {
    key: "T"
    value {
      type: DT_FLOAT
    }
  }
  attr {
    key: "data_format"
    value {
      s: "NHWC"
    }
  }
  attr {
    key: "dilations"
    value {
      list {
        i: 1
        i: 1
        i: 1
        i: 1
      }
    }
  }
  attr {
    key: "explicit_paddings"
    value {
      list {
      }
    }
  }
  attr {
    key: "padding"
    value {
      s: "SAME"
    }
  }
  attr {
    key: "strides"
    value {
      list {
        i: 1
        i: 1
        i: 1
        i: 1
      }
    }
  }
  attr {
    key: "use_cudnn_on_gpu"
    value {
      b: true
    }
  }
}
node {
  name: "densenet121/dense_block1/conv_block2/x2/BatchNorm/gamma"
  op: "VariableV2"
  attr {
    key: "_class"
    value {
      list {
        s: "loc:@densenet121/dense_block1/conv_block2/x2/BatchNorm/gamma"
      }
    }
  }
  attr {
    key: "container"
    value {
      s: ""
    }
  }
  attr {
    key: "dtype"
    value {
      type: DT_FLOAT
    }
  }
  attr {
    key: "shape"
    value {
      shape {
        dim {
          size: 128
        }
      }
    }
  }
  attr {
    key: "shared_name"
    value {
      s: ""
    }
  }
}
node {
  name: "densenet121/dense_block1/conv_block2/x2/BatchNorm/beta"
  op: "VariableV2"
  attr {
    key: "_class"
    value {
      list {
        s: "loc:@densenet121/dense_block1/conv_block2/x2/BatchNorm/beta"
      }
    }
  }
  attr {
    key: "container"
    value {
      s: ""
    }
  }
  attr {
    key: "dtype"
    value {
      type: DT_FLOAT
    }
  }
  attr {
    key: "shape"
    value {
      shape {
        dim {
          size: 128
        }
      }
    }
  }
  attr {
    key: "shared_name"
    value {
      s: ""
    }
  }
}
node {
  name: "densenet121/dense_block1/conv_block2/x2/BatchNorm/moving_mean"
  op: "VariableV2"
  attr {
    key: "_class"
    value {
      list {
        s: "loc:@densenet121/dense_block1/conv_block2/x2/BatchNorm/moving_mean"
      }
    }
  }
  attr {
    key: "container"
    value {
      s: ""
    }
  }
  attr {
    key: "dtype"
    value {
      type: DT_FLOAT
    }
  }
  attr {
    key: "shape"
    value {
      shape {
        dim {
          size: 128
        }
      }
    }
  }
  attr {
    key: "shared_name"
    value {
      s: ""
    }
  }
}
node {
  name: "densenet121/dense_block1/conv_block2/x2/BatchNorm/moving_variance"
  op: "VariableV2"
  attr {
    key: "_class"
    value {
      list {
        s: "loc:@densenet121/dense_block1/conv_block2/x2/BatchNorm/moving_variance"
      }
    }
  }
  attr {
    key: "container"
    value {
      s: ""
    }
  }
  attr {
    key: "dtype"
    value {
      type: DT_FLOAT
    }
  }
  attr {
    key: "shape"
    value {
      shape {
        dim {
          size: 128
        }
      }
    }
  }
  attr {
    key: "shared_name"
    value {
      s: ""
    }
  }
}
node {
  name: "densenet121/dense_block1/conv_block2/x2/BatchNorm/FusedBatchNorm"
  op: "FusedBatchNorm"
  input: "densenet121/dense_block1/conv_block2/x1/Conv/Conv2D"
  input: "densenet121/dense_block1/conv_block2/x2/BatchNorm/gamma"
  input: "densenet121/dense_block1/conv_block2/x2/BatchNorm/beta"
  input: "densenet121/dense_block1/conv_block2/x2/BatchNorm/moving_mean"
  input: "densenet121/dense_block1/conv_block2/x2/BatchNorm/moving_variance"
  attr {
    key: "T"
    value {
      type: DT_FLOAT
    }
  }
  attr {
    key: "data_format"
    value {
      s: "NHWC"
    }
  }
  attr {
    key: "epsilon"
    value {
      f: 1.1000000085914508e-05
    }
  }
  attr {
    key: "is_training"
    value {
      b: false
    }
  }
}
node {
  name: "densenet121/dense_block1/conv_block2/x2/Relu"
  op: "Relu"
  input: "densenet121/dense_block1/conv_block2/x2/BatchNorm/FusedBatchNorm"
  attr {
    key: "T"
    value {
      type: DT_FLOAT
    }
  }
}
node {
  name: "densenet121/dense_block1/conv_block2/x2/Conv/weights"
  op: "VariableV2"
  attr {
    key: "_class"
    value {
      list {
        s: "loc:@densenet121/dense_block1/conv_block2/x2/Conv/weights"
      }
    }
  }
  attr {
    key: "container"
    value {
      s: ""
    }
  }
  attr {
    key: "dtype"
    value {
      type: DT_FLOAT
    }
  }
  attr {
    key: "shape"
    value {
      shape {
        dim {
          size: 3
        }
        dim {
          size: 3
        }
        dim {
          size: 128
        }
        dim {
          size: 32
        }
      }
    }
  }
  attr {
    key: "shared_name"
    value {
      s: ""
    }
  }
}
node {
  name: "densenet121/dense_block1/conv_block2/x2/Conv/Conv2D"
  op: "Conv2D"
  input: "densenet121/dense_block1/conv_block2/x2/Relu"
  input: "densenet121/dense_block1/conv_block2/x2/Conv/weights"
  attr {
    key: "T"
    value {
      type: DT_FLOAT
    }
  }
  attr {
    key: "data_format"
    value {
      s: "NHWC"
    }
  }
  attr {
    key: "dilations"
    value {
      list {
        i: 1
        i: 1
        i: 1
        i: 1
      }
    }
  }
  attr {
    key: "explicit_paddings"
    value {
      list {
      }
    }
  }
  attr {
    key: "padding"
    value {
      s: "SAME"
    }
  }
  attr {
    key: "strides"
    value {
      list {
        i: 1
        i: 1
        i: 1
        i: 1
      }
    }
  }
  attr {
    key: "use_cudnn_on_gpu"
    value {
      b: true
    }
  }
}
node {
  name: "densenet121/dense_block1/conv_block2/concat/axis"
  op: "Const"
  attr {
    key: "dtype"
    value {
      type: DT_INT32
    }
  }
  attr {
    key: "value"
    value {
      tensor {
        dtype: DT_INT32
        tensor_shape {
        }
        int_val: 3
      }
    }
  }
}
node {
  name: "densenet121/dense_block1/conv_block2/concat"
  op: "ConcatV2"
  input: "densenet121/dense_block1/conv_block1/concat"
  input: "densenet121/dense_block1/conv_block2/x2/Conv/Conv2D"
  input: "densenet121/dense_block1/conv_block2/concat/axis"
  attr {
    key: "N"
    value {
      i: 2
    }
  }
  attr {
    key: "T"
    value {
      type: DT_FLOAT
    }
  }
  attr {
    key: "Tidx"
    value {
      type: DT_INT32
    }
  }
}
node {
  name: "densenet121/dense_block1/conv_block3/x1/BatchNorm/gamma"
  op: "VariableV2"
  attr {
    key: "_class"
    value {
      list {
        s: "loc:@densenet121/dense_block1/conv_block3/x1/BatchNorm/gamma"
      }
    }
  }
  attr {
    key: "container"
    value {
      s: ""
    }
  }
  attr {
    key: "dtype"
    value {
      type: DT_FLOAT
    }
  }
  attr {
    key: "shape"
    value {
      shape {
        dim {
          size: 128
        }
      }
    }
  }
  attr {
    key: "shared_name"
    value {
      s: ""
    }
  }
}
node {
  name: "densenet121/dense_block1/conv_block3/x1/BatchNorm/beta"
  op: "VariableV2"
  attr {
    key: "_class"
    value {
      list {
        s: "loc:@densenet121/dense_block1/conv_block3/x1/BatchNorm/beta"
      }
    }
  }
  attr {
    key: "container"
    value {
      s: ""
    }
  }
  attr {
    key: "dtype"
    value {
      type: DT_FLOAT
    }
  }
  attr {
    key: "shape"
    value {
      shape {
        dim {
          size: 128
        }
      }
    }
  }
  attr {
    key: "shared_name"
    value {
      s: ""
    }
  }
}
node {
  name: "densenet121/dense_block1/conv_block3/x1/BatchNorm/moving_mean"
  op: "VariableV2"
  attr {
    key: "_class"
    value {
      list {
        s: "loc:@densenet121/dense_block1/conv_block3/x1/BatchNorm/moving_mean"
      }
    }
  }
  attr {
    key: "container"
    value {
      s: ""
    }
  }
  attr {
    key: "dtype"
    value {
      type: DT_FLOAT
    }
  }
  attr {
    key: "shape"
    value {
      shape {
        dim {
          size: 128
        }
      }
    }
  }
  attr {
    key: "shared_name"
    value {
      s: ""
    }
  }
}
node {
  name: "densenet121/dense_block1/conv_block3/x1/BatchNorm/moving_variance"
  op: "VariableV2"
  attr {
    key: "_class"
    value {
      list {
        s: "loc:@densenet121/dense_block1/conv_block3/x1/BatchNorm/moving_variance"
      }
    }
  }
  attr {
    key: "container"
    value {
      s: ""
    }
  }
  attr {
    key: "dtype"
    value {
      type: DT_FLOAT
    }
  }
  attr {
    key: "shape"
    value {
      shape {
        dim {
          size: 128
        }
      }
    }
  }
  attr {
    key: "shared_name"
    value {
      s: ""
    }
  }
}
node {
  name: "densenet121/dense_block1/conv_block3/x1/BatchNorm/FusedBatchNorm"
  op: "FusedBatchNorm"
  input: "densenet121/dense_block1/conv_block2/concat"
  input: "densenet121/dense_block1/conv_block3/x1/BatchNorm/gamma"
  input: "densenet121/dense_block1/conv_block3/x1/BatchNorm/beta"
  input: "densenet121/dense_block1/conv_block3/x1/BatchNorm/moving_mean"
  input: "densenet121/dense_block1/conv_block3/x1/BatchNorm/moving_variance"
  attr {
    key: "T"
    value {
      type: DT_FLOAT
    }
  }
  attr {
    key: "data_format"
    value {
      s: "NHWC"
    }
  }
  attr {
    key: "epsilon"
    value {
      f: 1.1000000085914508e-05
    }
  }
  attr {
    key: "is_training"
    value {
      b: false
    }
  }
}
node {
  name: "densenet121/dense_block1/conv_block3/x1/Relu"
  op: "Relu"
  input: "densenet121/dense_block1/conv_block3/x1/BatchNorm/FusedBatchNorm"
  attr {
    key: "T"
    value {
      type: DT_FLOAT
    }
  }
}
node {
  name: "densenet121/dense_block1/conv_block3/x1/Conv/weights"
  op: "VariableV2"
  attr {
    key: "_class"
    value {
      list {
        s: "loc:@densenet121/dense_block1/conv_block3/x1/Conv/weights"
      }
    }
  }
  attr {
    key: "container"
    value {
      s: ""
    }
  }
  attr {
    key: "dtype"
    value {
      type: DT_FLOAT
    }
  }
  attr {
    key: "shape"
    value {
      shape {
        dim {
          size: 1
        }
        dim {
          size: 1
        }
        dim {
          size: 128
        }
        dim {
          size: 128
        }
      }
    }
  }
  attr {
    key: "shared_name"
    value {
      s: ""
    }
  }
}
node {
  name: "densenet121/dense_block1/conv_block3/x1/Conv/Conv2D"
  op: "Conv2D"
  input: "densenet121/dense_block1/conv_block3/x1/Relu"
  input: "densenet121/dense_block1/conv_block3/x1/Conv/weights"
  attr {
    key: "T"
    value {
      type: DT_FLOAT
    }
  }
  attr {
    key: "data_format"
    value {
      s: "NHWC"
    }
  }
  attr {
    key: "dilations"
    value {
      list {
        i: 1
        i: 1
        i: 1
        i: 1
      }
    }
  }
  attr {
    key: "explicit_paddings"
    value {
      list {
      }
    }
  }
  attr {
    key: "padding"
    value {
      s: "SAME"
    }
  }
  attr {
    key: "strides"
    value {
      list {
        i: 1
        i: 1
        i: 1
        i: 1
      }
    }
  }
  attr {
    key: "use_cudnn_on_gpu"
    value {
      b: true
    }
  }
}
node {
  name: "densenet121/dense_block1/conv_block3/x2/BatchNorm/gamma"
  op: "VariableV2"
  attr {
    key: "_class"
    value {
      list {
        s: "loc:@densenet121/dense_block1/conv_block3/x2/BatchNorm/gamma"
      }
    }
  }
  attr {
    key: "container"
    value {
      s: ""
    }
  }
  attr {
    key: "dtype"
    value {
      type: DT_FLOAT
    }
  }
  attr {
    key: "shape"
    value {
      shape {
        dim {
          size: 128
        }
      }
    }
  }
  attr {
    key: "shared_name"
    value {
      s: ""
    }
  }
}
node {
  name: "densenet121/dense_block1/conv_block3/x2/BatchNorm/beta"
  op: "VariableV2"
  attr {
    key: "_class"
    value {
      list {
        s: "loc:@densenet121/dense_block1/conv_block3/x2/BatchNorm/beta"
      }
    }
  }
  attr {
    key: "container"
    value {
      s: ""
    }
  }
  attr {
    key: "dtype"
    value {
      type: DT_FLOAT
    }
  }
  attr {
    key: "shape"
    value {
      shape {
        dim {
          size: 128
        }
      }
    }
  }
  attr {
    key: "shared_name"
    value {
      s: ""
    }
  }
}
node {
  name: "densenet121/dense_block1/conv_block3/x2/BatchNorm/moving_mean"
  op: "VariableV2"
  attr {
    key: "_class"
    value {
      list {
        s: "loc:@densenet121/dense_block1/conv_block3/x2/BatchNorm/moving_mean"
      }
    }
  }
  attr {
    key: "container"
    value {
      s: ""
    }
  }
  attr {
    key: "dtype"
    value {
      type: DT_FLOAT
    }
  }
  attr {
    key: "shape"
    value {
      shape {
        dim {
          size: 128
        }
      }
    }
  }
  attr {
    key: "shared_name"
    value {
      s: ""
    }
  }
}
node {
  name: "densenet121/dense_block1/conv_block3/x2/BatchNorm/moving_variance"
  op: "VariableV2"
  attr {
    key: "_class"
    value {
      list {
        s: "loc:@densenet121/dense_block1/conv_block3/x2/BatchNorm/moving_variance"
      }
    }
  }
  attr {
    key: "container"
    value {
      s: ""
    }
  }
  attr {
    key: "dtype"
    value {
      type: DT_FLOAT
    }
  }
  attr {
    key: "shape"
    value {
      shape {
        dim {
          size: 128
        }
      }
    }
  }
  attr {
    key: "shared_name"
    value {
      s: ""
    }
  }
}
node {
  name: "densenet121/dense_block1/conv_block3/x2/BatchNorm/FusedBatchNorm"
  op: "FusedBatchNorm"
  input: "densenet121/dense_block1/conv_block3/x1/Conv/Conv2D"
  input: "densenet121/dense_block1/conv_block3/x2/BatchNorm/gamma"
  input: "densenet121/dense_block1/conv_block3/x2/BatchNorm/beta"
  input: "densenet121/dense_block1/conv_block3/x2/BatchNorm/moving_mean"
  input: "densenet121/dense_block1/conv_block3/x2/BatchNorm/moving_variance"
  attr {
    key: "T"
    value {
      type: DT_FLOAT
    }
  }
  attr {
    key: "data_format"
    value {
      s: "NHWC"
    }
  }
  attr {
    key: "epsilon"
    value {
      f: 1.1000000085914508e-05
    }
  }
  attr {
    key: "is_training"
    value {
      b: false
    }
  }
}
node {
  name: "densenet121/dense_block1/conv_block3/x2/Relu"
  op: "Relu"
  input: "densenet121/dense_block1/conv_block3/x2/BatchNorm/FusedBatchNorm"
  attr {
    key: "T"
    value {
      type: DT_FLOAT
    }
  }
}
node {
  name: "densenet121/dense_block1/conv_block3/x2/Conv/weights"
  op: "VariableV2"
  attr {
    key: "_class"
    value {
      list {
        s: "loc:@densenet121/dense_block1/conv_block3/x2/Conv/weights"
      }
    }
  }
  attr {
    key: "container"
    value {
      s: ""
    }
  }
  attr {
    key: "dtype"
    value {
      type: DT_FLOAT
    }
  }
  attr {
    key: "shape"
    value {
      shape {
        dim {
          size: 3
        }
        dim {
          size: 3
        }
        dim {
          size: 128
        }
        dim {
          size: 32
        }
      }
    }
  }
  attr {
    key: "shared_name"
    value {
      s: ""
    }
  }
}
node {
  name: "densenet121/dense_block1/conv_block3/x2/Conv/Conv2D"
  op: "Conv2D"
  input: "densenet121/dense_block1/conv_block3/x2/Relu"
  input: "densenet121/dense_block1/conv_block3/x2/Conv/weights"
  attr {
    key: "T"
    value {
      type: DT_FLOAT
    }
  }
  attr {
    key: "data_format"
    value {
      s: "NHWC"
    }
  }
  attr {
    key: "dilations"
    value {
      list {
        i: 1
        i: 1
        i: 1
        i: 1
      }
    }
  }
  attr {
    key: "explicit_paddings"
    value {
      list {
      }
    }
  }
  attr {
    key: "padding"
    value {
      s: "SAME"
    }
  }
  attr {
    key: "strides"
    value {
      list {
        i: 1
        i: 1
        i: 1
        i: 1
      }
    }
  }
  attr {
    key: "use_cudnn_on_gpu"
    value {
      b: true
    }
  }
}
node {
  name: "densenet121/dense_block1/conv_block3/concat/axis"
  op: "Const"
  attr {
    key: "dtype"
    value {
      type: DT_INT32
    }
  }
  attr {
    key: "value"
    value {
      tensor {
        dtype: DT_INT32
        tensor_shape {
        }
        int_val: 3
      }
    }
  }
}
node {
  name: "densenet121/dense_block1/conv_block3/concat"
  op: "ConcatV2"
  input: "densenet121/dense_block1/conv_block2/concat"
  input: "densenet121/dense_block1/conv_block3/x2/Conv/Conv2D"
  input: "densenet121/dense_block1/conv_block3/concat/axis"
  attr {
    key: "N"
    value {
      i: 2
    }
  }
  attr {
    key: "T"
    value {
      type: DT_FLOAT
    }
  }
  attr {
    key: "Tidx"
    value {
      type: DT_INT32
    }
  }
}
node {
  name: "densenet121/dense_block1/conv_block4/x1/BatchNorm/gamma"
  op: "VariableV2"
  attr {
    key: "_class"
    value {
      list {
        s: "loc:@densenet121/dense_block1/conv_block4/x1/BatchNorm/gamma"
      }
    }
  }
  attr {
    key: "container"
    value {
      s: ""
    }
  }
  attr {
    key: "dtype"
    value {
      type: DT_FLOAT
    }
  }
  attr {
    key: "shape"
    value {
      shape {
        dim {
          size: 160
        }
      }
    }
  }
  attr {
    key: "shared_name"
    value {
      s: ""
    }
  }
}
node {
  name: "densenet121/dense_block1/conv_block4/x1/BatchNorm/beta"
  op: "VariableV2"
  attr {
    key: "_class"
    value {
      list {
        s: "loc:@densenet121/dense_block1/conv_block4/x1/BatchNorm/beta"
      }
    }
  }
  attr {
    key: "container"
    value {
      s: ""
    }
  }
  attr {
    key: "dtype"
    value {
      type: DT_FLOAT
    }
  }
  attr {
    key: "shape"
    value {
      shape {
        dim {
          size: 160
        }
      }
    }
  }
  attr {
    key: "shared_name"
    value {
      s: ""
    }
  }
}
node {
  name: "densenet121/dense_block1/conv_block4/x1/BatchNorm/moving_mean"
  op: "VariableV2"
  attr {
    key: "_class"
    value {
      list {
        s: "loc:@densenet121/dense_block1/conv_block4/x1/BatchNorm/moving_mean"
      }
    }
  }
  attr {
    key: "container"
    value {
      s: ""
    }
  }
  attr {
    key: "dtype"
    value {
      type: DT_FLOAT
    }
  }
  attr {
    key: "shape"
    value {
      shape {
        dim {
          size: 160
        }
      }
    }
  }
  attr {
    key: "shared_name"
    value {
      s: ""
    }
  }
}
node {
  name: "densenet121/dense_block1/conv_block4/x1/BatchNorm/moving_variance"
  op: "VariableV2"
  attr {
    key: "_class"
    value {
      list {
        s: "loc:@densenet121/dense_block1/conv_block4/x1/BatchNorm/moving_variance"
      }
    }
  }
  attr {
    key: "container"
    value {
      s: ""
    }
  }
  attr {
    key: "dtype"
    value {
      type: DT_FLOAT
    }
  }
  attr {
    key: "shape"
    value {
      shape {
        dim {
          size: 160
        }
      }
    }
  }
  attr {
    key: "shared_name"
    value {
      s: ""
    }
  }
}
node {
  name: "densenet121/dense_block1/conv_block4/x1/BatchNorm/FusedBatchNorm"
  op: "FusedBatchNorm"
  input: "densenet121/dense_block1/conv_block3/concat"
  input: "densenet121/dense_block1/conv_block4/x1/BatchNorm/gamma"
  input: "densenet121/dense_block1/conv_block4/x1/BatchNorm/beta"
  input: "densenet121/dense_block1/conv_block4/x1/BatchNorm/moving_mean"
  input: "densenet121/dense_block1/conv_block4/x1/BatchNorm/moving_variance"
  attr {
    key: "T"
    value {
      type: DT_FLOAT
    }
  }
  attr {
    key: "data_format"
    value {
      s: "NHWC"
    }
  }
  attr {
    key: "epsilon"
    value {
      f: 1.1000000085914508e-05
    }
  }
  attr {
    key: "is_training"
    value {
      b: false
    }
  }
}
node {
  name: "densenet121/dense_block1/conv_block4/x1/Relu"
  op: "Relu"
  input: "densenet121/dense_block1/conv_block4/x1/BatchNorm/FusedBatchNorm"
  attr {
    key: "T"
    value {
      type: DT_FLOAT
    }
  }
}
node {
  name: "densenet121/dense_block1/conv_block4/x1/Conv/weights"
  op: "VariableV2"
  attr {
    key: "_class"
    value {
      list {
        s: "loc:@densenet121/dense_block1/conv_block4/x1/Conv/weights"
      }
    }
  }
  attr {
    key: "container"
    value {
      s: ""
    }
  }
  attr {
    key: "dtype"
    value {
      type: DT_FLOAT
    }
  }
  attr {
    key: "shape"
    value {
      shape {
        dim {
          size: 1
        }
        dim {
          size: 1
        }
        dim {
          size: 160
        }
        dim {
          size: 128
        }
      }
    }
  }
  attr {
    key: "shared_name"
    value {
      s: ""
    }
  }
}
node {
  name: "densenet121/dense_block1/conv_block4/x1/Conv/Conv2D"
  op: "Conv2D"
  input: "densenet121/dense_block1/conv_block4/x1/Relu"
  input: "densenet121/dense_block1/conv_block4/x1/Conv/weights"
  attr {
    key: "T"
    value {
      type: DT_FLOAT
    }
  }
  attr {
    key: "data_format"
    value {
      s: "NHWC"
    }
  }
  attr {
    key: "dilations"
    value {
      list {
        i: 1
        i: 1
        i: 1
        i: 1
      }
    }
  }
  attr {
    key: "explicit_paddings"
    value {
      list {
      }
    }
  }
  attr {
    key: "padding"
    value {
      s: "SAME"
    }
  }
  attr {
    key: "strides"
    value {
      list {
        i: 1
        i: 1
        i: 1
        i: 1
      }
    }
  }
  attr {
    key: "use_cudnn_on_gpu"
    value {
      b: true
    }
  }
}
node {
  name: "densenet121/dense_block1/conv_block4/x2/BatchNorm/gamma"
  op: "VariableV2"
  attr {
    key: "_class"
    value {
      list {
        s: "loc:@densenet121/dense_block1/conv_block4/x2/BatchNorm/gamma"
      }
    }
  }
  attr {
    key: "container"
    value {
      s: ""
    }
  }
  attr {
    key: "dtype"
    value {
      type: DT_FLOAT
    }
  }
  attr {
    key: "shape"
    value {
      shape {
        dim {
          size: 128
        }
      }
    }
  }
  attr {
    key: "shared_name"
    value {
      s: ""
    }
  }
}
node {
  name: "densenet121/dense_block1/conv_block4/x2/BatchNorm/beta"
  op: "VariableV2"
  attr {
    key: "_class"
    value {
      list {
        s: "loc:@densenet121/dense_block1/conv_block4/x2/BatchNorm/beta"
      }
    }
  }
  attr {
    key: "container"
    value {
      s: ""
    }
  }
  attr {
    key: "dtype"
    value {
      type: DT_FLOAT
    }
  }
  attr {
    key: "shape"
    value {
      shape {
        dim {
          size: 128
        }
      }
    }
  }
  attr {
    key: "shared_name"
    value {
      s: ""
    }
  }
}
node {
  name: "densenet121/dense_block1/conv_block4/x2/BatchNorm/moving_mean"
  op: "VariableV2"
  attr {
    key: "_class"
    value {
      list {
        s: "loc:@densenet121/dense_block1/conv_block4/x2/BatchNorm/moving_mean"
      }
    }
  }
  attr {
    key: "container"
    value {
      s: ""
    }
  }
  attr {
    key: "dtype"
    value {
      type: DT_FLOAT
    }
  }
  attr {
    key: "shape"
    value {
      shape {
        dim {
          size: 128
        }
      }
    }
  }
  attr {
    key: "shared_name"
    value {
      s: ""
    }
  }
}
node {
  name: "densenet121/dense_block1/conv_block4/x2/BatchNorm/moving_variance"
  op: "VariableV2"
  attr {
    key: "_class"
    value {
      list {
        s: "loc:@densenet121/dense_block1/conv_block4/x2/BatchNorm/moving_variance"
      }
    }
  }
  attr {
    key: "container"
    value {
      s: ""
    }
  }
  attr {
    key: "dtype"
    value {
      type: DT_FLOAT
    }
  }
  attr {
    key: "shape"
    value {
      shape {
        dim {
          size: 128
        }
      }
    }
  }
  attr {
    key: "shared_name"
    value {
      s: ""
    }
  }
}
node {
  name: "densenet121/dense_block1/conv_block4/x2/BatchNorm/FusedBatchNorm"
  op: "FusedBatchNorm"
  input: "densenet121/dense_block1/conv_block4/x1/Conv/Conv2D"
  input: "densenet121/dense_block1/conv_block4/x2/BatchNorm/gamma"
  input: "densenet121/dense_block1/conv_block4/x2/BatchNorm/beta"
  input: "densenet121/dense_block1/conv_block4/x2/BatchNorm/moving_mean"
  input: "densenet121/dense_block1/conv_block4/x2/BatchNorm/moving_variance"
  attr {
    key: "T"
    value {
      type: DT_FLOAT
    }
  }
  attr {
    key: "data_format"
    value {
      s: "NHWC"
    }
  }
  attr {
    key: "epsilon"
    value {
      f: 1.1000000085914508e-05
    }
  }
  attr {
    key: "is_training"
    value {
      b: false
    }
  }
}
node {
  name: "densenet121/dense_block1/conv_block4/x2/Relu"
  op: "Relu"
  input: "densenet121/dense_block1/conv_block4/x2/BatchNorm/FusedBatchNorm"
  attr {
    key: "T"
    value {
      type: DT_FLOAT
    }
  }
}
node {
  name: "densenet121/dense_block1/conv_block4/x2/Conv/weights"
  op: "VariableV2"
  attr {
    key: "_class"
    value {
      list {
        s: "loc:@densenet121/dense_block1/conv_block4/x2/Conv/weights"
      }
    }
  }
  attr {
    key: "container"
    value {
      s: ""
    }
  }
  attr {
    key: "dtype"
    value {
      type: DT_FLOAT
    }
  }
  attr {
    key: "shape"
    value {
      shape {
        dim {
          size: 3
        }
        dim {
          size: 3
        }
        dim {
          size: 128
        }
        dim {
          size: 32
        }
      }
    }
  }
  attr {
    key: "shared_name"
    value {
      s: ""
    }
  }
}
node {
  name: "densenet121/dense_block1/conv_block4/x2/Conv/Conv2D"
  op: "Conv2D"
  input: "densenet121/dense_block1/conv_block4/x2/Relu"
  input: "densenet121/dense_block1/conv_block4/x2/Conv/weights"
  attr {
    key: "T"
    value {
      type: DT_FLOAT
    }
  }
  attr {
    key: "data_format"
    value {
      s: "NHWC"
    }
  }
  attr {
    key: "dilations"
    value {
      list {
        i: 1
        i: 1
        i: 1
        i: 1
      }
    }
  }
  attr {
    key: "explicit_paddings"
    value {
      list {
      }
    }
  }
  attr {
    key: "padding"
    value {
      s: "SAME"
    }
  }
  attr {
    key: "strides"
    value {
      list {
        i: 1
        i: 1
        i: 1
        i: 1
      }
    }
  }
  attr {
    key: "use_cudnn_on_gpu"
    value {
      b: true
    }
  }
}
node {
  name: "densenet121/dense_block1/conv_block4/concat/axis"
  op: "Const"
  attr {
    key: "dtype"
    value {
      type: DT_INT32
    }
  }
  attr {
    key: "value"
    value {
      tensor {
        dtype: DT_INT32
        tensor_shape {
        }
        int_val: 3
      }
    }
  }
}
node {
  name: "densenet121/dense_block1/conv_block4/concat"
  op: "ConcatV2"
  input: "densenet121/dense_block1/conv_block3/concat"
  input: "densenet121/dense_block1/conv_block4/x2/Conv/Conv2D"
  input: "densenet121/dense_block1/conv_block4/concat/axis"
  attr {
    key: "N"
    value {
      i: 2
    }
  }
  attr {
    key: "T"
    value {
      type: DT_FLOAT
    }
  }
  attr {
    key: "Tidx"
    value {
      type: DT_INT32
    }
  }
}
node {
  name: "densenet121/dense_block1/conv_block5/x1/BatchNorm/gamma"
  op: "VariableV2"
  attr {
    key: "_class"
    value {
      list {
        s: "loc:@densenet121/dense_block1/conv_block5/x1/BatchNorm/gamma"
      }
    }
  }
  attr {
    key: "container"
    value {
      s: ""
    }
  }
  attr {
    key: "dtype"
    value {
      type: DT_FLOAT
    }
  }
  attr {
    key: "shape"
    value {
      shape {
        dim {
          size: 192
        }
      }
    }
  }
  attr {
    key: "shared_name"
    value {
      s: ""
    }
  }
}
node {
  name: "densenet121/dense_block1/conv_block5/x1/BatchNorm/beta"
  op: "VariableV2"
  attr {
    key: "_class"
    value {
      list {
        s: "loc:@densenet121/dense_block1/conv_block5/x1/BatchNorm/beta"
      }
    }
  }
  attr {
    key: "container"
    value {
      s: ""
    }
  }
  attr {
    key: "dtype"
    value {
      type: DT_FLOAT
    }
  }
  attr {
    key: "shape"
    value {
      shape {
        dim {
          size: 192
        }
      }
    }
  }
  attr {
    key: "shared_name"
    value {
      s: ""
    }
  }
}
node {
  name: "densenet121/dense_block1/conv_block5/x1/BatchNorm/moving_mean"
  op: "VariableV2"
  attr {
    key: "_class"
    value {
      list {
        s: "loc:@densenet121/dense_block1/conv_block5/x1/BatchNorm/moving_mean"
      }
    }
  }
  attr {
    key: "container"
    value {
      s: ""
    }
  }
  attr {
    key: "dtype"
    value {
      type: DT_FLOAT
    }
  }
  attr {
    key: "shape"
    value {
      shape {
        dim {
          size: 192
        }
      }
    }
  }
  attr {
    key: "shared_name"
    value {
      s: ""
    }
  }
}
node {
  name: "densenet121/dense_block1/conv_block5/x1/BatchNorm/moving_variance"
  op: "VariableV2"
  attr {
    key: "_class"
    value {
      list {
        s: "loc:@densenet121/dense_block1/conv_block5/x1/BatchNorm/moving_variance"
      }
    }
  }
  attr {
    key: "container"
    value {
      s: ""
    }
  }
  attr {
    key: "dtype"
    value {
      type: DT_FLOAT
    }
  }
  attr {
    key: "shape"
    value {
      shape {
        dim {
          size: 192
        }
      }
    }
  }
  attr {
    key: "shared_name"
    value {
      s: ""
    }
  }
}
node {
  name: "densenet121/dense_block1/conv_block5/x1/BatchNorm/FusedBatchNorm"
  op: "FusedBatchNorm"
  input: "densenet121/dense_block1/conv_block4/concat"
  input: "densenet121/dense_block1/conv_block5/x1/BatchNorm/gamma"
  input: "densenet121/dense_block1/conv_block5/x1/BatchNorm/beta"
  input: "densenet121/dense_block1/conv_block5/x1/BatchNorm/moving_mean"
  input: "densenet121/dense_block1/conv_block5/x1/BatchNorm/moving_variance"
  attr {
    key: "T"
    value {
      type: DT_FLOAT
    }
  }
  attr {
    key: "data_format"
    value {
      s: "NHWC"
    }
  }
  attr {
    key: "epsilon"
    value {
      f: 1.1000000085914508e-05
    }
  }
  attr {
    key: "is_training"
    value {
      b: false
    }
  }
}
node {
  name: "densenet121/dense_block1/conv_block5/x1/Relu"
  op: "Relu"
  input: "densenet121/dense_block1/conv_block5/x1/BatchNorm/FusedBatchNorm"
  attr {
    key: "T"
    value {
      type: DT_FLOAT
    }
  }
}
node {
  name: "densenet121/dense_block1/conv_block5/x1/Conv/weights"
  op: "VariableV2"
  attr {
    key: "_class"
    value {
      list {
        s: "loc:@densenet121/dense_block1/conv_block5/x1/Conv/weights"
      }
    }
  }
  attr {
    key: "container"
    value {
      s: ""
    }
  }
  attr {
    key: "dtype"
    value {
      type: DT_FLOAT
    }
  }
  attr {
    key: "shape"
    value {
      shape {
        dim {
          size: 1
        }
        dim {
          size: 1
        }
        dim {
          size: 192
        }
        dim {
          size: 128
        }
      }
    }
  }
  attr {
    key: "shared_name"
    value {
      s: ""
    }
  }
}
node {
  name: "densenet121/dense_block1/conv_block5/x1/Conv/Conv2D"
  op: "Conv2D"
  input: "densenet121/dense_block1/conv_block5/x1/Relu"
  input: "densenet121/dense_block1/conv_block5/x1/Conv/weights"
  attr {
    key: "T"
    value {
      type: DT_FLOAT
    }
  }
  attr {
    key: "data_format"
    value {
      s: "NHWC"
    }
  }
  attr {
    key: "dilations"
    value {
      list {
        i: 1
        i: 1
        i: 1
        i: 1
      }
    }
  }
  attr {
    key: "explicit_paddings"
    value {
      list {
      }
    }
  }
  attr {
    key: "padding"
    value {
      s: "SAME"
    }
  }
  attr {
    key: "strides"
    value {
      list {
        i: 1
        i: 1
        i: 1
        i: 1
      }
    }
  }
  attr {
    key: "use_cudnn_on_gpu"
    value {
      b: true
    }
  }
}
node {
  name: "densenet121/dense_block1/conv_block5/x2/BatchNorm/gamma"
  op: "VariableV2"
  attr {
    key: "_class"
    value {
      list {
        s: "loc:@densenet121/dense_block1/conv_block5/x2/BatchNorm/gamma"
      }
    }
  }
  attr {
    key: "container"
    value {
      s: ""
    }
  }
  attr {
    key: "dtype"
    value {
      type: DT_FLOAT
    }
  }
  attr {
    key: "shape"
    value {
      shape {
        dim {
          size: 128
        }
      }
    }
  }
  attr {
    key: "shared_name"
    value {
      s: ""
    }
  }
}
node {
  name: "densenet121/dense_block1/conv_block5/x2/BatchNorm/beta"
  op: "VariableV2"
  attr {
    key: "_class"
    value {
      list {
        s: "loc:@densenet121/dense_block1/conv_block5/x2/BatchNorm/beta"
      }
    }
  }
  attr {
    key: "container"
    value {
      s: ""
    }
  }
  attr {
    key: "dtype"
    value {
      type: DT_FLOAT
    }
  }
  attr {
    key: "shape"
    value {
      shape {
        dim {
          size: 128
        }
      }
    }
  }
  attr {
    key: "shared_name"
    value {
      s: ""
    }
  }
}
node {
  name: "densenet121/dense_block1/conv_block5/x2/BatchNorm/moving_mean"
  op: "VariableV2"
  attr {
    key: "_class"
    value {
      list {
        s: "loc:@densenet121/dense_block1/conv_block5/x2/BatchNorm/moving_mean"
      }
    }
  }
  attr {
    key: "container"
    value {
      s: ""
    }
  }
  attr {
    key: "dtype"
    value {
      type: DT_FLOAT
    }
  }
  attr {
    key: "shape"
    value {
      shape {
        dim {
          size: 128
        }
      }
    }
  }
  attr {
    key: "shared_name"
    value {
      s: ""
    }
  }
}
node {
  name: "densenet121/dense_block1/conv_block5/x2/BatchNorm/moving_variance"
  op: "VariableV2"
  attr {
    key: "_class"
    value {
      list {
        s: "loc:@densenet121/dense_block1/conv_block5/x2/BatchNorm/moving_variance"
      }
    }
  }
  attr {
    key: "container"
    value {
      s: ""
    }
  }
  attr {
    key: "dtype"
    value {
      type: DT_FLOAT
    }
  }
  attr {
    key: "shape"
    value {
      shape {
        dim {
          size: 128
        }
      }
    }
  }
  attr {
    key: "shared_name"
    value {
      s: ""
    }
  }
}
node {
  name: "densenet121/dense_block1/conv_block5/x2/BatchNorm/FusedBatchNorm"
  op: "FusedBatchNorm"
  input: "densenet121/dense_block1/conv_block5/x1/Conv/Conv2D"
  input: "densenet121/dense_block1/conv_block5/x2/BatchNorm/gamma"
  input: "densenet121/dense_block1/conv_block5/x2/BatchNorm/beta"
  input: "densenet121/dense_block1/conv_block5/x2/BatchNorm/moving_mean"
  input: "densenet121/dense_block1/conv_block5/x2/BatchNorm/moving_variance"
  attr {
    key: "T"
    value {
      type: DT_FLOAT
    }
  }
  attr {
    key: "data_format"
    value {
      s: "NHWC"
    }
  }
  attr {
    key: "epsilon"
    value {
      f: 1.1000000085914508e-05
    }
  }
  attr {
    key: "is_training"
    value {
      b: false
    }
  }
}
node {
  name: "densenet121/dense_block1/conv_block5/x2/Relu"
  op: "Relu"
  input: "densenet121/dense_block1/conv_block5/x2/BatchNorm/FusedBatchNorm"
  attr {
    key: "T"
    value {
      type: DT_FLOAT
    }
  }
}
node {
  name: "densenet121/dense_block1/conv_block5/x2/Conv/weights"
  op: "VariableV2"
  attr {
    key: "_class"
    value {
      list {
        s: "loc:@densenet121/dense_block1/conv_block5/x2/Conv/weights"
      }
    }
  }
  attr {
    key: "container"
    value {
      s: ""
    }
  }
  attr {
    key: "dtype"
    value {
      type: DT_FLOAT
    }
  }
  attr {
    key: "shape"
    value {
      shape {
        dim {
          size: 3
        }
        dim {
          size: 3
        }
        dim {
          size: 128
        }
        dim {
          size: 32
        }
      }
    }
  }
  attr {
    key: "shared_name"
    value {
      s: ""
    }
  }
}
node {
  name: "densenet121/dense_block1/conv_block5/x2/Conv/Conv2D"
  op: "Conv2D"
  input: "densenet121/dense_block1/conv_block5/x2/Relu"
  input: "densenet121/dense_block1/conv_block5/x2/Conv/weights"
  attr {
    key: "T"
    value {
      type: DT_FLOAT
    }
  }
  attr {
    key: "data_format"
    value {
      s: "NHWC"
    }
  }
  attr {
    key: "dilations"
    value {
      list {
        i: 1
        i: 1
        i: 1
        i: 1
      }
    }
  }
  attr {
    key: "explicit_paddings"
    value {
      list {
      }
    }
  }
  attr {
    key: "padding"
    value {
      s: "SAME"
    }
  }
  attr {
    key: "strides"
    value {
      list {
        i: 1
        i: 1
        i: 1
        i: 1
      }
    }
  }
  attr {
    key: "use_cudnn_on_gpu"
    value {
      b: true
    }
  }
}
node {
  name: "densenet121/dense_block1/conv_block5/concat/axis"
  op: "Const"
  attr {
    key: "dtype"
    value {
      type: DT_INT32
    }
  }
  attr {
    key: "value"
    value {
      tensor {
        dtype: DT_INT32
        tensor_shape {
        }
        int_val: 3
      }
    }
  }
}
node {
  name: "densenet121/dense_block1/conv_block5/concat"
  op: "ConcatV2"
  input: "densenet121/dense_block1/conv_block4/concat"
  input: "densenet121/dense_block1/conv_block5/x2/Conv/Conv2D"
  input: "densenet121/dense_block1/conv_block5/concat/axis"
  attr {
    key: "N"
    value {
      i: 2
    }
  }
  attr {
    key: "T"
    value {
      type: DT_FLOAT
    }
  }
  attr {
    key: "Tidx"
    value {
      type: DT_INT32
    }
  }
}
node {
  name: "densenet121/dense_block1/conv_block6/x1/BatchNorm/gamma"
  op: "VariableV2"
  attr {
    key: "_class"
    value {
      list {
        s: "loc:@densenet121/dense_block1/conv_block6/x1/BatchNorm/gamma"
      }
    }
  }
  attr {
    key: "container"
    value {
      s: ""
    }
  }
  attr {
    key: "dtype"
    value {
      type: DT_FLOAT
    }
  }
  attr {
    key: "shape"
    value {
      shape {
        dim {
          size: 224
        }
      }
    }
  }
  attr {
    key: "shared_name"
    value {
      s: ""
    }
  }
}
node {
  name: "densenet121/dense_block1/conv_block6/x1/BatchNorm/beta"
  op: "VariableV2"
  attr {
    key: "_class"
    value {
      list {
        s: "loc:@densenet121/dense_block1/conv_block6/x1/BatchNorm/beta"
      }
    }
  }
  attr {
    key: "container"
    value {
      s: ""
    }
  }
  attr {
    key: "dtype"
    value {
      type: DT_FLOAT
    }
  }
  attr {
    key: "shape"
    value {
      shape {
        dim {
          size: 224
        }
      }
    }
  }
  attr {
    key: "shared_name"
    value {
      s: ""
    }
  }
}
node {
  name: "densenet121/dense_block1/conv_block6/x1/BatchNorm/moving_mean"
  op: "VariableV2"
  attr {
    key: "_class"
    value {
      list {
        s: "loc:@densenet121/dense_block1/conv_block6/x1/BatchNorm/moving_mean"
      }
    }
  }
  attr {
    key: "container"
    value {
      s: ""
    }
  }
  attr {
    key: "dtype"
    value {
      type: DT_FLOAT
    }
  }
  attr {
    key: "shape"
    value {
      shape {
        dim {
          size: 224
        }
      }
    }
  }
  attr {
    key: "shared_name"
    value {
      s: ""
    }
  }
}
node {
  name: "densenet121/dense_block1/conv_block6/x1/BatchNorm/moving_variance"
  op: "VariableV2"
  attr {
    key: "_class"
    value {
      list {
        s: "loc:@densenet121/dense_block1/conv_block6/x1/BatchNorm/moving_variance"
      }
    }
  }
  attr {
    key: "container"
    value {
      s: ""
    }
  }
  attr {
    key: "dtype"
    value {
      type: DT_FLOAT
    }
  }
  attr {
    key: "shape"
    value {
      shape {
        dim {
          size: 224
        }
      }
    }
  }
  attr {
    key: "shared_name"
    value {
      s: ""
    }
  }
}
node {
  name: "densenet121/dense_block1/conv_block6/x1/BatchNorm/FusedBatchNorm"
  op: "FusedBatchNorm"
  input: "densenet121/dense_block1/conv_block5/concat"
  input: "densenet121/dense_block1/conv_block6/x1/BatchNorm/gamma"
  input: "densenet121/dense_block1/conv_block6/x1/BatchNorm/beta"
  input: "densenet121/dense_block1/conv_block6/x1/BatchNorm/moving_mean"
  input: "densenet121/dense_block1/conv_block6/x1/BatchNorm/moving_variance"
  attr {
    key: "T"
    value {
      type: DT_FLOAT
    }
  }
  attr {
    key: "data_format"
    value {
      s: "NHWC"
    }
  }
  attr {
    key: "epsilon"
    value {
      f: 1.1000000085914508e-05
    }
  }
  attr {
    key: "is_training"
    value {
      b: false
    }
  }
}
node {
  name: "densenet121/dense_block1/conv_block6/x1/Relu"
  op: "Relu"
  input: "densenet121/dense_block1/conv_block6/x1/BatchNorm/FusedBatchNorm"
  attr {
    key: "T"
    value {
      type: DT_FLOAT
    }
  }
}
node {
  name: "densenet121/dense_block1/conv_block6/x1/Conv/weights"
  op: "VariableV2"
  attr {
    key: "_class"
    value {
      list {
        s: "loc:@densenet121/dense_block1/conv_block6/x1/Conv/weights"
      }
    }
  }
  attr {
    key: "container"
    value {
      s: ""
    }
  }
  attr {
    key: "dtype"
    value {
      type: DT_FLOAT
    }
  }
  attr {
    key: "shape"
    value {
      shape {
        dim {
          size: 1
        }
        dim {
          size: 1
        }
        dim {
          size: 224
        }
        dim {
          size: 128
        }
      }
    }
  }
  attr {
    key: "shared_name"
    value {
      s: ""
    }
  }
}
node {
  name: "densenet121/dense_block1/conv_block6/x1/Conv/Conv2D"
  op: "Conv2D"
  input: "densenet121/dense_block1/conv_block6/x1/Relu"
  input: "densenet121/dense_block1/conv_block6/x1/Conv/weights"
  attr {
    key: "T"
    value {
      type: DT_FLOAT
    }
  }
  attr {
    key: "data_format"
    value {
      s: "NHWC"
    }
  }
  attr {
    key: "dilations"
    value {
      list {
        i: 1
        i: 1
        i: 1
        i: 1
      }
    }
  }
  attr {
    key: "explicit_paddings"
    value {
      list {
      }
    }
  }
  attr {
    key: "padding"
    value {
      s: "SAME"
    }
  }
  attr {
    key: "strides"
    value {
      list {
        i: 1
        i: 1
        i: 1
        i: 1
      }
    }
  }
  attr {
    key: "use_cudnn_on_gpu"
    value {
      b: true
    }
  }
}
node {
  name: "densenet121/dense_block1/conv_block6/x2/BatchNorm/gamma"
  op: "VariableV2"
  attr {
    key: "_class"
    value {
      list {
        s: "loc:@densenet121/dense_block1/conv_block6/x2/BatchNorm/gamma"
      }
    }
  }
  attr {
    key: "container"
    value {
      s: ""
    }
  }
  attr {
    key: "dtype"
    value {
      type: DT_FLOAT
    }
  }
  attr {
    key: "shape"
    value {
      shape {
        dim {
          size: 128
        }
      }
    }
  }
  attr {
    key: "shared_name"
    value {
      s: ""
    }
  }
}
node {
  name: "densenet121/dense_block1/conv_block6/x2/BatchNorm/beta"
  op: "VariableV2"
  attr {
    key: "_class"
    value {
      list {
        s: "loc:@densenet121/dense_block1/conv_block6/x2/BatchNorm/beta"
      }
    }
  }
  attr {
    key: "container"
    value {
      s: ""
    }
  }
  attr {
    key: "dtype"
    value {
      type: DT_FLOAT
    }
  }
  attr {
    key: "shape"
    value {
      shape {
        dim {
          size: 128
        }
      }
    }
  }
  attr {
    key: "shared_name"
    value {
      s: ""
    }
  }
}
node {
  name: "densenet121/dense_block1/conv_block6/x2/BatchNorm/moving_mean"
  op: "VariableV2"
  attr {
    key: "_class"
    value {
      list {
        s: "loc:@densenet121/dense_block1/conv_block6/x2/BatchNorm/moving_mean"
      }
    }
  }
  attr {
    key: "container"
    value {
      s: ""
    }
  }
  attr {
    key: "dtype"
    value {
      type: DT_FLOAT
    }
  }
  attr {
    key: "shape"
    value {
      shape {
        dim {
          size: 128
        }
      }
    }
  }
  attr {
    key: "shared_name"
    value {
      s: ""
    }
  }
}
node {
  name: "densenet121/dense_block1/conv_block6/x2/BatchNorm/moving_variance"
  op: "VariableV2"
  attr {
    key: "_class"
    value {
      list {
        s: "loc:@densenet121/dense_block1/conv_block6/x2/BatchNorm/moving_variance"
      }
    }
  }
  attr {
    key: "container"
    value {
      s: ""
    }
  }
  attr {
    key: "dtype"
    value {
      type: DT_FLOAT
    }
  }
  attr {
    key: "shape"
    value {
      shape {
        dim {
          size: 128
        }
      }
    }
  }
  attr {
    key: "shared_name"
    value {
      s: ""
    }
  }
}
node {
  name: "densenet121/dense_block1/conv_block6/x2/BatchNorm/FusedBatchNorm"
  op: "FusedBatchNorm"
  input: "densenet121/dense_block1/conv_block6/x1/Conv/Conv2D"
  input: "densenet121/dense_block1/conv_block6/x2/BatchNorm/gamma"
  input: "densenet121/dense_block1/conv_block6/x2/BatchNorm/beta"
  input: "densenet121/dense_block1/conv_block6/x2/BatchNorm/moving_mean"
  input: "densenet121/dense_block1/conv_block6/x2/BatchNorm/moving_variance"
  attr {
    key: "T"
    value {
      type: DT_FLOAT
    }
  }
  attr {
    key: "data_format"
    value {
      s: "NHWC"
    }
  }
  attr {
    key: "epsilon"
    value {
      f: 1.1000000085914508e-05
    }
  }
  attr {
    key: "is_training"
    value {
      b: false
    }
  }
}
node {
  name: "densenet121/dense_block1/conv_block6/x2/Relu"
  op: "Relu"
  input: "densenet121/dense_block1/conv_block6/x2/BatchNorm/FusedBatchNorm"
  attr {
    key: "T"
    value {
      type: DT_FLOAT
    }
  }
}
node {
  name: "densenet121/dense_block1/conv_block6/x2/Conv/weights"
  op: "VariableV2"
  attr {
    key: "_class"
    value {
      list {
        s: "loc:@densenet121/dense_block1/conv_block6/x2/Conv/weights"
      }
    }
  }
  attr {
    key: "container"
    value {
      s: ""
    }
  }
  attr {
    key: "dtype"
    value {
      type: DT_FLOAT
    }
  }
  attr {
    key: "shape"
    value {
      shape {
        dim {
          size: 3
        }
        dim {
          size: 3
        }
        dim {
          size: 128
        }
        dim {
          size: 32
        }
      }
    }
  }
  attr {
    key: "shared_name"
    value {
      s: ""
    }
  }
}
node {
  name: "densenet121/dense_block1/conv_block6/x2/Conv/Conv2D"
  op: "Conv2D"
  input: "densenet121/dense_block1/conv_block6/x2/Relu"
  input: "densenet121/dense_block1/conv_block6/x2/Conv/weights"
  attr {
    key: "T"
    value {
      type: DT_FLOAT
    }
  }
  attr {
    key: "data_format"
    value {
      s: "NHWC"
    }
  }
  attr {
    key: "dilations"
    value {
      list {
        i: 1
        i: 1
        i: 1
        i: 1
      }
    }
  }
  attr {
    key: "explicit_paddings"
    value {
      list {
      }
    }
  }
  attr {
    key: "padding"
    value {
      s: "SAME"
    }
  }
  attr {
    key: "strides"
    value {
      list {
        i: 1
        i: 1
        i: 1
        i: 1
      }
    }
  }
  attr {
    key: "use_cudnn_on_gpu"
    value {
      b: true
    }
  }
}
node {
  name: "densenet121/dense_block1/conv_block6/concat/axis"
  op: "Const"
  attr {
    key: "dtype"
    value {
      type: DT_INT32
    }
  }
  attr {
    key: "value"
    value {
      tensor {
        dtype: DT_INT32
        tensor_shape {
        }
        int_val: 3
      }
    }
  }
}
node {
  name: "densenet121/dense_block1/conv_block6/concat"
  op: "ConcatV2"
  input: "densenet121/dense_block1/conv_block5/concat"
  input: "densenet121/dense_block1/conv_block6/x2/Conv/Conv2D"
  input: "densenet121/dense_block1/conv_block6/concat/axis"
  attr {
    key: "N"
    value {
      i: 2
    }
  }
  attr {
    key: "T"
    value {
      type: DT_FLOAT
    }
  }
  attr {
    key: "Tidx"
    value {
      type: DT_INT32
    }
  }
}
node {
  name: "densenet121/transition_block1/blk/BatchNorm/gamma"
  op: "VariableV2"
  attr {
    key: "_class"
    value {
      list {
        s: "loc:@densenet121/transition_block1/blk/BatchNorm/gamma"
      }
    }
  }
  attr {
    key: "container"
    value {
      s: ""
    }
  }
  attr {
    key: "dtype"
    value {
      type: DT_FLOAT
    }
  }
  attr {
    key: "shape"
    value {
      shape {
        dim {
          size: 256
        }
      }
    }
  }
  attr {
    key: "shared_name"
    value {
      s: ""
    }
  }
}
node {
  name: "densenet121/transition_block1/blk/BatchNorm/beta"
  op: "VariableV2"
  attr {
    key: "_class"
    value {
      list {
        s: "loc:@densenet121/transition_block1/blk/BatchNorm/beta"
      }
    }
  }
  attr {
    key: "container"
    value {
      s: ""
    }
  }
  attr {
    key: "dtype"
    value {
      type: DT_FLOAT
    }
  }
  attr {
    key: "shape"
    value {
      shape {
        dim {
          size: 256
        }
      }
    }
  }
  attr {
    key: "shared_name"
    value {
      s: ""
    }
  }
}
node {
  name: "densenet121/transition_block1/blk/BatchNorm/moving_mean"
  op: "VariableV2"
  attr {
    key: "_class"
    value {
      list {
        s: "loc:@densenet121/transition_block1/blk/BatchNorm/moving_mean"
      }
    }
  }
  attr {
    key: "container"
    value {
      s: ""
    }
  }
  attr {
    key: "dtype"
    value {
      type: DT_FLOAT
    }
  }
  attr {
    key: "shape"
    value {
      shape {
        dim {
          size: 256
        }
      }
    }
  }
  attr {
    key: "shared_name"
    value {
      s: ""
    }
  }
}
node {
  name: "densenet121/transition_block1/blk/BatchNorm/moving_variance"
  op: "VariableV2"
  attr {
    key: "_class"
    value {
      list {
        s: "loc:@densenet121/transition_block1/blk/BatchNorm/moving_variance"
      }
    }
  }
  attr {
    key: "container"
    value {
      s: ""
    }
  }
  attr {
    key: "dtype"
    value {
      type: DT_FLOAT
    }
  }
  attr {
    key: "shape"
    value {
      shape {
        dim {
          size: 256
        }
      }
    }
  }
  attr {
    key: "shared_name"
    value {
      s: ""
    }
  }
}
node {
  name: "densenet121/transition_block1/blk/BatchNorm/FusedBatchNorm"
  op: "FusedBatchNorm"
  input: "densenet121/dense_block1/conv_block6/concat"
  input: "densenet121/transition_block1/blk/BatchNorm/gamma"
  input: "densenet121/transition_block1/blk/BatchNorm/beta"
  input: "densenet121/transition_block1/blk/BatchNorm/moving_mean"
  input: "densenet121/transition_block1/blk/BatchNorm/moving_variance"
  attr {
    key: "T"
    value {
      type: DT_FLOAT
    }
  }
  attr {
    key: "data_format"
    value {
      s: "NHWC"
    }
  }
  attr {
    key: "epsilon"
    value {
      f: 1.1000000085914508e-05
    }
  }
  attr {
    key: "is_training"
    value {
      b: false
    }
  }
}
node {
  name: "densenet121/transition_block1/blk/Relu"
  op: "Relu"
  input: "densenet121/transition_block1/blk/BatchNorm/FusedBatchNorm"
  attr {
    key: "T"
    value {
      type: DT_FLOAT
    }
  }
}
node {
  name: "densenet121/transition_block1/blk/Conv/weights"
  op: "VariableV2"
  attr {
    key: "_class"
    value {
      list {
        s: "loc:@densenet121/transition_block1/blk/Conv/weights"
      }
    }
  }
  attr {
    key: "container"
    value {
      s: ""
    }
  }
  attr {
    key: "dtype"
    value {
      type: DT_FLOAT
    }
  }
  attr {
    key: "shape"
    value {
      shape {
        dim {
          size: 1
        }
        dim {
          size: 1
        }
        dim {
          size: 256
        }
        dim {
          size: 128
        }
      }
    }
  }
  attr {
    key: "shared_name"
    value {
      s: ""
    }
  }
}
node {
  name: "densenet121/transition_block1/blk/Conv/Conv2D"
  op: "Conv2D"
  input: "densenet121/transition_block1/blk/Relu"
  input: "densenet121/transition_block1/blk/Conv/weights"
  attr {
    key: "T"
    value {
      type: DT_FLOAT
    }
  }
  attr {
    key: "data_format"
    value {
      s: "NHWC"
    }
  }
  attr {
    key: "dilations"
    value {
      list {
        i: 1
        i: 1
        i: 1
        i: 1
      }
    }
  }
  attr {
    key: "explicit_paddings"
    value {
      list {
      }
    }
  }
  attr {
    key: "padding"
    value {
      s: "SAME"
    }
  }
  attr {
    key: "strides"
    value {
      list {
        i: 1
        i: 1
        i: 1
        i: 1
      }
    }
  }
  attr {
    key: "use_cudnn_on_gpu"
    value {
      b: true
    }
  }
}
node {
  name: "densenet121/transition_block1/AvgPool2D/AvgPool"
  op: "AvgPool"
  input: "densenet121/transition_block1/blk/Conv/Conv2D"
  attr {
    key: "T"
    value {
      type: DT_FLOAT
    }
  }
  attr {
    key: "data_format"
    value {
      s: "NHWC"
    }
  }
  attr {
    key: "ksize"
    value {
      list {
        i: 1
        i: 2
        i: 2
        i: 1
      }
    }
  }
  attr {
    key: "padding"
    value {
      s: "VALID"
    }
  }
  attr {
    key: "strides"
    value {
      list {
        i: 1
        i: 2
        i: 2
        i: 1
      }
    }
  }
}
node {
  name: "densenet121/dense_block2/conv_block1/x1/BatchNorm/gamma"
  op: "VariableV2"
  attr {
    key: "_class"
    value {
      list {
        s: "loc:@densenet121/dense_block2/conv_block1/x1/BatchNorm/gamma"
      }
    }
  }
  attr {
    key: "container"
    value {
      s: ""
    }
  }
  attr {
    key: "dtype"
    value {
      type: DT_FLOAT
    }
  }
  attr {
    key: "shape"
    value {
      shape {
        dim {
          size: 128
        }
      }
    }
  }
  attr {
    key: "shared_name"
    value {
      s: ""
    }
  }
}
node {
  name: "densenet121/dense_block2/conv_block1/x1/BatchNorm/beta"
  op: "VariableV2"
  attr {
    key: "_class"
    value {
      list {
        s: "loc:@densenet121/dense_block2/conv_block1/x1/BatchNorm/beta"
      }
    }
  }
  attr {
    key: "container"
    value {
      s: ""
    }
  }
  attr {
    key: "dtype"
    value {
      type: DT_FLOAT
    }
  }
  attr {
    key: "shape"
    value {
      shape {
        dim {
          size: 128
        }
      }
    }
  }
  attr {
    key: "shared_name"
    value {
      s: ""
    }
  }
}
node {
  name: "densenet121/dense_block2/conv_block1/x1/BatchNorm/moving_mean"
  op: "VariableV2"
  attr {
    key: "_class"
    value {
      list {
        s: "loc:@densenet121/dense_block2/conv_block1/x1/BatchNorm/moving_mean"
      }
    }
  }
  attr {
    key: "container"
    value {
      s: ""
    }
  }
  attr {
    key: "dtype"
    value {
      type: DT_FLOAT
    }
  }
  attr {
    key: "shape"
    value {
      shape {
        dim {
          size: 128
        }
      }
    }
  }
  attr {
    key: "shared_name"
    value {
      s: ""
    }
  }
}
node {
  name: "densenet121/dense_block2/conv_block1/x1/BatchNorm/moving_variance"
  op: "VariableV2"
  attr {
    key: "_class"
    value {
      list {
        s: "loc:@densenet121/dense_block2/conv_block1/x1/BatchNorm/moving_variance"
      }
    }
  }
  attr {
    key: "container"
    value {
      s: ""
    }
  }
  attr {
    key: "dtype"
    value {
      type: DT_FLOAT
    }
  }
  attr {
    key: "shape"
    value {
      shape {
        dim {
          size: 128
        }
      }
    }
  }
  attr {
    key: "shared_name"
    value {
      s: ""
    }
  }
}
node {
  name: "densenet121/dense_block2/conv_block1/x1/BatchNorm/FusedBatchNorm"
  op: "FusedBatchNorm"
  input: "densenet121/transition_block1/AvgPool2D/AvgPool"
  input: "densenet121/dense_block2/conv_block1/x1/BatchNorm/gamma"
  input: "densenet121/dense_block2/conv_block1/x1/BatchNorm/beta"
  input: "densenet121/dense_block2/conv_block1/x1/BatchNorm/moving_mean"
  input: "densenet121/dense_block2/conv_block1/x1/BatchNorm/moving_variance"
  attr {
    key: "T"
    value {
      type: DT_FLOAT
    }
  }
  attr {
    key: "data_format"
    value {
      s: "NHWC"
    }
  }
  attr {
    key: "epsilon"
    value {
      f: 1.1000000085914508e-05
    }
  }
  attr {
    key: "is_training"
    value {
      b: false
    }
  }
}
node {
  name: "densenet121/dense_block2/conv_block1/x1/Relu"
  op: "Relu"
  input: "densenet121/dense_block2/conv_block1/x1/BatchNorm/FusedBatchNorm"
  attr {
    key: "T"
    value {
      type: DT_FLOAT
    }
  }
}
node {
  name: "densenet121/dense_block2/conv_block1/x1/Conv/weights"
  op: "VariableV2"
  attr {
    key: "_class"
    value {
      list {
        s: "loc:@densenet121/dense_block2/conv_block1/x1/Conv/weights"
      }
    }
  }
  attr {
    key: "container"
    value {
      s: ""
    }
  }
  attr {
    key: "dtype"
    value {
      type: DT_FLOAT
    }
  }
  attr {
    key: "shape"
    value {
      shape {
        dim {
          size: 1
        }
        dim {
          size: 1
        }
        dim {
          size: 128
        }
        dim {
          size: 128
        }
      }
    }
  }
  attr {
    key: "shared_name"
    value {
      s: ""
    }
  }
}
node {
  name: "densenet121/dense_block2/conv_block1/x1/Conv/Conv2D"
  op: "Conv2D"
  input: "densenet121/dense_block2/conv_block1/x1/Relu"
  input: "densenet121/dense_block2/conv_block1/x1/Conv/weights"
  attr {
    key: "T"
    value {
      type: DT_FLOAT
    }
  }
  attr {
    key: "data_format"
    value {
      s: "NHWC"
    }
  }
  attr {
    key: "dilations"
    value {
      list {
        i: 1
        i: 1
        i: 1
        i: 1
      }
    }
  }
  attr {
    key: "explicit_paddings"
    value {
      list {
      }
    }
  }
  attr {
    key: "padding"
    value {
      s: "SAME"
    }
  }
  attr {
    key: "strides"
    value {
      list {
        i: 1
        i: 1
        i: 1
        i: 1
      }
    }
  }
  attr {
    key: "use_cudnn_on_gpu"
    value {
      b: true
    }
  }
}
node {
  name: "densenet121/dense_block2/conv_block1/x2/BatchNorm/gamma"
  op: "VariableV2"
  attr {
    key: "_class"
    value {
      list {
        s: "loc:@densenet121/dense_block2/conv_block1/x2/BatchNorm/gamma"
      }
    }
  }
  attr {
    key: "container"
    value {
      s: ""
    }
  }
  attr {
    key: "dtype"
    value {
      type: DT_FLOAT
    }
  }
  attr {
    key: "shape"
    value {
      shape {
        dim {
          size: 128
        }
      }
    }
  }
  attr {
    key: "shared_name"
    value {
      s: ""
    }
  }
}
node {
  name: "densenet121/dense_block2/conv_block1/x2/BatchNorm/beta"
  op: "VariableV2"
  attr {
    key: "_class"
    value {
      list {
        s: "loc:@densenet121/dense_block2/conv_block1/x2/BatchNorm/beta"
      }
    }
  }
  attr {
    key: "container"
    value {
      s: ""
    }
  }
  attr {
    key: "dtype"
    value {
      type: DT_FLOAT
    }
  }
  attr {
    key: "shape"
    value {
      shape {
        dim {
          size: 128
        }
      }
    }
  }
  attr {
    key: "shared_name"
    value {
      s: ""
    }
  }
}
node {
  name: "densenet121/dense_block2/conv_block1/x2/BatchNorm/moving_mean"
  op: "VariableV2"
  attr {
    key: "_class"
    value {
      list {
        s: "loc:@densenet121/dense_block2/conv_block1/x2/BatchNorm/moving_mean"
      }
    }
  }
  attr {
    key: "container"
    value {
      s: ""
    }
  }
  attr {
    key: "dtype"
    value {
      type: DT_FLOAT
    }
  }
  attr {
    key: "shape"
    value {
      shape {
        dim {
          size: 128
        }
      }
    }
  }
  attr {
    key: "shared_name"
    value {
      s: ""
    }
  }
}
node {
  name: "densenet121/dense_block2/conv_block1/x2/BatchNorm/moving_variance"
  op: "VariableV2"
  attr {
    key: "_class"
    value {
      list {
        s: "loc:@densenet121/dense_block2/conv_block1/x2/BatchNorm/moving_variance"
      }
    }
  }
  attr {
    key: "container"
    value {
      s: ""
    }
  }
  attr {
    key: "dtype"
    value {
      type: DT_FLOAT
    }
  }
  attr {
    key: "shape"
    value {
      shape {
        dim {
          size: 128
        }
      }
    }
  }
  attr {
    key: "shared_name"
    value {
      s: ""
    }
  }
}
node {
  name: "densenet121/dense_block2/conv_block1/x2/BatchNorm/FusedBatchNorm"
  op: "FusedBatchNorm"
  input: "densenet121/dense_block2/conv_block1/x1/Conv/Conv2D"
  input: "densenet121/dense_block2/conv_block1/x2/BatchNorm/gamma"
  input: "densenet121/dense_block2/conv_block1/x2/BatchNorm/beta"
  input: "densenet121/dense_block2/conv_block1/x2/BatchNorm/moving_mean"
  input: "densenet121/dense_block2/conv_block1/x2/BatchNorm/moving_variance"
  attr {
    key: "T"
    value {
      type: DT_FLOAT
    }
  }
  attr {
    key: "data_format"
    value {
      s: "NHWC"
    }
  }
  attr {
    key: "epsilon"
    value {
      f: 1.1000000085914508e-05
    }
  }
  attr {
    key: "is_training"
    value {
      b: false
    }
  }
}
node {
  name: "densenet121/dense_block2/conv_block1/x2/Relu"
  op: "Relu"
  input: "densenet121/dense_block2/conv_block1/x2/BatchNorm/FusedBatchNorm"
  attr {
    key: "T"
    value {
      type: DT_FLOAT
    }
  }
}
node {
  name: "densenet121/dense_block2/conv_block1/x2/Conv/weights"
  op: "VariableV2"
  attr {
    key: "_class"
    value {
      list {
        s: "loc:@densenet121/dense_block2/conv_block1/x2/Conv/weights"
      }
    }
  }
  attr {
    key: "container"
    value {
      s: ""
    }
  }
  attr {
    key: "dtype"
    value {
      type: DT_FLOAT
    }
  }
  attr {
    key: "shape"
    value {
      shape {
        dim {
          size: 3
        }
        dim {
          size: 3
        }
        dim {
          size: 128
        }
        dim {
          size: 32
        }
      }
    }
  }
  attr {
    key: "shared_name"
    value {
      s: ""
    }
  }
}
node {
  name: "densenet121/dense_block2/conv_block1/x2/Conv/Conv2D"
  op: "Conv2D"
  input: "densenet121/dense_block2/conv_block1/x2/Relu"
  input: "densenet121/dense_block2/conv_block1/x2/Conv/weights"
  attr {
    key: "T"
    value {
      type: DT_FLOAT
    }
  }
  attr {
    key: "data_format"
    value {
      s: "NHWC"
    }
  }
  attr {
    key: "dilations"
    value {
      list {
        i: 1
        i: 1
        i: 1
        i: 1
      }
    }
  }
  attr {
    key: "explicit_paddings"
    value {
      list {
      }
    }
  }
  attr {
    key: "padding"
    value {
      s: "SAME"
    }
  }
  attr {
    key: "strides"
    value {
      list {
        i: 1
        i: 1
        i: 1
        i: 1
      }
    }
  }
  attr {
    key: "use_cudnn_on_gpu"
    value {
      b: true
    }
  }
}
node {
  name: "densenet121/dense_block2/conv_block1/concat/axis"
  op: "Const"
  attr {
    key: "dtype"
    value {
      type: DT_INT32
    }
  }
  attr {
    key: "value"
    value {
      tensor {
        dtype: DT_INT32
        tensor_shape {
        }
        int_val: 3
      }
    }
  }
}
node {
  name: "densenet121/dense_block2/conv_block1/concat"
  op: "ConcatV2"
  input: "densenet121/transition_block1/AvgPool2D/AvgPool"
  input: "densenet121/dense_block2/conv_block1/x2/Conv/Conv2D"
  input: "densenet121/dense_block2/conv_block1/concat/axis"
  attr {
    key: "N"
    value {
      i: 2
    }
  }
  attr {
    key: "T"
    value {
      type: DT_FLOAT
    }
  }
  attr {
    key: "Tidx"
    value {
      type: DT_INT32
    }
  }
}
node {
  name: "densenet121/dense_block2/conv_block2/x1/BatchNorm/gamma"
  op: "VariableV2"
  attr {
    key: "_class"
    value {
      list {
        s: "loc:@densenet121/dense_block2/conv_block2/x1/BatchNorm/gamma"
      }
    }
  }
  attr {
    key: "container"
    value {
      s: ""
    }
  }
  attr {
    key: "dtype"
    value {
      type: DT_FLOAT
    }
  }
  attr {
    key: "shape"
    value {
      shape {
        dim {
          size: 160
        }
      }
    }
  }
  attr {
    key: "shared_name"
    value {
      s: ""
    }
  }
}
node {
  name: "densenet121/dense_block2/conv_block2/x1/BatchNorm/beta"
  op: "VariableV2"
  attr {
    key: "_class"
    value {
      list {
        s: "loc:@densenet121/dense_block2/conv_block2/x1/BatchNorm/beta"
      }
    }
  }
  attr {
    key: "container"
    value {
      s: ""
    }
  }
  attr {
    key: "dtype"
    value {
      type: DT_FLOAT
    }
  }
  attr {
    key: "shape"
    value {
      shape {
        dim {
          size: 160
        }
      }
    }
  }
  attr {
    key: "shared_name"
    value {
      s: ""
    }
  }
}
node {
  name: "densenet121/dense_block2/conv_block2/x1/BatchNorm/moving_mean"
  op: "VariableV2"
  attr {
    key: "_class"
    value {
      list {
        s: "loc:@densenet121/dense_block2/conv_block2/x1/BatchNorm/moving_mean"
      }
    }
  }
  attr {
    key: "container"
    value {
      s: ""
    }
  }
  attr {
    key: "dtype"
    value {
      type: DT_FLOAT
    }
  }
  attr {
    key: "shape"
    value {
      shape {
        dim {
          size: 160
        }
      }
    }
  }
  attr {
    key: "shared_name"
    value {
      s: ""
    }
  }
}
node {
  name: "densenet121/dense_block2/conv_block2/x1/BatchNorm/moving_variance"
  op: "VariableV2"
  attr {
    key: "_class"
    value {
      list {
        s: "loc:@densenet121/dense_block2/conv_block2/x1/BatchNorm/moving_variance"
      }
    }
  }
  attr {
    key: "container"
    value {
      s: ""
    }
  }
  attr {
    key: "dtype"
    value {
      type: DT_FLOAT
    }
  }
  attr {
    key: "shape"
    value {
      shape {
        dim {
          size: 160
        }
      }
    }
  }
  attr {
    key: "shared_name"
    value {
      s: ""
    }
  }
}
node {
  name: "densenet121/dense_block2/conv_block2/x1/BatchNorm/FusedBatchNorm"
  op: "FusedBatchNorm"
  input: "densenet121/dense_block2/conv_block1/concat"
  input: "densenet121/dense_block2/conv_block2/x1/BatchNorm/gamma"
  input: "densenet121/dense_block2/conv_block2/x1/BatchNorm/beta"
  input: "densenet121/dense_block2/conv_block2/x1/BatchNorm/moving_mean"
  input: "densenet121/dense_block2/conv_block2/x1/BatchNorm/moving_variance"
  attr {
    key: "T"
    value {
      type: DT_FLOAT
    }
  }
  attr {
    key: "data_format"
    value {
      s: "NHWC"
    }
  }
  attr {
    key: "epsilon"
    value {
      f: 1.1000000085914508e-05
    }
  }
  attr {
    key: "is_training"
    value {
      b: false
    }
  }
}
node {
  name: "densenet121/dense_block2/conv_block2/x1/Relu"
  op: "Relu"
  input: "densenet121/dense_block2/conv_block2/x1/BatchNorm/FusedBatchNorm"
  attr {
    key: "T"
    value {
      type: DT_FLOAT
    }
  }
}
node {
  name: "densenet121/dense_block2/conv_block2/x1/Conv/weights"
  op: "VariableV2"
  attr {
    key: "_class"
    value {
      list {
        s: "loc:@densenet121/dense_block2/conv_block2/x1/Conv/weights"
      }
    }
  }
  attr {
    key: "container"
    value {
      s: ""
    }
  }
  attr {
    key: "dtype"
    value {
      type: DT_FLOAT
    }
  }
  attr {
    key: "shape"
    value {
      shape {
        dim {
          size: 1
        }
        dim {
          size: 1
        }
        dim {
          size: 160
        }
        dim {
          size: 128
        }
      }
    }
  }
  attr {
    key: "shared_name"
    value {
      s: ""
    }
  }
}
node {
  name: "densenet121/dense_block2/conv_block2/x1/Conv/Conv2D"
  op: "Conv2D"
  input: "densenet121/dense_block2/conv_block2/x1/Relu"
  input: "densenet121/dense_block2/conv_block2/x1/Conv/weights"
  attr {
    key: "T"
    value {
      type: DT_FLOAT
    }
  }
  attr {
    key: "data_format"
    value {
      s: "NHWC"
    }
  }
  attr {
    key: "dilations"
    value {
      list {
        i: 1
        i: 1
        i: 1
        i: 1
      }
    }
  }
  attr {
    key: "explicit_paddings"
    value {
      list {
      }
    }
  }
  attr {
    key: "padding"
    value {
      s: "SAME"
    }
  }
  attr {
    key: "strides"
    value {
      list {
        i: 1
        i: 1
        i: 1
        i: 1
      }
    }
  }
  attr {
    key: "use_cudnn_on_gpu"
    value {
      b: true
    }
  }
}
node {
  name: "densenet121/dense_block2/conv_block2/x2/BatchNorm/gamma"
  op: "VariableV2"
  attr {
    key: "_class"
    value {
      list {
        s: "loc:@densenet121/dense_block2/conv_block2/x2/BatchNorm/gamma"
      }
    }
  }
  attr {
    key: "container"
    value {
      s: ""
    }
  }
  attr {
    key: "dtype"
    value {
      type: DT_FLOAT
    }
  }
  attr {
    key: "shape"
    value {
      shape {
        dim {
          size: 128
        }
      }
    }
  }
  attr {
    key: "shared_name"
    value {
      s: ""
    }
  }
}
node {
  name: "densenet121/dense_block2/conv_block2/x2/BatchNorm/beta"
  op: "VariableV2"
  attr {
    key: "_class"
    value {
      list {
        s: "loc:@densenet121/dense_block2/conv_block2/x2/BatchNorm/beta"
      }
    }
  }
  attr {
    key: "container"
    value {
      s: ""
    }
  }
  attr {
    key: "dtype"
    value {
      type: DT_FLOAT
    }
  }
  attr {
    key: "shape"
    value {
      shape {
        dim {
          size: 128
        }
      }
    }
  }
  attr {
    key: "shared_name"
    value {
      s: ""
    }
  }
}
node {
  name: "densenet121/dense_block2/conv_block2/x2/BatchNorm/moving_mean"
  op: "VariableV2"
  attr {
    key: "_class"
    value {
      list {
        s: "loc:@densenet121/dense_block2/conv_block2/x2/BatchNorm/moving_mean"
      }
    }
  }
  attr {
    key: "container"
    value {
      s: ""
    }
  }
  attr {
    key: "dtype"
    value {
      type: DT_FLOAT
    }
  }
  attr {
    key: "shape"
    value {
      shape {
        dim {
          size: 128
        }
      }
    }
  }
  attr {
    key: "shared_name"
    value {
      s: ""
    }
  }
}
node {
  name: "densenet121/dense_block2/conv_block2/x2/BatchNorm/moving_variance"
  op: "VariableV2"
  attr {
    key: "_class"
    value {
      list {
        s: "loc:@densenet121/dense_block2/conv_block2/x2/BatchNorm/moving_variance"
      }
    }
  }
  attr {
    key: "container"
    value {
      s: ""
    }
  }
  attr {
    key: "dtype"
    value {
      type: DT_FLOAT
    }
  }
  attr {
    key: "shape"
    value {
      shape {
        dim {
          size: 128
        }
      }
    }
  }
  attr {
    key: "shared_name"
    value {
      s: ""
    }
  }
}
node {
  name: "densenet121/dense_block2/conv_block2/x2/BatchNorm/FusedBatchNorm"
  op: "FusedBatchNorm"
  input: "densenet121/dense_block2/conv_block2/x1/Conv/Conv2D"
  input: "densenet121/dense_block2/conv_block2/x2/BatchNorm/gamma"
  input: "densenet121/dense_block2/conv_block2/x2/BatchNorm/beta"
  input: "densenet121/dense_block2/conv_block2/x2/BatchNorm/moving_mean"
  input: "densenet121/dense_block2/conv_block2/x2/BatchNorm/moving_variance"
  attr {
    key: "T"
    value {
      type: DT_FLOAT
    }
  }
  attr {
    key: "data_format"
    value {
      s: "NHWC"
    }
  }
  attr {
    key: "epsilon"
    value {
      f: 1.1000000085914508e-05
    }
  }
  attr {
    key: "is_training"
    value {
      b: false
    }
  }
}
node {
  name: "densenet121/dense_block2/conv_block2/x2/Relu"
  op: "Relu"
  input: "densenet121/dense_block2/conv_block2/x2/BatchNorm/FusedBatchNorm"
  attr {
    key: "T"
    value {
      type: DT_FLOAT
    }
  }
}
node {
  name: "densenet121/dense_block2/conv_block2/x2/Conv/weights"
  op: "VariableV2"
  attr {
    key: "_class"
    value {
      list {
        s: "loc:@densenet121/dense_block2/conv_block2/x2/Conv/weights"
      }
    }
  }
  attr {
    key: "container"
    value {
      s: ""
    }
  }
  attr {
    key: "dtype"
    value {
      type: DT_FLOAT
    }
  }
  attr {
    key: "shape"
    value {
      shape {
        dim {
          size: 3
        }
        dim {
          size: 3
        }
        dim {
          size: 128
        }
        dim {
          size: 32
        }
      }
    }
  }
  attr {
    key: "shared_name"
    value {
      s: ""
    }
  }
}
node {
  name: "densenet121/dense_block2/conv_block2/x2/Conv/Conv2D"
  op: "Conv2D"
  input: "densenet121/dense_block2/conv_block2/x2/Relu"
  input: "densenet121/dense_block2/conv_block2/x2/Conv/weights"
  attr {
    key: "T"
    value {
      type: DT_FLOAT
    }
  }
  attr {
    key: "data_format"
    value {
      s: "NHWC"
    }
  }
  attr {
    key: "dilations"
    value {
      list {
        i: 1
        i: 1
        i: 1
        i: 1
      }
    }
  }
  attr {
    key: "explicit_paddings"
    value {
      list {
      }
    }
  }
  attr {
    key: "padding"
    value {
      s: "SAME"
    }
  }
  attr {
    key: "strides"
    value {
      list {
        i: 1
        i: 1
        i: 1
        i: 1
      }
    }
  }
  attr {
    key: "use_cudnn_on_gpu"
    value {
      b: true
    }
  }
}
node {
  name: "densenet121/dense_block2/conv_block2/concat/axis"
  op: "Const"
  attr {
    key: "dtype"
    value {
      type: DT_INT32
    }
  }
  attr {
    key: "value"
    value {
      tensor {
        dtype: DT_INT32
        tensor_shape {
        }
        int_val: 3
      }
    }
  }
}
node {
  name: "densenet121/dense_block2/conv_block2/concat"
  op: "ConcatV2"
  input: "densenet121/dense_block2/conv_block1/concat"
  input: "densenet121/dense_block2/conv_block2/x2/Conv/Conv2D"
  input: "densenet121/dense_block2/conv_block2/concat/axis"
  attr {
    key: "N"
    value {
      i: 2
    }
  }
  attr {
    key: "T"
    value {
      type: DT_FLOAT
    }
  }
  attr {
    key: "Tidx"
    value {
      type: DT_INT32
    }
  }
}
node {
  name: "densenet121/dense_block2/conv_block3/x1/BatchNorm/gamma"
  op: "VariableV2"
  attr {
    key: "_class"
    value {
      list {
        s: "loc:@densenet121/dense_block2/conv_block3/x1/BatchNorm/gamma"
      }
    }
  }
  attr {
    key: "container"
    value {
      s: ""
    }
  }
  attr {
    key: "dtype"
    value {
      type: DT_FLOAT
    }
  }
  attr {
    key: "shape"
    value {
      shape {
        dim {
          size: 192
        }
      }
    }
  }
  attr {
    key: "shared_name"
    value {
      s: ""
    }
  }
}
node {
  name: "densenet121/dense_block2/conv_block3/x1/BatchNorm/beta"
  op: "VariableV2"
  attr {
    key: "_class"
    value {
      list {
        s: "loc:@densenet121/dense_block2/conv_block3/x1/BatchNorm/beta"
      }
    }
  }
  attr {
    key: "container"
    value {
      s: ""
    }
  }
  attr {
    key: "dtype"
    value {
      type: DT_FLOAT
    }
  }
  attr {
    key: "shape"
    value {
      shape {
        dim {
          size: 192
        }
      }
    }
  }
  attr {
    key: "shared_name"
    value {
      s: ""
    }
  }
}
node {
  name: "densenet121/dense_block2/conv_block3/x1/BatchNorm/moving_mean"
  op: "VariableV2"
  attr {
    key: "_class"
    value {
      list {
        s: "loc:@densenet121/dense_block2/conv_block3/x1/BatchNorm/moving_mean"
      }
    }
  }
  attr {
    key: "container"
    value {
      s: ""
    }
  }
  attr {
    key: "dtype"
    value {
      type: DT_FLOAT
    }
  }
  attr {
    key: "shape"
    value {
      shape {
        dim {
          size: 192
        }
      }
    }
  }
  attr {
    key: "shared_name"
    value {
      s: ""
    }
  }
}
node {
  name: "densenet121/dense_block2/conv_block3/x1/BatchNorm/moving_variance"
  op: "VariableV2"
  attr {
    key: "_class"
    value {
      list {
        s: "loc:@densenet121/dense_block2/conv_block3/x1/BatchNorm/moving_variance"
      }
    }
  }
  attr {
    key: "container"
    value {
      s: ""
    }
  }
  attr {
    key: "dtype"
    value {
      type: DT_FLOAT
    }
  }
  attr {
    key: "shape"
    value {
      shape {
        dim {
          size: 192
        }
      }
    }
  }
  attr {
    key: "shared_name"
    value {
      s: ""
    }
  }
}
node {
  name: "densenet121/dense_block2/conv_block3/x1/BatchNorm/FusedBatchNorm"
  op: "FusedBatchNorm"
  input: "densenet121/dense_block2/conv_block2/concat"
  input: "densenet121/dense_block2/conv_block3/x1/BatchNorm/gamma"
  input: "densenet121/dense_block2/conv_block3/x1/BatchNorm/beta"
  input: "densenet121/dense_block2/conv_block3/x1/BatchNorm/moving_mean"
  input: "densenet121/dense_block2/conv_block3/x1/BatchNorm/moving_variance"
  attr {
    key: "T"
    value {
      type: DT_FLOAT
    }
  }
  attr {
    key: "data_format"
    value {
      s: "NHWC"
    }
  }
  attr {
    key: "epsilon"
    value {
      f: 1.1000000085914508e-05
    }
  }
  attr {
    key: "is_training"
    value {
      b: false
    }
  }
}
node {
  name: "densenet121/dense_block2/conv_block3/x1/Relu"
  op: "Relu"
  input: "densenet121/dense_block2/conv_block3/x1/BatchNorm/FusedBatchNorm"
  attr {
    key: "T"
    value {
      type: DT_FLOAT
    }
  }
}
node {
  name: "densenet121/dense_block2/conv_block3/x1/Conv/weights"
  op: "VariableV2"
  attr {
    key: "_class"
    value {
      list {
        s: "loc:@densenet121/dense_block2/conv_block3/x1/Conv/weights"
      }
    }
  }
  attr {
    key: "container"
    value {
      s: ""
    }
  }
  attr {
    key: "dtype"
    value {
      type: DT_FLOAT
    }
  }
  attr {
    key: "shape"
    value {
      shape {
        dim {
          size: 1
        }
        dim {
          size: 1
        }
        dim {
          size: 192
        }
        dim {
          size: 128
        }
      }
    }
  }
  attr {
    key: "shared_name"
    value {
      s: ""
    }
  }
}
node {
  name: "densenet121/dense_block2/conv_block3/x1/Conv/Conv2D"
  op: "Conv2D"
  input: "densenet121/dense_block2/conv_block3/x1/Relu"
  input: "densenet121/dense_block2/conv_block3/x1/Conv/weights"
  attr {
    key: "T"
    value {
      type: DT_FLOAT
    }
  }
  attr {
    key: "data_format"
    value {
      s: "NHWC"
    }
  }
  attr {
    key: "dilations"
    value {
      list {
        i: 1
        i: 1
        i: 1
        i: 1
      }
    }
  }
  attr {
    key: "explicit_paddings"
    value {
      list {
      }
    }
  }
  attr {
    key: "padding"
    value {
      s: "SAME"
    }
  }
  attr {
    key: "strides"
    value {
      list {
        i: 1
        i: 1
        i: 1
        i: 1
      }
    }
  }
  attr {
    key: "use_cudnn_on_gpu"
    value {
      b: true
    }
  }
}
node {
  name: "densenet121/dense_block2/conv_block3/x2/BatchNorm/gamma"
  op: "VariableV2"
  attr {
    key: "_class"
    value {
      list {
        s: "loc:@densenet121/dense_block2/conv_block3/x2/BatchNorm/gamma"
      }
    }
  }
  attr {
    key: "container"
    value {
      s: ""
    }
  }
  attr {
    key: "dtype"
    value {
      type: DT_FLOAT
    }
  }
  attr {
    key: "shape"
    value {
      shape {
        dim {
          size: 128
        }
      }
    }
  }
  attr {
    key: "shared_name"
    value {
      s: ""
    }
  }
}
node {
  name: "densenet121/dense_block2/conv_block3/x2/BatchNorm/beta"
  op: "VariableV2"
  attr {
    key: "_class"
    value {
      list {
        s: "loc:@densenet121/dense_block2/conv_block3/x2/BatchNorm/beta"
      }
    }
  }
  attr {
    key: "container"
    value {
      s: ""
    }
  }
  attr {
    key: "dtype"
    value {
      type: DT_FLOAT
    }
  }
  attr {
    key: "shape"
    value {
      shape {
        dim {
          size: 128
        }
      }
    }
  }
  attr {
    key: "shared_name"
    value {
      s: ""
    }
  }
}
node {
  name: "densenet121/dense_block2/conv_block3/x2/BatchNorm/moving_mean"
  op: "VariableV2"
  attr {
    key: "_class"
    value {
      list {
        s: "loc:@densenet121/dense_block2/conv_block3/x2/BatchNorm/moving_mean"
      }
    }
  }
  attr {
    key: "container"
    value {
      s: ""
    }
  }
  attr {
    key: "dtype"
    value {
      type: DT_FLOAT
    }
  }
  attr {
    key: "shape"
    value {
      shape {
        dim {
          size: 128
        }
      }
    }
  }
  attr {
    key: "shared_name"
    value {
      s: ""
    }
  }
}
node {
  name: "densenet121/dense_block2/conv_block3/x2/BatchNorm/moving_variance"
  op: "VariableV2"
  attr {
    key: "_class"
    value {
      list {
        s: "loc:@densenet121/dense_block2/conv_block3/x2/BatchNorm/moving_variance"
      }
    }
  }
  attr {
    key: "container"
    value {
      s: ""
    }
  }
  attr {
    key: "dtype"
    value {
      type: DT_FLOAT
    }
  }
  attr {
    key: "shape"
    value {
      shape {
        dim {
          size: 128
        }
      }
    }
  }
  attr {
    key: "shared_name"
    value {
      s: ""
    }
  }
}
node {
  name: "densenet121/dense_block2/conv_block3/x2/BatchNorm/FusedBatchNorm"
  op: "FusedBatchNorm"
  input: "densenet121/dense_block2/conv_block3/x1/Conv/Conv2D"
  input: "densenet121/dense_block2/conv_block3/x2/BatchNorm/gamma"
  input: "densenet121/dense_block2/conv_block3/x2/BatchNorm/beta"
  input: "densenet121/dense_block2/conv_block3/x2/BatchNorm/moving_mean"
  input: "densenet121/dense_block2/conv_block3/x2/BatchNorm/moving_variance"
  attr {
    key: "T"
    value {
      type: DT_FLOAT
    }
  }
  attr {
    key: "data_format"
    value {
      s: "NHWC"
    }
  }
  attr {
    key: "epsilon"
    value {
      f: 1.1000000085914508e-05
    }
  }
  attr {
    key: "is_training"
    value {
      b: false
    }
  }
}
node {
  name: "densenet121/dense_block2/conv_block3/x2/Relu"
  op: "Relu"
  input: "densenet121/dense_block2/conv_block3/x2/BatchNorm/FusedBatchNorm"
  attr {
    key: "T"
    value {
      type: DT_FLOAT
    }
  }
}
node {
  name: "densenet121/dense_block2/conv_block3/x2/Conv/weights"
  op: "VariableV2"
  attr {
    key: "_class"
    value {
      list {
        s: "loc:@densenet121/dense_block2/conv_block3/x2/Conv/weights"
      }
    }
  }
  attr {
    key: "container"
    value {
      s: ""
    }
  }
  attr {
    key: "dtype"
    value {
      type: DT_FLOAT
    }
  }
  attr {
    key: "shape"
    value {
      shape {
        dim {
          size: 3
        }
        dim {
          size: 3
        }
        dim {
          size: 128
        }
        dim {
          size: 32
        }
      }
    }
  }
  attr {
    key: "shared_name"
    value {
      s: ""
    }
  }
}
node {
  name: "densenet121/dense_block2/conv_block3/x2/Conv/Conv2D"
  op: "Conv2D"
  input: "densenet121/dense_block2/conv_block3/x2/Relu"
  input: "densenet121/dense_block2/conv_block3/x2/Conv/weights"
  attr {
    key: "T"
    value {
      type: DT_FLOAT
    }
  }
  attr {
    key: "data_format"
    value {
      s: "NHWC"
    }
  }
  attr {
    key: "dilations"
    value {
      list {
        i: 1
        i: 1
        i: 1
        i: 1
      }
    }
  }
  attr {
    key: "explicit_paddings"
    value {
      list {
      }
    }
  }
  attr {
    key: "padding"
    value {
      s: "SAME"
    }
  }
  attr {
    key: "strides"
    value {
      list {
        i: 1
        i: 1
        i: 1
        i: 1
      }
    }
  }
  attr {
    key: "use_cudnn_on_gpu"
    value {
      b: true
    }
  }
}
node {
  name: "densenet121/dense_block2/conv_block3/concat/axis"
  op: "Const"
  attr {
    key: "dtype"
    value {
      type: DT_INT32
    }
  }
  attr {
    key: "value"
    value {
      tensor {
        dtype: DT_INT32
        tensor_shape {
        }
        int_val: 3
      }
    }
  }
}
node {
  name: "densenet121/dense_block2/conv_block3/concat"
  op: "ConcatV2"
  input: "densenet121/dense_block2/conv_block2/concat"
  input: "densenet121/dense_block2/conv_block3/x2/Conv/Conv2D"
  input: "densenet121/dense_block2/conv_block3/concat/axis"
  attr {
    key: "N"
    value {
      i: 2
    }
  }
  attr {
    key: "T"
    value {
      type: DT_FLOAT
    }
  }
  attr {
    key: "Tidx"
    value {
      type: DT_INT32
    }
  }
}
node {
  name: "densenet121/dense_block2/conv_block4/x1/BatchNorm/gamma"
  op: "VariableV2"
  attr {
    key: "_class"
    value {
      list {
        s: "loc:@densenet121/dense_block2/conv_block4/x1/BatchNorm/gamma"
      }
    }
  }
  attr {
    key: "container"
    value {
      s: ""
    }
  }
  attr {
    key: "dtype"
    value {
      type: DT_FLOAT
    }
  }
  attr {
    key: "shape"
    value {
      shape {
        dim {
          size: 224
        }
      }
    }
  }
  attr {
    key: "shared_name"
    value {
      s: ""
    }
  }
}
node {
  name: "densenet121/dense_block2/conv_block4/x1/BatchNorm/beta"
  op: "VariableV2"
  attr {
    key: "_class"
    value {
      list {
        s: "loc:@densenet121/dense_block2/conv_block4/x1/BatchNorm/beta"
      }
    }
  }
  attr {
    key: "container"
    value {
      s: ""
    }
  }
  attr {
    key: "dtype"
    value {
      type: DT_FLOAT
    }
  }
  attr {
    key: "shape"
    value {
      shape {
        dim {
          size: 224
        }
      }
    }
  }
  attr {
    key: "shared_name"
    value {
      s: ""
    }
  }
}
node {
  name: "densenet121/dense_block2/conv_block4/x1/BatchNorm/moving_mean"
  op: "VariableV2"
  attr {
    key: "_class"
    value {
      list {
        s: "loc:@densenet121/dense_block2/conv_block4/x1/BatchNorm/moving_mean"
      }
    }
  }
  attr {
    key: "container"
    value {
      s: ""
    }
  }
  attr {
    key: "dtype"
    value {
      type: DT_FLOAT
    }
  }
  attr {
    key: "shape"
    value {
      shape {
        dim {
          size: 224
        }
      }
    }
  }
  attr {
    key: "shared_name"
    value {
      s: ""
    }
  }
}
node {
  name: "densenet121/dense_block2/conv_block4/x1/BatchNorm/moving_variance"
  op: "VariableV2"
  attr {
    key: "_class"
    value {
      list {
        s: "loc:@densenet121/dense_block2/conv_block4/x1/BatchNorm/moving_variance"
      }
    }
  }
  attr {
    key: "container"
    value {
      s: ""
    }
  }
  attr {
    key: "dtype"
    value {
      type: DT_FLOAT
    }
  }
  attr {
    key: "shape"
    value {
      shape {
        dim {
          size: 224
        }
      }
    }
  }
  attr {
    key: "shared_name"
    value {
      s: ""
    }
  }
}
node {
  name: "densenet121/dense_block2/conv_block4/x1/BatchNorm/FusedBatchNorm"
  op: "FusedBatchNorm"
  input: "densenet121/dense_block2/conv_block3/concat"
  input: "densenet121/dense_block2/conv_block4/x1/BatchNorm/gamma"
  input: "densenet121/dense_block2/conv_block4/x1/BatchNorm/beta"
  input: "densenet121/dense_block2/conv_block4/x1/BatchNorm/moving_mean"
  input: "densenet121/dense_block2/conv_block4/x1/BatchNorm/moving_variance"
  attr {
    key: "T"
    value {
      type: DT_FLOAT
    }
  }
  attr {
    key: "data_format"
    value {
      s: "NHWC"
    }
  }
  attr {
    key: "epsilon"
    value {
      f: 1.1000000085914508e-05
    }
  }
  attr {
    key: "is_training"
    value {
      b: false
    }
  }
}
node {
  name: "densenet121/dense_block2/conv_block4/x1/Relu"
  op: "Relu"
  input: "densenet121/dense_block2/conv_block4/x1/BatchNorm/FusedBatchNorm"
  attr {
    key: "T"
    value {
      type: DT_FLOAT
    }
  }
}
node {
  name: "densenet121/dense_block2/conv_block4/x1/Conv/weights"
  op: "VariableV2"
  attr {
    key: "_class"
    value {
      list {
        s: "loc:@densenet121/dense_block2/conv_block4/x1/Conv/weights"
      }
    }
  }
  attr {
    key: "container"
    value {
      s: ""
    }
  }
  attr {
    key: "dtype"
    value {
      type: DT_FLOAT
    }
  }
  attr {
    key: "shape"
    value {
      shape {
        dim {
          size: 1
        }
        dim {
          size: 1
        }
        dim {
          size: 224
        }
        dim {
          size: 128
        }
      }
    }
  }
  attr {
    key: "shared_name"
    value {
      s: ""
    }
  }
}
node {
  name: "densenet121/dense_block2/conv_block4/x1/Conv/Conv2D"
  op: "Conv2D"
  input: "densenet121/dense_block2/conv_block4/x1/Relu"
  input: "densenet121/dense_block2/conv_block4/x1/Conv/weights"
  attr {
    key: "T"
    value {
      type: DT_FLOAT
    }
  }
  attr {
    key: "data_format"
    value {
      s: "NHWC"
    }
  }
  attr {
    key: "dilations"
    value {
      list {
        i: 1
        i: 1
        i: 1
        i: 1
      }
    }
  }
  attr {
    key: "explicit_paddings"
    value {
      list {
      }
    }
  }
  attr {
    key: "padding"
    value {
      s: "SAME"
    }
  }
  attr {
    key: "strides"
    value {
      list {
        i: 1
        i: 1
        i: 1
        i: 1
      }
    }
  }
  attr {
    key: "use_cudnn_on_gpu"
    value {
      b: true
    }
  }
}
node {
  name: "densenet121/dense_block2/conv_block4/x2/BatchNorm/gamma"
  op: "VariableV2"
  attr {
    key: "_class"
    value {
      list {
        s: "loc:@densenet121/dense_block2/conv_block4/x2/BatchNorm/gamma"
      }
    }
  }
  attr {
    key: "container"
    value {
      s: ""
    }
  }
  attr {
    key: "dtype"
    value {
      type: DT_FLOAT
    }
  }
  attr {
    key: "shape"
    value {
      shape {
        dim {
          size: 128
        }
      }
    }
  }
  attr {
    key: "shared_name"
    value {
      s: ""
    }
  }
}
node {
  name: "densenet121/dense_block2/conv_block4/x2/BatchNorm/beta"
  op: "VariableV2"
  attr {
    key: "_class"
    value {
      list {
        s: "loc:@densenet121/dense_block2/conv_block4/x2/BatchNorm/beta"
      }
    }
  }
  attr {
    key: "container"
    value {
      s: ""
    }
  }
  attr {
    key: "dtype"
    value {
      type: DT_FLOAT
    }
  }
  attr {
    key: "shape"
    value {
      shape {
        dim {
          size: 128
        }
      }
    }
  }
  attr {
    key: "shared_name"
    value {
      s: ""
    }
  }
}
node {
  name: "densenet121/dense_block2/conv_block4/x2/BatchNorm/moving_mean"
  op: "VariableV2"
  attr {
    key: "_class"
    value {
      list {
        s: "loc:@densenet121/dense_block2/conv_block4/x2/BatchNorm/moving_mean"
      }
    }
  }
  attr {
    key: "container"
    value {
      s: ""
    }
  }
  attr {
    key: "dtype"
    value {
      type: DT_FLOAT
    }
  }
  attr {
    key: "shape"
    value {
      shape {
        dim {
          size: 128
        }
      }
    }
  }
  attr {
    key: "shared_name"
    value {
      s: ""
    }
  }
}
node {
  name: "densenet121/dense_block2/conv_block4/x2/BatchNorm/moving_variance"
  op: "VariableV2"
  attr {
    key: "_class"
    value {
      list {
        s: "loc:@densenet121/dense_block2/conv_block4/x2/BatchNorm/moving_variance"
      }
    }
  }
  attr {
    key: "container"
    value {
      s: ""
    }
  }
  attr {
    key: "dtype"
    value {
      type: DT_FLOAT
    }
  }
  attr {
    key: "shape"
    value {
      shape {
        dim {
          size: 128
        }
      }
    }
  }
  attr {
    key: "shared_name"
    value {
      s: ""
    }
  }
}
node {
  name: "densenet121/dense_block2/conv_block4/x2/BatchNorm/FusedBatchNorm"
  op: "FusedBatchNorm"
  input: "densenet121/dense_block2/conv_block4/x1/Conv/Conv2D"
  input: "densenet121/dense_block2/conv_block4/x2/BatchNorm/gamma"
  input: "densenet121/dense_block2/conv_block4/x2/BatchNorm/beta"
  input: "densenet121/dense_block2/conv_block4/x2/BatchNorm/moving_mean"
  input: "densenet121/dense_block2/conv_block4/x2/BatchNorm/moving_variance"
  attr {
    key: "T"
    value {
      type: DT_FLOAT
    }
  }
  attr {
    key: "data_format"
    value {
      s: "NHWC"
    }
  }
  attr {
    key: "epsilon"
    value {
      f: 1.1000000085914508e-05
    }
  }
  attr {
    key: "is_training"
    value {
      b: false
    }
  }
}
node {
  name: "densenet121/dense_block2/conv_block4/x2/Relu"
  op: "Relu"
  input: "densenet121/dense_block2/conv_block4/x2/BatchNorm/FusedBatchNorm"
  attr {
    key: "T"
    value {
      type: DT_FLOAT
    }
  }
}
node {
  name: "densenet121/dense_block2/conv_block4/x2/Conv/weights"
  op: "VariableV2"
  attr {
    key: "_class"
    value {
      list {
        s: "loc:@densenet121/dense_block2/conv_block4/x2/Conv/weights"
      }
    }
  }
  attr {
    key: "container"
    value {
      s: ""
    }
  }
  attr {
    key: "dtype"
    value {
      type: DT_FLOAT
    }
  }
  attr {
    key: "shape"
    value {
      shape {
        dim {
          size: 3
        }
        dim {
          size: 3
        }
        dim {
          size: 128
        }
        dim {
          size: 32
        }
      }
    }
  }
  attr {
    key: "shared_name"
    value {
      s: ""
    }
  }
}
node {
  name: "densenet121/dense_block2/conv_block4/x2/Conv/Conv2D"
  op: "Conv2D"
  input: "densenet121/dense_block2/conv_block4/x2/Relu"
  input: "densenet121/dense_block2/conv_block4/x2/Conv/weights"
  attr {
    key: "T"
    value {
      type: DT_FLOAT
    }
  }
  attr {
    key: "data_format"
    value {
      s: "NHWC"
    }
  }
  attr {
    key: "dilations"
    value {
      list {
        i: 1
        i: 1
        i: 1
        i: 1
      }
    }
  }
  attr {
    key: "explicit_paddings"
    value {
      list {
      }
    }
  }
  attr {
    key: "padding"
    value {
      s: "SAME"
    }
  }
  attr {
    key: "strides"
    value {
      list {
        i: 1
        i: 1
        i: 1
        i: 1
      }
    }
  }
  attr {
    key: "use_cudnn_on_gpu"
    value {
      b: true
    }
  }
}
node {
  name: "densenet121/dense_block2/conv_block4/concat/axis"
  op: "Const"
  attr {
    key: "dtype"
    value {
      type: DT_INT32
    }
  }
  attr {
    key: "value"
    value {
      tensor {
        dtype: DT_INT32
        tensor_shape {
        }
        int_val: 3
      }
    }
  }
}
node {
  name: "densenet121/dense_block2/conv_block4/concat"
  op: "ConcatV2"
  input: "densenet121/dense_block2/conv_block3/concat"
  input: "densenet121/dense_block2/conv_block4/x2/Conv/Conv2D"
  input: "densenet121/dense_block2/conv_block4/concat/axis"
  attr {
    key: "N"
    value {
      i: 2
    }
  }
  attr {
    key: "T"
    value {
      type: DT_FLOAT
    }
  }
  attr {
    key: "Tidx"
    value {
      type: DT_INT32
    }
  }
}
node {
  name: "densenet121/dense_block2/conv_block5/x1/BatchNorm/gamma"
  op: "VariableV2"
  attr {
    key: "_class"
    value {
      list {
        s: "loc:@densenet121/dense_block2/conv_block5/x1/BatchNorm/gamma"
      }
    }
  }
  attr {
    key: "container"
    value {
      s: ""
    }
  }
  attr {
    key: "dtype"
    value {
      type: DT_FLOAT
    }
  }
  attr {
    key: "shape"
    value {
      shape {
        dim {
          size: 256
        }
      }
    }
  }
  attr {
    key: "shared_name"
    value {
      s: ""
    }
  }
}
node {
  name: "densenet121/dense_block2/conv_block5/x1/BatchNorm/beta"
  op: "VariableV2"
  attr {
    key: "_class"
    value {
      list {
        s: "loc:@densenet121/dense_block2/conv_block5/x1/BatchNorm/beta"
      }
    }
  }
  attr {
    key: "container"
    value {
      s: ""
    }
  }
  attr {
    key: "dtype"
    value {
      type: DT_FLOAT
    }
  }
  attr {
    key: "shape"
    value {
      shape {
        dim {
          size: 256
        }
      }
    }
  }
  attr {
    key: "shared_name"
    value {
      s: ""
    }
  }
}
node {
  name: "densenet121/dense_block2/conv_block5/x1/BatchNorm/moving_mean"
  op: "VariableV2"
  attr {
    key: "_class"
    value {
      list {
        s: "loc:@densenet121/dense_block2/conv_block5/x1/BatchNorm/moving_mean"
      }
    }
  }
  attr {
    key: "container"
    value {
      s: ""
    }
  }
  attr {
    key: "dtype"
    value {
      type: DT_FLOAT
    }
  }
  attr {
    key: "shape"
    value {
      shape {
        dim {
          size: 256
        }
      }
    }
  }
  attr {
    key: "shared_name"
    value {
      s: ""
    }
  }
}
node {
  name: "densenet121/dense_block2/conv_block5/x1/BatchNorm/moving_variance"
  op: "VariableV2"
  attr {
    key: "_class"
    value {
      list {
        s: "loc:@densenet121/dense_block2/conv_block5/x1/BatchNorm/moving_variance"
      }
    }
  }
  attr {
    key: "container"
    value {
      s: ""
    }
  }
  attr {
    key: "dtype"
    value {
      type: DT_FLOAT
    }
  }
  attr {
    key: "shape"
    value {
      shape {
        dim {
          size: 256
        }
      }
    }
  }
  attr {
    key: "shared_name"
    value {
      s: ""
    }
  }
}
node {
  name: "densenet121/dense_block2/conv_block5/x1/BatchNorm/FusedBatchNorm"
  op: "FusedBatchNorm"
  input: "densenet121/dense_block2/conv_block4/concat"
  input: "densenet121/dense_block2/conv_block5/x1/BatchNorm/gamma"
  input: "densenet121/dense_block2/conv_block5/x1/BatchNorm/beta"
  input: "densenet121/dense_block2/conv_block5/x1/BatchNorm/moving_mean"
  input: "densenet121/dense_block2/conv_block5/x1/BatchNorm/moving_variance"
  attr {
    key: "T"
    value {
      type: DT_FLOAT
    }
  }
  attr {
    key: "data_format"
    value {
      s: "NHWC"
    }
  }
  attr {
    key: "epsilon"
    value {
      f: 1.1000000085914508e-05
    }
  }
  attr {
    key: "is_training"
    value {
      b: false
    }
  }
}
node {
  name: "densenet121/dense_block2/conv_block5/x1/Relu"
  op: "Relu"
  input: "densenet121/dense_block2/conv_block5/x1/BatchNorm/FusedBatchNorm"
  attr {
    key: "T"
    value {
      type: DT_FLOAT
    }
  }
}
node {
  name: "densenet121/dense_block2/conv_block5/x1/Conv/weights"
  op: "VariableV2"
  attr {
    key: "_class"
    value {
      list {
        s: "loc:@densenet121/dense_block2/conv_block5/x1/Conv/weights"
      }
    }
  }
  attr {
    key: "container"
    value {
      s: ""
    }
  }
  attr {
    key: "dtype"
    value {
      type: DT_FLOAT
    }
  }
  attr {
    key: "shape"
    value {
      shape {
        dim {
          size: 1
        }
        dim {
          size: 1
        }
        dim {
          size: 256
        }
        dim {
          size: 128
        }
      }
    }
  }
  attr {
    key: "shared_name"
    value {
      s: ""
    }
  }
}
node {
  name: "densenet121/dense_block2/conv_block5/x1/Conv/Conv2D"
  op: "Conv2D"
  input: "densenet121/dense_block2/conv_block5/x1/Relu"
  input: "densenet121/dense_block2/conv_block5/x1/Conv/weights"
  attr {
    key: "T"
    value {
      type: DT_FLOAT
    }
  }
  attr {
    key: "data_format"
    value {
      s: "NHWC"
    }
  }
  attr {
    key: "dilations"
    value {
      list {
        i: 1
        i: 1
        i: 1
        i: 1
      }
    }
  }
  attr {
    key: "explicit_paddings"
    value {
      list {
      }
    }
  }
  attr {
    key: "padding"
    value {
      s: "SAME"
    }
  }
  attr {
    key: "strides"
    value {
      list {
        i: 1
        i: 1
        i: 1
        i: 1
      }
    }
  }
  attr {
    key: "use_cudnn_on_gpu"
    value {
      b: true
    }
  }
}
node {
  name: "densenet121/dense_block2/conv_block5/x2/BatchNorm/gamma"
  op: "VariableV2"
  attr {
    key: "_class"
    value {
      list {
        s: "loc:@densenet121/dense_block2/conv_block5/x2/BatchNorm/gamma"
      }
    }
  }
  attr {
    key: "container"
    value {
      s: ""
    }
  }
  attr {
    key: "dtype"
    value {
      type: DT_FLOAT
    }
  }
  attr {
    key: "shape"
    value {
      shape {
        dim {
          size: 128
        }
      }
    }
  }
  attr {
    key: "shared_name"
    value {
      s: ""
    }
  }
}
node {
  name: "densenet121/dense_block2/conv_block5/x2/BatchNorm/beta"
  op: "VariableV2"
  attr {
    key: "_class"
    value {
      list {
        s: "loc:@densenet121/dense_block2/conv_block5/x2/BatchNorm/beta"
      }
    }
  }
  attr {
    key: "container"
    value {
      s: ""
    }
  }
  attr {
    key: "dtype"
    value {
      type: DT_FLOAT
    }
  }
  attr {
    key: "shape"
    value {
      shape {
        dim {
          size: 128
        }
      }
    }
  }
  attr {
    key: "shared_name"
    value {
      s: ""
    }
  }
}
node {
  name: "densenet121/dense_block2/conv_block5/x2/BatchNorm/moving_mean"
  op: "VariableV2"
  attr {
    key: "_class"
    value {
      list {
        s: "loc:@densenet121/dense_block2/conv_block5/x2/BatchNorm/moving_mean"
      }
    }
  }
  attr {
    key: "container"
    value {
      s: ""
    }
  }
  attr {
    key: "dtype"
    value {
      type: DT_FLOAT
    }
  }
  attr {
    key: "shape"
    value {
      shape {
        dim {
          size: 128
        }
      }
    }
  }
  attr {
    key: "shared_name"
    value {
      s: ""
    }
  }
}
node {
  name: "densenet121/dense_block2/conv_block5/x2/BatchNorm/moving_variance"
  op: "VariableV2"
  attr {
    key: "_class"
    value {
      list {
        s: "loc:@densenet121/dense_block2/conv_block5/x2/BatchNorm/moving_variance"
      }
    }
  }
  attr {
    key: "container"
    value {
      s: ""
    }
  }
  attr {
    key: "dtype"
    value {
      type: DT_FLOAT
    }
  }
  attr {
    key: "shape"
    value {
      shape {
        dim {
          size: 128
        }
      }
    }
  }
  attr {
    key: "shared_name"
    value {
      s: ""
    }
  }
}
node {
  name: "densenet121/dense_block2/conv_block5/x2/BatchNorm/FusedBatchNorm"
  op: "FusedBatchNorm"
  input: "densenet121/dense_block2/conv_block5/x1/Conv/Conv2D"
  input: "densenet121/dense_block2/conv_block5/x2/BatchNorm/gamma"
  input: "densenet121/dense_block2/conv_block5/x2/BatchNorm/beta"
  input: "densenet121/dense_block2/conv_block5/x2/BatchNorm/moving_mean"
  input: "densenet121/dense_block2/conv_block5/x2/BatchNorm/moving_variance"
  attr {
    key: "T"
    value {
      type: DT_FLOAT
    }
  }
  attr {
    key: "data_format"
    value {
      s: "NHWC"
    }
  }
  attr {
    key: "epsilon"
    value {
      f: 1.1000000085914508e-05
    }
  }
  attr {
    key: "is_training"
    value {
      b: false
    }
  }
}
node {
  name: "densenet121/dense_block2/conv_block5/x2/Relu"
  op: "Relu"
  input: "densenet121/dense_block2/conv_block5/x2/BatchNorm/FusedBatchNorm"
  attr {
    key: "T"
    value {
      type: DT_FLOAT
    }
  }
}
node {
  name: "densenet121/dense_block2/conv_block5/x2/Conv/weights"
  op: "VariableV2"
  attr {
    key: "_class"
    value {
      list {
        s: "loc:@densenet121/dense_block2/conv_block5/x2/Conv/weights"
      }
    }
  }
  attr {
    key: "container"
    value {
      s: ""
    }
  }
  attr {
    key: "dtype"
    value {
      type: DT_FLOAT
    }
  }
  attr {
    key: "shape"
    value {
      shape {
        dim {
          size: 3
        }
        dim {
          size: 3
        }
        dim {
          size: 128
        }
        dim {
          size: 32
        }
      }
    }
  }
  attr {
    key: "shared_name"
    value {
      s: ""
    }
  }
}
node {
  name: "densenet121/dense_block2/conv_block5/x2/Conv/Conv2D"
  op: "Conv2D"
  input: "densenet121/dense_block2/conv_block5/x2/Relu"
  input: "densenet121/dense_block2/conv_block5/x2/Conv/weights"
  attr {
    key: "T"
    value {
      type: DT_FLOAT
    }
  }
  attr {
    key: "data_format"
    value {
      s: "NHWC"
    }
  }
  attr {
    key: "dilations"
    value {
      list {
        i: 1
        i: 1
        i: 1
        i: 1
      }
    }
  }
  attr {
    key: "explicit_paddings"
    value {
      list {
      }
    }
  }
  attr {
    key: "padding"
    value {
      s: "SAME"
    }
  }
  attr {
    key: "strides"
    value {
      list {
        i: 1
        i: 1
        i: 1
        i: 1
      }
    }
  }
  attr {
    key: "use_cudnn_on_gpu"
    value {
      b: true
    }
  }
}
node {
  name: "densenet121/dense_block2/conv_block5/concat/axis"
  op: "Const"
  attr {
    key: "dtype"
    value {
      type: DT_INT32
    }
  }
  attr {
    key: "value"
    value {
      tensor {
        dtype: DT_INT32
        tensor_shape {
        }
        int_val: 3
      }
    }
  }
}
node {
  name: "densenet121/dense_block2/conv_block5/concat"
  op: "ConcatV2"
  input: "densenet121/dense_block2/conv_block4/concat"
  input: "densenet121/dense_block2/conv_block5/x2/Conv/Conv2D"
  input: "densenet121/dense_block2/conv_block5/concat/axis"
  attr {
    key: "N"
    value {
      i: 2
    }
  }
  attr {
    key: "T"
    value {
      type: DT_FLOAT
    }
  }
  attr {
    key: "Tidx"
    value {
      type: DT_INT32
    }
  }
}
node {
  name: "densenet121/dense_block2/conv_block6/x1/BatchNorm/gamma"
  op: "VariableV2"
  attr {
    key: "_class"
    value {
      list {
        s: "loc:@densenet121/dense_block2/conv_block6/x1/BatchNorm/gamma"
      }
    }
  }
  attr {
    key: "container"
    value {
      s: ""
    }
  }
  attr {
    key: "dtype"
    value {
      type: DT_FLOAT
    }
  }
  attr {
    key: "shape"
    value {
      shape {
        dim {
          size: 288
        }
      }
    }
  }
  attr {
    key: "shared_name"
    value {
      s: ""
    }
  }
}
node {
  name: "densenet121/dense_block2/conv_block6/x1/BatchNorm/beta"
  op: "VariableV2"
  attr {
    key: "_class"
    value {
      list {
        s: "loc:@densenet121/dense_block2/conv_block6/x1/BatchNorm/beta"
      }
    }
  }
  attr {
    key: "container"
    value {
      s: ""
    }
  }
  attr {
    key: "dtype"
    value {
      type: DT_FLOAT
    }
  }
  attr {
    key: "shape"
    value {
      shape {
        dim {
          size: 288
        }
      }
    }
  }
  attr {
    key: "shared_name"
    value {
      s: ""
    }
  }
}
node {
  name: "densenet121/dense_block2/conv_block6/x1/BatchNorm/moving_mean"
  op: "VariableV2"
  attr {
    key: "_class"
    value {
      list {
        s: "loc:@densenet121/dense_block2/conv_block6/x1/BatchNorm/moving_mean"
      }
    }
  }
  attr {
    key: "container"
    value {
      s: ""
    }
  }
  attr {
    key: "dtype"
    value {
      type: DT_FLOAT
    }
  }
  attr {
    key: "shape"
    value {
      shape {
        dim {
          size: 288
        }
      }
    }
  }
  attr {
    key: "shared_name"
    value {
      s: ""
    }
  }
}
node {
  name: "densenet121/dense_block2/conv_block6/x1/BatchNorm/moving_variance"
  op: "VariableV2"
  attr {
    key: "_class"
    value {
      list {
        s: "loc:@densenet121/dense_block2/conv_block6/x1/BatchNorm/moving_variance"
      }
    }
  }
  attr {
    key: "container"
    value {
      s: ""
    }
  }
  attr {
    key: "dtype"
    value {
      type: DT_FLOAT
    }
  }
  attr {
    key: "shape"
    value {
      shape {
        dim {
          size: 288
        }
      }
    }
  }
  attr {
    key: "shared_name"
    value {
      s: ""
    }
  }
}
node {
  name: "densenet121/dense_block2/conv_block6/x1/BatchNorm/FusedBatchNorm"
  op: "FusedBatchNorm"
  input: "densenet121/dense_block2/conv_block5/concat"
  input: "densenet121/dense_block2/conv_block6/x1/BatchNorm/gamma"
  input: "densenet121/dense_block2/conv_block6/x1/BatchNorm/beta"
  input: "densenet121/dense_block2/conv_block6/x1/BatchNorm/moving_mean"
  input: "densenet121/dense_block2/conv_block6/x1/BatchNorm/moving_variance"
  attr {
    key: "T"
    value {
      type: DT_FLOAT
    }
  }
  attr {
    key: "data_format"
    value {
      s: "NHWC"
    }
  }
  attr {
    key: "epsilon"
    value {
      f: 1.1000000085914508e-05
    }
  }
  attr {
    key: "is_training"
    value {
      b: false
    }
  }
}
node {
  name: "densenet121/dense_block2/conv_block6/x1/Relu"
  op: "Relu"
  input: "densenet121/dense_block2/conv_block6/x1/BatchNorm/FusedBatchNorm"
  attr {
    key: "T"
    value {
      type: DT_FLOAT
    }
  }
}
node {
  name: "densenet121/dense_block2/conv_block6/x1/Conv/weights"
  op: "VariableV2"
  attr {
    key: "_class"
    value {
      list {
        s: "loc:@densenet121/dense_block2/conv_block6/x1/Conv/weights"
      }
    }
  }
  attr {
    key: "container"
    value {
      s: ""
    }
  }
  attr {
    key: "dtype"
    value {
      type: DT_FLOAT
    }
  }
  attr {
    key: "shape"
    value {
      shape {
        dim {
          size: 1
        }
        dim {
          size: 1
        }
        dim {
          size: 288
        }
        dim {
          size: 128
        }
      }
    }
  }
  attr {
    key: "shared_name"
    value {
      s: ""
    }
  }
}
node {
  name: "densenet121/dense_block2/conv_block6/x1/Conv/Conv2D"
  op: "Conv2D"
  input: "densenet121/dense_block2/conv_block6/x1/Relu"
  input: "densenet121/dense_block2/conv_block6/x1/Conv/weights"
  attr {
    key: "T"
    value {
      type: DT_FLOAT
    }
  }
  attr {
    key: "data_format"
    value {
      s: "NHWC"
    }
  }
  attr {
    key: "dilations"
    value {
      list {
        i: 1
        i: 1
        i: 1
        i: 1
      }
    }
  }
  attr {
    key: "explicit_paddings"
    value {
      list {
      }
    }
  }
  attr {
    key: "padding"
    value {
      s: "SAME"
    }
  }
  attr {
    key: "strides"
    value {
      list {
        i: 1
        i: 1
        i: 1
        i: 1
      }
    }
  }
  attr {
    key: "use_cudnn_on_gpu"
    value {
      b: true
    }
  }
}
node {
  name: "densenet121/dense_block2/conv_block6/x2/BatchNorm/gamma"
  op: "VariableV2"
  attr {
    key: "_class"
    value {
      list {
        s: "loc:@densenet121/dense_block2/conv_block6/x2/BatchNorm/gamma"
      }
    }
  }
  attr {
    key: "container"
    value {
      s: ""
    }
  }
  attr {
    key: "dtype"
    value {
      type: DT_FLOAT
    }
  }
  attr {
    key: "shape"
    value {
      shape {
        dim {
          size: 128
        }
      }
    }
  }
  attr {
    key: "shared_name"
    value {
      s: ""
    }
  }
}
node {
  name: "densenet121/dense_block2/conv_block6/x2/BatchNorm/beta"
  op: "VariableV2"
  attr {
    key: "_class"
    value {
      list {
        s: "loc:@densenet121/dense_block2/conv_block6/x2/BatchNorm/beta"
      }
    }
  }
  attr {
    key: "container"
    value {
      s: ""
    }
  }
  attr {
    key: "dtype"
    value {
      type: DT_FLOAT
    }
  }
  attr {
    key: "shape"
    value {
      shape {
        dim {
          size: 128
        }
      }
    }
  }
  attr {
    key: "shared_name"
    value {
      s: ""
    }
  }
}
node {
  name: "densenet121/dense_block2/conv_block6/x2/BatchNorm/moving_mean"
  op: "VariableV2"
  attr {
    key: "_class"
    value {
      list {
        s: "loc:@densenet121/dense_block2/conv_block6/x2/BatchNorm/moving_mean"
      }
    }
  }
  attr {
    key: "container"
    value {
      s: ""
    }
  }
  attr {
    key: "dtype"
    value {
      type: DT_FLOAT
    }
  }
  attr {
    key: "shape"
    value {
      shape {
        dim {
          size: 128
        }
      }
    }
  }
  attr {
    key: "shared_name"
    value {
      s: ""
    }
  }
}
node {
  name: "densenet121/dense_block2/conv_block6/x2/BatchNorm/moving_variance"
  op: "VariableV2"
  attr {
    key: "_class"
    value {
      list {
        s: "loc:@densenet121/dense_block2/conv_block6/x2/BatchNorm/moving_variance"
      }
    }
  }
  attr {
    key: "container"
    value {
      s: ""
    }
  }
  attr {
    key: "dtype"
    value {
      type: DT_FLOAT
    }
  }
  attr {
    key: "shape"
    value {
      shape {
        dim {
          size: 128
        }
      }
    }
  }
  attr {
    key: "shared_name"
    value {
      s: ""
    }
  }
}
node {
  name: "densenet121/dense_block2/conv_block6/x2/BatchNorm/FusedBatchNorm"
  op: "FusedBatchNorm"
  input: "densenet121/dense_block2/conv_block6/x1/Conv/Conv2D"
  input: "densenet121/dense_block2/conv_block6/x2/BatchNorm/gamma"
  input: "densenet121/dense_block2/conv_block6/x2/BatchNorm/beta"
  input: "densenet121/dense_block2/conv_block6/x2/BatchNorm/moving_mean"
  input: "densenet121/dense_block2/conv_block6/x2/BatchNorm/moving_variance"
  attr {
    key: "T"
    value {
      type: DT_FLOAT
    }
  }
  attr {
    key: "data_format"
    value {
      s: "NHWC"
    }
  }
  attr {
    key: "epsilon"
    value {
      f: 1.1000000085914508e-05
    }
  }
  attr {
    key: "is_training"
    value {
      b: false
    }
  }
}
node {
  name: "densenet121/dense_block2/conv_block6/x2/Relu"
  op: "Relu"
  input: "densenet121/dense_block2/conv_block6/x2/BatchNorm/FusedBatchNorm"
  attr {
    key: "T"
    value {
      type: DT_FLOAT
    }
  }
}
node {
  name: "densenet121/dense_block2/conv_block6/x2/Conv/weights"
  op: "VariableV2"
  attr {
    key: "_class"
    value {
      list {
        s: "loc:@densenet121/dense_block2/conv_block6/x2/Conv/weights"
      }
    }
  }
  attr {
    key: "container"
    value {
      s: ""
    }
  }
  attr {
    key: "dtype"
    value {
      type: DT_FLOAT
    }
  }
  attr {
    key: "shape"
    value {
      shape {
        dim {
          size: 3
        }
        dim {
          size: 3
        }
        dim {
          size: 128
        }
        dim {
          size: 32
        }
      }
    }
  }
  attr {
    key: "shared_name"
    value {
      s: ""
    }
  }
}
node {
  name: "densenet121/dense_block2/conv_block6/x2/Conv/Conv2D"
  op: "Conv2D"
  input: "densenet121/dense_block2/conv_block6/x2/Relu"
  input: "densenet121/dense_block2/conv_block6/x2/Conv/weights"
  attr {
    key: "T"
    value {
      type: DT_FLOAT
    }
  }
  attr {
    key: "data_format"
    value {
      s: "NHWC"
    }
  }
  attr {
    key: "dilations"
    value {
      list {
        i: 1
        i: 1
        i: 1
        i: 1
      }
    }
  }
  attr {
    key: "explicit_paddings"
    value {
      list {
      }
    }
  }
  attr {
    key: "padding"
    value {
      s: "SAME"
    }
  }
  attr {
    key: "strides"
    value {
      list {
        i: 1
        i: 1
        i: 1
        i: 1
      }
    }
  }
  attr {
    key: "use_cudnn_on_gpu"
    value {
      b: true
    }
  }
}
node {
  name: "densenet121/dense_block2/conv_block6/concat/axis"
  op: "Const"
  attr {
    key: "dtype"
    value {
      type: DT_INT32
    }
  }
  attr {
    key: "value"
    value {
      tensor {
        dtype: DT_INT32
        tensor_shape {
        }
        int_val: 3
      }
    }
  }
}
node {
  name: "densenet121/dense_block2/conv_block6/concat"
  op: "ConcatV2"
  input: "densenet121/dense_block2/conv_block5/concat"
  input: "densenet121/dense_block2/conv_block6/x2/Conv/Conv2D"
  input: "densenet121/dense_block2/conv_block6/concat/axis"
  attr {
    key: "N"
    value {
      i: 2
    }
  }
  attr {
    key: "T"
    value {
      type: DT_FLOAT
    }
  }
  attr {
    key: "Tidx"
    value {
      type: DT_INT32
    }
  }
}
node {
  name: "densenet121/dense_block2/conv_block7/x1/BatchNorm/gamma"
  op: "VariableV2"
  attr {
    key: "_class"
    value {
      list {
        s: "loc:@densenet121/dense_block2/conv_block7/x1/BatchNorm/gamma"
      }
    }
  }
  attr {
    key: "container"
    value {
      s: ""
    }
  }
  attr {
    key: "dtype"
    value {
      type: DT_FLOAT
    }
  }
  attr {
    key: "shape"
    value {
      shape {
        dim {
          size: 320
        }
      }
    }
  }
  attr {
    key: "shared_name"
    value {
      s: ""
    }
  }
}
node {
  name: "densenet121/dense_block2/conv_block7/x1/BatchNorm/beta"
  op: "VariableV2"
  attr {
    key: "_class"
    value {
      list {
        s: "loc:@densenet121/dense_block2/conv_block7/x1/BatchNorm/beta"
      }
    }
  }
  attr {
    key: "container"
    value {
      s: ""
    }
  }
  attr {
    key: "dtype"
    value {
      type: DT_FLOAT
    }
  }
  attr {
    key: "shape"
    value {
      shape {
        dim {
          size: 320
        }
      }
    }
  }
  attr {
    key: "shared_name"
    value {
      s: ""
    }
  }
}
node {
  name: "densenet121/dense_block2/conv_block7/x1/BatchNorm/moving_mean"
  op: "VariableV2"
  attr {
    key: "_class"
    value {
      list {
        s: "loc:@densenet121/dense_block2/conv_block7/x1/BatchNorm/moving_mean"
      }
    }
  }
  attr {
    key: "container"
    value {
      s: ""
    }
  }
  attr {
    key: "dtype"
    value {
      type: DT_FLOAT
    }
  }
  attr {
    key: "shape"
    value {
      shape {
        dim {
          size: 320
        }
      }
    }
  }
  attr {
    key: "shared_name"
    value {
      s: ""
    }
  }
}
node {
  name: "densenet121/dense_block2/conv_block7/x1/BatchNorm/moving_variance"
  op: "VariableV2"
  attr {
    key: "_class"
    value {
      list {
        s: "loc:@densenet121/dense_block2/conv_block7/x1/BatchNorm/moving_variance"
      }
    }
  }
  attr {
    key: "container"
    value {
      s: ""
    }
  }
  attr {
    key: "dtype"
    value {
      type: DT_FLOAT
    }
  }
  attr {
    key: "shape"
    value {
      shape {
        dim {
          size: 320
        }
      }
    }
  }
  attr {
    key: "shared_name"
    value {
      s: ""
    }
  }
}
node {
  name: "densenet121/dense_block2/conv_block7/x1/BatchNorm/FusedBatchNorm"
  op: "FusedBatchNorm"
  input: "densenet121/dense_block2/conv_block6/concat"
  input: "densenet121/dense_block2/conv_block7/x1/BatchNorm/gamma"
  input: "densenet121/dense_block2/conv_block7/x1/BatchNorm/beta"
  input: "densenet121/dense_block2/conv_block7/x1/BatchNorm/moving_mean"
  input: "densenet121/dense_block2/conv_block7/x1/BatchNorm/moving_variance"
  attr {
    key: "T"
    value {
      type: DT_FLOAT
    }
  }
  attr {
    key: "data_format"
    value {
      s: "NHWC"
    }
  }
  attr {
    key: "epsilon"
    value {
      f: 1.1000000085914508e-05
    }
  }
  attr {
    key: "is_training"
    value {
      b: false
    }
  }
}
node {
  name: "densenet121/dense_block2/conv_block7/x1/Relu"
  op: "Relu"
  input: "densenet121/dense_block2/conv_block7/x1/BatchNorm/FusedBatchNorm"
  attr {
    key: "T"
    value {
      type: DT_FLOAT
    }
  }
}
node {
  name: "densenet121/dense_block2/conv_block7/x1/Conv/weights"
  op: "VariableV2"
  attr {
    key: "_class"
    value {
      list {
        s: "loc:@densenet121/dense_block2/conv_block7/x1/Conv/weights"
      }
    }
  }
  attr {
    key: "container"
    value {
      s: ""
    }
  }
  attr {
    key: "dtype"
    value {
      type: DT_FLOAT
    }
  }
  attr {
    key: "shape"
    value {
      shape {
        dim {
          size: 1
        }
        dim {
          size: 1
        }
        dim {
          size: 320
        }
        dim {
          size: 128
        }
      }
    }
  }
  attr {
    key: "shared_name"
    value {
      s: ""
    }
  }
}
node {
  name: "densenet121/dense_block2/conv_block7/x1/Conv/Conv2D"
  op: "Conv2D"
  input: "densenet121/dense_block2/conv_block7/x1/Relu"
  input: "densenet121/dense_block2/conv_block7/x1/Conv/weights"
  attr {
    key: "T"
    value {
      type: DT_FLOAT
    }
  }
  attr {
    key: "data_format"
    value {
      s: "NHWC"
    }
  }
  attr {
    key: "dilations"
    value {
      list {
        i: 1
        i: 1
        i: 1
        i: 1
      }
    }
  }
  attr {
    key: "explicit_paddings"
    value {
      list {
      }
    }
  }
  attr {
    key: "padding"
    value {
      s: "SAME"
    }
  }
  attr {
    key: "strides"
    value {
      list {
        i: 1
        i: 1
        i: 1
        i: 1
      }
    }
  }
  attr {
    key: "use_cudnn_on_gpu"
    value {
      b: true
    }
  }
}
node {
  name: "densenet121/dense_block2/conv_block7/x2/BatchNorm/gamma"
  op: "VariableV2"
  attr {
    key: "_class"
    value {
      list {
        s: "loc:@densenet121/dense_block2/conv_block7/x2/BatchNorm/gamma"
      }
    }
  }
  attr {
    key: "container"
    value {
      s: ""
    }
  }
  attr {
    key: "dtype"
    value {
      type: DT_FLOAT
    }
  }
  attr {
    key: "shape"
    value {
      shape {
        dim {
          size: 128
        }
      }
    }
  }
  attr {
    key: "shared_name"
    value {
      s: ""
    }
  }
}
node {
  name: "densenet121/dense_block2/conv_block7/x2/BatchNorm/beta"
  op: "VariableV2"
  attr {
    key: "_class"
    value {
      list {
        s: "loc:@densenet121/dense_block2/conv_block7/x2/BatchNorm/beta"
      }
    }
  }
  attr {
    key: "container"
    value {
      s: ""
    }
  }
  attr {
    key: "dtype"
    value {
      type: DT_FLOAT
    }
  }
  attr {
    key: "shape"
    value {
      shape {
        dim {
          size: 128
        }
      }
    }
  }
  attr {
    key: "shared_name"
    value {
      s: ""
    }
  }
}
node {
  name: "densenet121/dense_block2/conv_block7/x2/BatchNorm/moving_mean"
  op: "VariableV2"
  attr {
    key: "_class"
    value {
      list {
        s: "loc:@densenet121/dense_block2/conv_block7/x2/BatchNorm/moving_mean"
      }
    }
  }
  attr {
    key: "container"
    value {
      s: ""
    }
  }
  attr {
    key: "dtype"
    value {
      type: DT_FLOAT
    }
  }
  attr {
    key: "shape"
    value {
      shape {
        dim {
          size: 128
        }
      }
    }
  }
  attr {
    key: "shared_name"
    value {
      s: ""
    }
  }
}
node {
  name: "densenet121/dense_block2/conv_block7/x2/BatchNorm/moving_variance"
  op: "VariableV2"
  attr {
    key: "_class"
    value {
      list {
        s: "loc:@densenet121/dense_block2/conv_block7/x2/BatchNorm/moving_variance"
      }
    }
  }
  attr {
    key: "container"
    value {
      s: ""
    }
  }
  attr {
    key: "dtype"
    value {
      type: DT_FLOAT
    }
  }
  attr {
    key: "shape"
    value {
      shape {
        dim {
          size: 128
        }
      }
    }
  }
  attr {
    key: "shared_name"
    value {
      s: ""
    }
  }
}
node {
  name: "densenet121/dense_block2/conv_block7/x2/BatchNorm/FusedBatchNorm"
  op: "FusedBatchNorm"
  input: "densenet121/dense_block2/conv_block7/x1/Conv/Conv2D"
  input: "densenet121/dense_block2/conv_block7/x2/BatchNorm/gamma"
  input: "densenet121/dense_block2/conv_block7/x2/BatchNorm/beta"
  input: "densenet121/dense_block2/conv_block7/x2/BatchNorm/moving_mean"
  input: "densenet121/dense_block2/conv_block7/x2/BatchNorm/moving_variance"
  attr {
    key: "T"
    value {
      type: DT_FLOAT
    }
  }
  attr {
    key: "data_format"
    value {
      s: "NHWC"
    }
  }
  attr {
    key: "epsilon"
    value {
      f: 1.1000000085914508e-05
    }
  }
  attr {
    key: "is_training"
    value {
      b: false
    }
  }
}
node {
  name: "densenet121/dense_block2/conv_block7/x2/Relu"
  op: "Relu"
  input: "densenet121/dense_block2/conv_block7/x2/BatchNorm/FusedBatchNorm"
  attr {
    key: "T"
    value {
      type: DT_FLOAT
    }
  }
}
node {
  name: "densenet121/dense_block2/conv_block7/x2/Conv/weights"
  op: "VariableV2"
  attr {
    key: "_class"
    value {
      list {
        s: "loc:@densenet121/dense_block2/conv_block7/x2/Conv/weights"
      }
    }
  }
  attr {
    key: "container"
    value {
      s: ""
    }
  }
  attr {
    key: "dtype"
    value {
      type: DT_FLOAT
    }
  }
  attr {
    key: "shape"
    value {
      shape {
        dim {
          size: 3
        }
        dim {
          size: 3
        }
        dim {
          size: 128
        }
        dim {
          size: 32
        }
      }
    }
  }
  attr {
    key: "shared_name"
    value {
      s: ""
    }
  }
}
node {
  name: "densenet121/dense_block2/conv_block7/x2/Conv/Conv2D"
  op: "Conv2D"
  input: "densenet121/dense_block2/conv_block7/x2/Relu"
  input: "densenet121/dense_block2/conv_block7/x2/Conv/weights"
  attr {
    key: "T"
    value {
      type: DT_FLOAT
    }
  }
  attr {
    key: "data_format"
    value {
      s: "NHWC"
    }
  }
  attr {
    key: "dilations"
    value {
      list {
        i: 1
        i: 1
        i: 1
        i: 1
      }
    }
  }
  attr {
    key: "explicit_paddings"
    value {
      list {
      }
    }
  }
  attr {
    key: "padding"
    value {
      s: "SAME"
    }
  }
  attr {
    key: "strides"
    value {
      list {
        i: 1
        i: 1
        i: 1
        i: 1
      }
    }
  }
  attr {
    key: "use_cudnn_on_gpu"
    value {
      b: true
    }
  }
}
node {
  name: "densenet121/dense_block2/conv_block7/concat/axis"
  op: "Const"
  attr {
    key: "dtype"
    value {
      type: DT_INT32
    }
  }
  attr {
    key: "value"
    value {
      tensor {
        dtype: DT_INT32
        tensor_shape {
        }
        int_val: 3
      }
    }
  }
}
node {
  name: "densenet121/dense_block2/conv_block7/concat"
  op: "ConcatV2"
  input: "densenet121/dense_block2/conv_block6/concat"
  input: "densenet121/dense_block2/conv_block7/x2/Conv/Conv2D"
  input: "densenet121/dense_block2/conv_block7/concat/axis"
  attr {
    key: "N"
    value {
      i: 2
    }
  }
  attr {
    key: "T"
    value {
      type: DT_FLOAT
    }
  }
  attr {
    key: "Tidx"
    value {
      type: DT_INT32
    }
  }
}
node {
  name: "densenet121/dense_block2/conv_block8/x1/BatchNorm/gamma"
  op: "VariableV2"
  attr {
    key: "_class"
    value {
      list {
        s: "loc:@densenet121/dense_block2/conv_block8/x1/BatchNorm/gamma"
      }
    }
  }
  attr {
    key: "container"
    value {
      s: ""
    }
  }
  attr {
    key: "dtype"
    value {
      type: DT_FLOAT
    }
  }
  attr {
    key: "shape"
    value {
      shape {
        dim {
          size: 352
        }
      }
    }
  }
  attr {
    key: "shared_name"
    value {
      s: ""
    }
  }
}
node {
  name: "densenet121/dense_block2/conv_block8/x1/BatchNorm/beta"
  op: "VariableV2"
  attr {
    key: "_class"
    value {
      list {
        s: "loc:@densenet121/dense_block2/conv_block8/x1/BatchNorm/beta"
      }
    }
  }
  attr {
    key: "container"
    value {
      s: ""
    }
  }
  attr {
    key: "dtype"
    value {
      type: DT_FLOAT
    }
  }
  attr {
    key: "shape"
    value {
      shape {
        dim {
          size: 352
        }
      }
    }
  }
  attr {
    key: "shared_name"
    value {
      s: ""
    }
  }
}
node {
  name: "densenet121/dense_block2/conv_block8/x1/BatchNorm/moving_mean"
  op: "VariableV2"
  attr {
    key: "_class"
    value {
      list {
        s: "loc:@densenet121/dense_block2/conv_block8/x1/BatchNorm/moving_mean"
      }
    }
  }
  attr {
    key: "container"
    value {
      s: ""
    }
  }
  attr {
    key: "dtype"
    value {
      type: DT_FLOAT
    }
  }
  attr {
    key: "shape"
    value {
      shape {
        dim {
          size: 352
        }
      }
    }
  }
  attr {
    key: "shared_name"
    value {
      s: ""
    }
  }
}
node {
  name: "densenet121/dense_block2/conv_block8/x1/BatchNorm/moving_variance"
  op: "VariableV2"
  attr {
    key: "_class"
    value {
      list {
        s: "loc:@densenet121/dense_block2/conv_block8/x1/BatchNorm/moving_variance"
      }
    }
  }
  attr {
    key: "container"
    value {
      s: ""
    }
  }
  attr {
    key: "dtype"
    value {
      type: DT_FLOAT
    }
  }
  attr {
    key: "shape"
    value {
      shape {
        dim {
          size: 352
        }
      }
    }
  }
  attr {
    key: "shared_name"
    value {
      s: ""
    }
  }
}
node {
  name: "densenet121/dense_block2/conv_block8/x1/BatchNorm/FusedBatchNorm"
  op: "FusedBatchNorm"
  input: "densenet121/dense_block2/conv_block7/concat"
  input: "densenet121/dense_block2/conv_block8/x1/BatchNorm/gamma"
  input: "densenet121/dense_block2/conv_block8/x1/BatchNorm/beta"
  input: "densenet121/dense_block2/conv_block8/x1/BatchNorm/moving_mean"
  input: "densenet121/dense_block2/conv_block8/x1/BatchNorm/moving_variance"
  attr {
    key: "T"
    value {
      type: DT_FLOAT
    }
  }
  attr {
    key: "data_format"
    value {
      s: "NHWC"
    }
  }
  attr {
    key: "epsilon"
    value {
      f: 1.1000000085914508e-05
    }
  }
  attr {
    key: "is_training"
    value {
      b: false
    }
  }
}
node {
  name: "densenet121/dense_block2/conv_block8/x1/Relu"
  op: "Relu"
  input: "densenet121/dense_block2/conv_block8/x1/BatchNorm/FusedBatchNorm"
  attr {
    key: "T"
    value {
      type: DT_FLOAT
    }
  }
}
node {
  name: "densenet121/dense_block2/conv_block8/x1/Conv/weights"
  op: "VariableV2"
  attr {
    key: "_class"
    value {
      list {
        s: "loc:@densenet121/dense_block2/conv_block8/x1/Conv/weights"
      }
    }
  }
  attr {
    key: "container"
    value {
      s: ""
    }
  }
  attr {
    key: "dtype"
    value {
      type: DT_FLOAT
    }
  }
  attr {
    key: "shape"
    value {
      shape {
        dim {
          size: 1
        }
        dim {
          size: 1
        }
        dim {
          size: 352
        }
        dim {
          size: 128
        }
      }
    }
  }
  attr {
    key: "shared_name"
    value {
      s: ""
    }
  }
}
node {
  name: "densenet121/dense_block2/conv_block8/x1/Conv/Conv2D"
  op: "Conv2D"
  input: "densenet121/dense_block2/conv_block8/x1/Relu"
  input: "densenet121/dense_block2/conv_block8/x1/Conv/weights"
  attr {
    key: "T"
    value {
      type: DT_FLOAT
    }
  }
  attr {
    key: "data_format"
    value {
      s: "NHWC"
    }
  }
  attr {
    key: "dilations"
    value {
      list {
        i: 1
        i: 1
        i: 1
        i: 1
      }
    }
  }
  attr {
    key: "explicit_paddings"
    value {
      list {
      }
    }
  }
  attr {
    key: "padding"
    value {
      s: "SAME"
    }
  }
  attr {
    key: "strides"
    value {
      list {
        i: 1
        i: 1
        i: 1
        i: 1
      }
    }
  }
  attr {
    key: "use_cudnn_on_gpu"
    value {
      b: true
    }
  }
}
node {
  name: "densenet121/dense_block2/conv_block8/x2/BatchNorm/gamma"
  op: "VariableV2"
  attr {
    key: "_class"
    value {
      list {
        s: "loc:@densenet121/dense_block2/conv_block8/x2/BatchNorm/gamma"
      }
    }
  }
  attr {
    key: "container"
    value {
      s: ""
    }
  }
  attr {
    key: "dtype"
    value {
      type: DT_FLOAT
    }
  }
  attr {
    key: "shape"
    value {
      shape {
        dim {
          size: 128
        }
      }
    }
  }
  attr {
    key: "shared_name"
    value {
      s: ""
    }
  }
}
node {
  name: "densenet121/dense_block2/conv_block8/x2/BatchNorm/beta"
  op: "VariableV2"
  attr {
    key: "_class"
    value {
      list {
        s: "loc:@densenet121/dense_block2/conv_block8/x2/BatchNorm/beta"
      }
    }
  }
  attr {
    key: "container"
    value {
      s: ""
    }
  }
  attr {
    key: "dtype"
    value {
      type: DT_FLOAT
    }
  }
  attr {
    key: "shape"
    value {
      shape {
        dim {
          size: 128
        }
      }
    }
  }
  attr {
    key: "shared_name"
    value {
      s: ""
    }
  }
}
node {
  name: "densenet121/dense_block2/conv_block8/x2/BatchNorm/moving_mean"
  op: "VariableV2"
  attr {
    key: "_class"
    value {
      list {
        s: "loc:@densenet121/dense_block2/conv_block8/x2/BatchNorm/moving_mean"
      }
    }
  }
  attr {
    key: "container"
    value {
      s: ""
    }
  }
  attr {
    key: "dtype"
    value {
      type: DT_FLOAT
    }
  }
  attr {
    key: "shape"
    value {
      shape {
        dim {
          size: 128
        }
      }
    }
  }
  attr {
    key: "shared_name"
    value {
      s: ""
    }
  }
}
node {
  name: "densenet121/dense_block2/conv_block8/x2/BatchNorm/moving_variance"
  op: "VariableV2"
  attr {
    key: "_class"
    value {
      list {
        s: "loc:@densenet121/dense_block2/conv_block8/x2/BatchNorm/moving_variance"
      }
    }
  }
  attr {
    key: "container"
    value {
      s: ""
    }
  }
  attr {
    key: "dtype"
    value {
      type: DT_FLOAT
    }
  }
  attr {
    key: "shape"
    value {
      shape {
        dim {
          size: 128
        }
      }
    }
  }
  attr {
    key: "shared_name"
    value {
      s: ""
    }
  }
}
node {
  name: "densenet121/dense_block2/conv_block8/x2/BatchNorm/FusedBatchNorm"
  op: "FusedBatchNorm"
  input: "densenet121/dense_block2/conv_block8/x1/Conv/Conv2D"
  input: "densenet121/dense_block2/conv_block8/x2/BatchNorm/gamma"
  input: "densenet121/dense_block2/conv_block8/x2/BatchNorm/beta"
  input: "densenet121/dense_block2/conv_block8/x2/BatchNorm/moving_mean"
  input: "densenet121/dense_block2/conv_block8/x2/BatchNorm/moving_variance"
  attr {
    key: "T"
    value {
      type: DT_FLOAT
    }
  }
  attr {
    key: "data_format"
    value {
      s: "NHWC"
    }
  }
  attr {
    key: "epsilon"
    value {
      f: 1.1000000085914508e-05
    }
  }
  attr {
    key: "is_training"
    value {
      b: false
    }
  }
}
node {
  name: "densenet121/dense_block2/conv_block8/x2/Relu"
  op: "Relu"
  input: "densenet121/dense_block2/conv_block8/x2/BatchNorm/FusedBatchNorm"
  attr {
    key: "T"
    value {
      type: DT_FLOAT
    }
  }
}
node {
  name: "densenet121/dense_block2/conv_block8/x2/Conv/weights"
  op: "VariableV2"
  attr {
    key: "_class"
    value {
      list {
        s: "loc:@densenet121/dense_block2/conv_block8/x2/Conv/weights"
      }
    }
  }
  attr {
    key: "container"
    value {
      s: ""
    }
  }
  attr {
    key: "dtype"
    value {
      type: DT_FLOAT
    }
  }
  attr {
    key: "shape"
    value {
      shape {
        dim {
          size: 3
        }
        dim {
          size: 3
        }
        dim {
          size: 128
        }
        dim {
          size: 32
        }
      }
    }
  }
  attr {
    key: "shared_name"
    value {
      s: ""
    }
  }
}
node {
  name: "densenet121/dense_block2/conv_block8/x2/Conv/Conv2D"
  op: "Conv2D"
  input: "densenet121/dense_block2/conv_block8/x2/Relu"
  input: "densenet121/dense_block2/conv_block8/x2/Conv/weights"
  attr {
    key: "T"
    value {
      type: DT_FLOAT
    }
  }
  attr {
    key: "data_format"
    value {
      s: "NHWC"
    }
  }
…
    value {
      s: ""
    }
  }
}
node {
  name: "densenet121/dense_block4/conv_block12/x2/BatchNorm/FusedBatchNorm"
  op: "FusedBatchNorm"
  input: "densenet121/dense_block4/conv_block12/x1/Conv/Conv2D"
  input: "densenet121/dense_block4/conv_block12/x2/BatchNorm/gamma"
  input: "densenet121/dense_block4/conv_block12/x2/BatchNorm/beta"
  input: "densenet121/dense_block4/conv_block12/x2/BatchNorm/moving_mean"
  input: "densenet121/dense_block4/conv_block12/x2/BatchNorm/moving_variance"
  attr {
    key: "T"
    value {
      type: DT_FLOAT
    }
  }
  attr {
    key: "data_format"
    value {
      s: "NHWC"
    }
  }
  attr {
    key: "epsilon"
    value {
      f: 1.1000000085914508e-05
    }
  }
  attr {
    key: "is_training"
    value {
      b: false
    }
  }
}
node {
  name: "densenet121/dense_block4/conv_block12/x2/Relu"
  op: "Relu"
  input: "densenet121/dense_block4/conv_block12/x2/BatchNorm/FusedBatchNorm"
  attr {
    key: "T"
    value {
      type: DT_FLOAT
    }
  }
}
node {
  name: "densenet121/dense_block4/conv_block12/x2/Conv/weights"
  op: "VariableV2"
  attr {
    key: "_class"
    value {
      list {
        s: "loc:@densenet121/dense_block4/conv_block12/x2/Conv/weights"
      }
    }
  }
  attr {
    key: "container"
    value {
      s: ""
    }
  }
  attr {
    key: "dtype"
    value {
      type: DT_FLOAT
    }
  }
  attr {
    key: "shape"
    value {
      shape {
        dim {
          size: 3
        }
        dim {
          size: 3
        }
        dim {
          size: 128
        }
        dim {
          size: 32
        }
      }
    }
  }
  attr {
    key: "shared_name"
    value {
      s: ""
    }
  }
}
node {
  name: "densenet121/dense_block4/conv_block12/x2/Conv/Conv2D"
  op: "Conv2D"
  input: "densenet121/dense_block4/conv_block12/x2/Relu"
  input: "densenet121/dense_block4/conv_block12/x2/Conv/weights"
  attr {
    key: "T"
    value {
      type: DT_FLOAT
    }
  }
  attr {
    key: "data_format"
    value {
      s: "NHWC"
    }
  }
  attr {
    key: "dilations"
    value {
      list {
        i: 1
        i: 1
        i: 1
        i: 1
      }
    }
  }
  attr {
    key: "explicit_paddings"
    value {
      list {
      }
    }
  }
  attr {
    key: "padding"
    value {
      s: "SAME"
    }
  }
  attr {
    key: "strides"
    value {
      list {
        i: 1
        i: 1
        i: 1
        i: 1
      }
    }
  }
  attr {
    key: "use_cudnn_on_gpu"
    value {
      b: true
    }
  }
}
node {
  name: "densenet121/dense_block4/conv_block12/concat/axis"
  op: "Const"
  attr {
    key: "dtype"
    value {
      type: DT_INT32
    }
  }
  attr {
    key: "value"
    value {
      tensor {
        dtype: DT_INT32
        tensor_shape {
        }
        int_val: 3
      }
    }
  }
}
node {
  name: "densenet121/dense_block4/conv_block12/concat"
  op: "ConcatV2"
  input: "densenet121/dense_block4/conv_block11/concat"
  input: "densenet121/dense_block4/conv_block12/x2/Conv/Conv2D"
  input: "densenet121/dense_block4/conv_block12/concat/axis"
  attr {
    key: "N"
    value {
      i: 2
    }
  }
  attr {
    key: "T"
    value {
      type: DT_FLOAT
    }
  }
  attr {
    key: "Tidx"
    value {
      type: DT_INT32
    }
  }
}
node {
  name: "densenet121/dense_block4/conv_block13/x1/BatchNorm/gamma"
  op: "VariableV2"
  attr {
    key: "_class"
    value {
      list {
        s: "loc:@densenet121/dense_block4/conv_block13/x1/BatchNorm/gamma"
      }
    }
  }
  attr {
    key: "container"
    value {
      s: ""
    }
  }
  attr {
    key: "dtype"
    value {
      type: DT_FLOAT
    }
  }
  attr {
    key: "shape"
    value {
      shape {
        dim {
          size: 896
        }
      }
    }
  }
  attr {
    key: "shared_name"
    value {
      s: ""
    }
  }
}
node {
  name: "densenet121/dense_block4/conv_block13/x1/BatchNorm/beta"
  op: "VariableV2"
  attr {
    key: "_class"
    value {
      list {
        s: "loc:@densenet121/dense_block4/conv_block13/x1/BatchNorm/beta"
      }
    }
  }
  attr {
    key: "container"
    value {
      s: ""
    }
  }
  attr {
    key: "dtype"
    value {
      type: DT_FLOAT
    }
  }
  attr {
    key: "shape"
    value {
      shape {
        dim {
          size: 896
        }
      }
    }
  }
  attr {
    key: "shared_name"
    value {
      s: ""
    }
  }
}
node {
  name: "densenet121/dense_block4/conv_block13/x1/BatchNorm/moving_mean"
  op: "VariableV2"
  attr {
    key: "_class"
    value {
      list {
        s: "loc:@densenet121/dense_block4/conv_block13/x1/BatchNorm/moving_mean"
      }
    }
  }
  attr {
    key: "container"
    value {
      s: ""
    }
  }
  attr {
    key: "dtype"
    value {
      type: DT_FLOAT
    }
  }
  attr {
    key: "shape"
    value {
      shape {
        dim {
          size: 896
        }
      }
    }
  }
  attr {
    key: "shared_name"
    value {
      s: ""
    }
  }
}
node {
  name: "densenet121/dense_block4/conv_block13/x1/BatchNorm/moving_variance"
  op: "VariableV2"
  attr {
    key: "_class"
    value {
      list {
        s: "loc:@densenet121/dense_block4/conv_block13/x1/BatchNorm/moving_variance"
      }
    }
  }
  attr {
    key: "container"
    value {
      s: ""
    }
  }
  attr {
    key: "dtype"
    value {
      type: DT_FLOAT
    }
  }
  attr {
    key: "shape"
    value {
      shape {
        dim {
          size: 896
        }
      }
    }
  }
  attr {
    key: "shared_name"
    value {
      s: ""
    }
  }
}
node {
  name: "densenet121/dense_block4/conv_block13/x1/BatchNorm/FusedBatchNorm"
  op: "FusedBatchNorm"
  input: "densenet121/dense_block4/conv_block12/concat"
  input: "densenet121/dense_block4/conv_block13/x1/BatchNorm/gamma"
  input: "densenet121/dense_block4/conv_block13/x1/BatchNorm/beta"
  input: "densenet121/dense_block4/conv_block13/x1/BatchNorm/moving_mean"
  input: "densenet121/dense_block4/conv_block13/x1/BatchNorm/moving_variance"
  attr {
    key: "T"
    value {
      type: DT_FLOAT
    }
  }
  attr {
    key: "data_format"
    value {
      s: "NHWC"
    }
  }
  attr {
    key: "epsilon"
    value {
      f: 1.1000000085914508e-05
    }
  }
  attr {
    key: "is_training"
    value {
      b: false
    }
  }
}
node {
  name: "densenet121/dense_block4/conv_block13/x1/Relu"
  op: "Relu"
  input: "densenet121/dense_block4/conv_block13/x1/BatchNorm/FusedBatchNorm"
  attr {
    key: "T"
    value {
      type: DT_FLOAT
    }
  }
}
node {
  name: "densenet121/dense_block4/conv_block13/x1/Conv/weights"
  op: "VariableV2"
  attr {
    key: "_class"
    value {
      list {
        s: "loc:@densenet121/dense_block4/conv_block13/x1/Conv/weights"
      }
    }
  }
  attr {
    key: "container"
    value {
      s: ""
    }
  }
  attr {
    key: "dtype"
    value {
      type: DT_FLOAT
    }
  }
  attr {
    key: "shape"
    value {
      shape {
        dim {
          size: 1
        }
        dim {
          size: 1
        }
        dim {
          size: 896
        }
        dim {
          size: 128
        }
      }
    }
  }
  attr {
    key: "shared_name"
    value {
      s: ""
    }
  }
}
node {
  name: "densenet121/dense_block4/conv_block13/x1/Conv/Conv2D"
  op: "Conv2D"
  input: "densenet121/dense_block4/conv_block13/x1/Relu"
  input: "densenet121/dense_block4/conv_block13/x1/Conv/weights"
  attr {
    key: "T"
    value {
      type: DT_FLOAT
    }
  }
  attr {
    key: "data_format"
    value {
      s: "NHWC"
    }
  }
  attr {
    key: "dilations"
    value {
      list {
        i: 1
        i: 1
        i: 1
        i: 1
      }
    }
  }
  attr {
    key: "explicit_paddings"
    value {
      list {
      }
    }
  }
  attr {
    key: "padding"
    value {
      s: "SAME"
    }
  }
  attr {
    key: "strides"
    value {
      list {
        i: 1
        i: 1
        i: 1
        i: 1
      }
    }
  }
  attr {
    key: "use_cudnn_on_gpu"
    value {
      b: true
    }
  }
}
node {
  name: "densenet121/dense_block4/conv_block13/x2/BatchNorm/gamma"
  op: "VariableV2"
  attr {
    key: "_class"
    value {
      list {
        s: "loc:@densenet121/dense_block4/conv_block13/x2/BatchNorm/gamma"
      }
    }
  }
  attr {
    key: "container"
    value {
      s: ""
    }
  }
  attr {
    key: "dtype"
    value {
      type: DT_FLOAT
    }
  }
  attr {
    key: "shape"
    value {
      shape {
        dim {
          size: 128
        }
      }
    }
  }
  attr {
    key: "shared_name"
    value {
      s: ""
    }
  }
}
node {
  name: "densenet121/dense_block4/conv_block13/x2/BatchNorm/beta"
  op: "VariableV2"
  attr {
    key: "_class"
    value {
      list {
        s: "loc:@densenet121/dense_block4/conv_block13/x2/BatchNorm/beta"
      }
    }
  }
  attr {
    key: "container"
    value {
      s: ""
    }
  }
  attr {
    key: "dtype"
    value {
      type: DT_FLOAT
    }
  }
  attr {
    key: "shape"
    value {
      shape {
        dim {
          size: 128
        }
      }
    }
  }
  attr {
    key: "shared_name"
    value {
      s: ""
    }
  }
}
node {
  name: "densenet121/dense_block4/conv_block13/x2/BatchNorm/moving_mean"
  op: "VariableV2"
  attr {
    key: "_class"
    value {
      list {
        s: "loc:@densenet121/dense_block4/conv_block13/x2/BatchNorm/moving_mean"
      }
    }
  }
  attr {
    key: "container"
    value {
      s: ""
    }
  }
  attr {
    key: "dtype"
    value {
      type: DT_FLOAT
    }
  }
  attr {
    key: "shape"
    value {
      shape {
        dim {
          size: 128
        }
      }
    }
  }
  attr {
    key: "shared_name"
    value {
      s: ""
    }
  }
}
node {
  name: "densenet121/dense_block4/conv_block13/x2/BatchNorm/moving_variance"
  op: "VariableV2"
  attr {
    key: "_class"
    value {
      list {
        s: "loc:@densenet121/dense_block4/conv_block13/x2/BatchNorm/moving_variance"
      }
    }
  }
  attr {
    key: "container"
    value {
      s: ""
    }
  }
  attr {
    key: "dtype"
    value {
      type: DT_FLOAT
    }
  }
  attr {
    key: "shape"
    value {
      shape {
        dim {
          size: 128
        }
      }
    }
  }
  attr {
    key: "shared_name"
    value {
      s: ""
    }
  }
}
node {
  name: "densenet121/dense_block4/conv_block13/x2/BatchNorm/FusedBatchNorm"
  op: "FusedBatchNorm"
  input: "densenet121/dense_block4/conv_block13/x1/Conv/Conv2D"
  input: "densenet121/dense_block4/conv_block13/x2/BatchNorm/gamma"
  input: "densenet121/dense_block4/conv_block13/x2/BatchNorm/beta"
  input: "densenet121/dense_block4/conv_block13/x2/BatchNorm/moving_mean"
  input: "densenet121/dense_block4/conv_block13/x2/BatchNorm/moving_variance"
  attr {
    key: "T"
    value {
      type: DT_FLOAT
    }
  }
  attr {
    key: "data_format"
    value {
      s: "NHWC"
    }
  }
  attr {
    key: "epsilon"
    value {
      f: 1.1000000085914508e-05
    }
  }
  attr {
    key: "is_training"
    value {
      b: false
    }
  }
}
node {
  name: "densenet121/dense_block4/conv_block13/x2/Relu"
  op: "Relu"
  input: "densenet121/dense_block4/conv_block13/x2/BatchNorm/FusedBatchNorm"
  attr {
    key: "T"
    value {
      type: DT_FLOAT
    }
  }
}
node {
  name: "densenet121/dense_block4/conv_block13/x2/Conv/weights"
  op: "VariableV2"
  attr {
    key: "_class"
    value {
      list {
        s: "loc:@densenet121/dense_block4/conv_block13/x2/Conv/weights"
      }
    }
  }
  attr {
    key: "container"
    value {
      s: ""
    }
  }
  attr {
    key: "dtype"
    value {
      type: DT_FLOAT
    }
  }
  attr {
    key: "shape"
    value {
      shape {
        dim {
          size: 3
        }
        dim {
          size: 3
        }
        dim {
          size: 128
        }
        dim {
          size: 32
        }
      }
    }
  }
  attr {
    key: "shared_name"
    value {
      s: ""
    }
  }
}
node {
  name: "densenet121/dense_block4/conv_block13/x2/Conv/Conv2D"
  op: "Conv2D"
  input: "densenet121/dense_block4/conv_block13/x2/Relu"
  input: "densenet121/dense_block4/conv_block13/x2/Conv/weights"
  attr {
    key: "T"
    value {
      type: DT_FLOAT
    }
  }
  attr {
    key: "data_format"
    value {
      s: "NHWC"
    }
  }
  attr {
    key: "dilations"
    value {
      list {
        i: 1
        i: 1
        i: 1
        i: 1
      }
    }
  }
  attr {
    key: "explicit_paddings"
    value {
      list {
      }
    }
  }
  attr {
    key: "padding"
    value {
      s: "SAME"
    }
  }
  attr {
    key: "strides"
    value {
      list {
        i: 1
        i: 1
        i: 1
        i: 1
      }
    }
  }
  attr {
    key: "use_cudnn_on_gpu"
    value {
      b: true
    }
  }
}
node {
  name: "densenet121/dense_block4/conv_block13/concat/axis"
  op: "Const"
  attr {
    key: "dtype"
    value {
      type: DT_INT32
    }
  }
  attr {
    key: "value"
    value {
      tensor {
        dtype: DT_INT32
        tensor_shape {
        }
        int_val: 3
      }
    }
  }
}
node {
  name: "densenet121/dense_block4/conv_block13/concat"
  op: "ConcatV2"
  input: "densenet121/dense_block4/conv_block12/concat"
  input: "densenet121/dense_block4/conv_block13/x2/Conv/Conv2D"
  input: "densenet121/dense_block4/conv_block13/concat/axis"
  attr {
    key: "N"
    value {
      i: 2
    }
  }
  attr {
    key: "T"
    value {
      type: DT_FLOAT
    }
  }
  attr {
    key: "Tidx"
    value {
      type: DT_INT32
    }
  }
}
node {
  name: "densenet121/dense_block4/conv_block14/x1/BatchNorm/gamma"
  op: "VariableV2"
  attr {
    key: "_class"
    value {
      list {
        s: "loc:@densenet121/dense_block4/conv_block14/x1/BatchNorm/gamma"
      }
    }
  }
  attr {
    key: "container"
    value {
      s: ""
    }
  }
  attr {
    key: "dtype"
    value {
      type: DT_FLOAT
    }
  }
  attr {
    key: "shape"
    value {
      shape {
        dim {
          size: 928
        }
      }
    }
  }
  attr {
    key: "shared_name"
    value {
      s: ""
    }
  }
}
node {
  name: "densenet121/dense_block4/conv_block14/x1/BatchNorm/beta"
  op: "VariableV2"
  attr {
    key: "_class"
    value {
      list {
        s: "loc:@densenet121/dense_block4/conv_block14/x1/BatchNorm/beta"
      }
    }
  }
  attr {
    key: "container"
    value {
      s: ""
    }
  }
  attr {
    key: "dtype"
    value {
      type: DT_FLOAT
    }
  }
  attr {
    key: "shape"
    value {
      shape {
        dim {
          size: 928
        }
      }
    }
  }
  attr {
    key: "shared_name"
    value {
      s: ""
    }
  }
}
node {
  name: "densenet121/dense_block4/conv_block14/x1/BatchNorm/moving_mean"
  op: "VariableV2"
  attr {
    key: "_class"
    value {
      list {
        s: "loc:@densenet121/dense_block4/conv_block14/x1/BatchNorm/moving_mean"
      }
    }
  }
  attr {
    key: "container"
    value {
      s: ""
    }
  }
  attr {
    key: "dtype"
    value {
      type: DT_FLOAT
    }
  }
  attr {
    key: "shape"
    value {
      shape {
        dim {
          size: 928
        }
      }
    }
  }
  attr {
    key: "shared_name"
    value {
      s: ""
    }
  }
}
node {
  name: "densenet121/dense_block4/conv_block14/x1/BatchNorm/moving_variance"
  op: "VariableV2"
  attr {
    key: "_class"
    value {
      list {
        s: "loc:@densenet121/dense_block4/conv_block14/x1/BatchNorm/moving_variance"
      }
    }
  }
  attr {
    key: "container"
    value {
      s: ""
    }
  }
  attr {
    key: "dtype"
    value {
      type: DT_FLOAT
    }
  }
  attr {
    key: "shape"
    value {
      shape {
        dim {
          size: 928
        }
      }
    }
  }
  attr {
    key: "shared_name"
    value {
      s: ""
    }
  }
}
node {
  name: "densenet121/dense_block4/conv_block14/x1/BatchNorm/FusedBatchNorm"
  op: "FusedBatchNorm"
  input: "densenet121/dense_block4/conv_block13/concat"
  input: "densenet121/dense_block4/conv_block14/x1/BatchNorm/gamma"
  input: "densenet121/dense_block4/conv_block14/x1/BatchNorm/beta"
  input: "densenet121/dense_block4/conv_block14/x1/BatchNorm/moving_mean"
  input: "densenet121/dense_block4/conv_block14/x1/BatchNorm/moving_variance"
  attr {
    key: "T"
    value {
      type: DT_FLOAT
    }
  }
  attr {
    key: "data_format"
    value {
      s: "NHWC"
    }
  }
  attr {
    key: "epsilon"
    value {
      f: 1.1000000085914508e-05
    }
  }
  attr {
    key: "is_training"
    value {
      b: false
    }
  }
}
node {
  name: "densenet121/dense_block4/conv_block14/x1/Relu"
  op: "Relu"
  input: "densenet121/dense_block4/conv_block14/x1/BatchNorm/FusedBatchNorm"
  attr {
    key: "T"
    value {
      type: DT_FLOAT
    }
  }
}
node {
  name: "densenet121/dense_block4/conv_block14/x1/Conv/weights"
  op: "VariableV2"
  attr {
    key: "_class"
    value {
      list {
        s: "loc:@densenet121/dense_block4/conv_block14/x1/Conv/weights"
      }
    }
  }
  attr {
    key: "container"
    value {
      s: ""
    }
  }
  attr {
    key: "dtype"
    value {
      type: DT_FLOAT
    }
  }
  attr {
    key: "shape"
    value {
      shape {
        dim {
          size: 1
        }
        dim {
          size: 1
        }
        dim {
          size: 928
        }
        dim {
          size: 128
        }
      }
    }
  }
  attr {
    key: "shared_name"
    value {
      s: ""
    }
  }
}
node {
  name: "densenet121/dense_block4/conv_block14/x1/Conv/Conv2D"
  op: "Conv2D"
  input: "densenet121/dense_block4/conv_block14/x1/Relu"
  input: "densenet121/dense_block4/conv_block14/x1/Conv/weights"
  attr {
    key: "T"
    value {
      type: DT_FLOAT
    }
  }
  attr {
    key: "data_format"
    value {
      s: "NHWC"
    }
  }
  attr {
    key: "dilations"
    value {
      list {
        i: 1
        i: 1
        i: 1
        i: 1
      }
    }
  }
  attr {
    key: "explicit_paddings"
    value {
      list {
      }
    }
  }
  attr {
    key: "padding"
    value {
      s: "SAME"
    }
  }
  attr {
    key: "strides"
    value {
      list {
        i: 1
        i: 1
        i: 1
        i: 1
      }
    }
  }
  attr {
    key: "use_cudnn_on_gpu"
    value {
      b: true
    }
  }
}
node {
  name: "densenet121/dense_block4/conv_block14/x2/BatchNorm/gamma"
  op: "VariableV2"
  attr {
    key: "_class"
    value {
      list {
        s: "loc:@densenet121/dense_block4/conv_block14/x2/BatchNorm/gamma"
      }
    }
  }
  attr {
    key: "container"
    value {
      s: ""
    }
  }
  attr {
    key: "dtype"
    value {
      type: DT_FLOAT
    }
  }
  attr {
    key: "shape"
    value {
      shape {
        dim {
          size: 128
        }
      }
    }
  }
  attr {
    key: "shared_name"
    value {
      s: ""
    }
  }
}
node {
  name: "densenet121/dense_block4/conv_block14/x2/BatchNorm/beta"
  op: "VariableV2"
  attr {
    key: "_class"
    value {
      list {
        s: "loc:@densenet121/dense_block4/conv_block14/x2/BatchNorm/beta"
      }
    }
  }
  attr {
    key: "container"
    value {
      s: ""
    }
  }
  attr {
    key: "dtype"
    value {
      type: DT_FLOAT
    }
  }
  attr {
    key: "shape"
    value {
      shape {
        dim {
          size: 128
        }
      }
    }
  }
  attr {
    key: "shared_name"
    value {
      s: ""
    }
  }
}
node {
  name: "densenet121/dense_block4/conv_block14/x2/BatchNorm/moving_mean"
  op: "VariableV2"
  attr {
    key: "_class"
    value {
      list {
        s: "loc:@densenet121/dense_block4/conv_block14/x2/BatchNorm/moving_mean"
      }
    }
  }
  attr {
    key: "container"
    value {
      s: ""
    }
  }
  attr {
    key: "dtype"
    value {
      type: DT_FLOAT
    }
  }
  attr {
    key: "shape"
    value {
      shape {
        dim {
          size: 128
        }
      }
    }
  }
  attr {
    key: "shared_name"
    value {
      s: ""
    }
  }
}
node {
  name: "densenet121/dense_block4/conv_block14/x2/BatchNorm/moving_variance"
  op: "VariableV2"
  attr {
    key: "_class"
    value {
      list {
        s: "loc:@densenet121/dense_block4/conv_block14/x2/BatchNorm/moving_variance"
      }
    }
  }
  attr {
    key: "container"
    value {
      s: ""
    }
  }
  attr {
    key: "dtype"
    value {
      type: DT_FLOAT
    }
  }
  attr {
    key: "shape"
    value {
      shape {
        dim {
          size: 128
        }
      }
    }
  }
  attr {
    key: "shared_name"
    value {
      s: ""
    }
  }
}
node {
  name: "densenet121/dense_block4/conv_block14/x2/BatchNorm/FusedBatchNorm"
  op: "FusedBatchNorm"
  input: "densenet121/dense_block4/conv_block14/x1/Conv/Conv2D"
  input: "densenet121/dense_block4/conv_block14/x2/BatchNorm/gamma"
  input: "densenet121/dense_block4/conv_block14/x2/BatchNorm/beta"
  input: "densenet121/dense_block4/conv_block14/x2/BatchNorm/moving_mean"
  input: "densenet121/dense_block4/conv_block14/x2/BatchNorm/moving_variance"
  attr {
    key: "T"
    value {
      type: DT_FLOAT
    }
  }
  attr {
    key: "data_format"
    value {
      s: "NHWC"
    }
  }
  attr {
    key: "epsilon"
    value {
      f: 1.1000000085914508e-05
    }
  }
  attr {
    key: "is_training"
    value {
      b: false
    }
  }
}
node {
  name: "densenet121/dense_block4/conv_block14/x2/Relu"
  op: "Relu"
  input: "densenet121/dense_block4/conv_block14/x2/BatchNorm/FusedBatchNorm"
  attr {
    key: "T"
    value {
      type: DT_FLOAT
    }
  }
}
node {
  name: "densenet121/dense_block4/conv_block14/x2/Conv/weights"
  op: "VariableV2"
  attr {
    key: "_class"
    value {
      list {
        s: "loc:@densenet121/dense_block4/conv_block14/x2/Conv/weights"
      }
    }
  }
  attr {
    key: "container"
    value {
      s: ""
    }
  }
  attr {
    key: "dtype"
    value {
      type: DT_FLOAT
    }
  }
  attr {
    key: "shape"
    value {
      shape {
        dim {
          size: 3
        }
        dim {
          size: 3
        }
        dim {
          size: 128
        }
        dim {
          size: 32
        }
      }
    }
  }
  attr {
    key: "shared_name"
    value {
      s: ""
    }
  }
}
node {
  name: "densenet121/dense_block4/conv_block14/x2/Conv/Conv2D"
  op: "Conv2D"
  input: "densenet121/dense_block4/conv_block14/x2/Relu"
  input: "densenet121/dense_block4/conv_block14/x2/Conv/weights"
  attr {
    key: "T"
    value {
      type: DT_FLOAT
    }
  }
  attr {
    key: "data_format"
    value {
      s: "NHWC"
    }
  }
  attr {
    key: "dilations"
    value {
      list {
        i: 1
        i: 1
        i: 1
        i: 1
      }
    }
  }
  attr {
    key: "explicit_paddings"
    value {
      list {
      }
    }
  }
  attr {
    key: "padding"
    value {
      s: "SAME"
    }
  }
  attr {
    key: "strides"
    value {
      list {
        i: 1
        i: 1
        i: 1
        i: 1
      }
    }
  }
  attr {
    key: "use_cudnn_on_gpu"
    value {
      b: true
    }
  }
}
node {
  name: "densenet121/dense_block4/conv_block14/concat/axis"
  op: "Const"
  attr {
    key: "dtype"
    value {
      type: DT_INT32
    }
  }
  attr {
    key: "value"
    value {
      tensor {
        dtype: DT_INT32
        tensor_shape {
        }
        int_val: 3
      }
    }
  }
}
node {
  name: "densenet121/dense_block4/conv_block14/concat"
  op: "ConcatV2"
  input: "densenet121/dense_block4/conv_block13/concat"
  input: "densenet121/dense_block4/conv_block14/x2/Conv/Conv2D"
  input: "densenet121/dense_block4/conv_block14/concat/axis"
  attr {
    key: "N"
    value {
      i: 2
    }
  }
  attr {
    key: "T"
    value {
      type: DT_FLOAT
    }
  }
  attr {
    key: "Tidx"
    value {
      type: DT_INT32
    }
  }
}
node {
  name: "densenet121/dense_block4/conv_block15/x1/BatchNorm/gamma"
  op: "VariableV2"
  attr {
    key: "_class"
    value {
      list {
        s: "loc:@densenet121/dense_block4/conv_block15/x1/BatchNorm/gamma"
      }
    }
  }
  attr {
    key: "container"
    value {
      s: ""
    }
  }
  attr {
    key: "dtype"
    value {
      type: DT_FLOAT
    }
  }
  attr {
    key: "shape"
    value {
      shape {
        dim {
          size: 960
        }
      }
    }
  }
  attr {
    key: "shared_name"
    value {
      s: ""
    }
  }
}
node {
  name: "densenet121/dense_block4/conv_block15/x1/BatchNorm/beta"
  op: "VariableV2"
  attr {
    key: "_class"
    value {
      list {
        s: "loc:@densenet121/dense_block4/conv_block15/x1/BatchNorm/beta"
      }
    }
  }
  attr {
    key: "container"
    value {
      s: ""
    }
  }
  attr {
    key: "dtype"
    value {
      type: DT_FLOAT
    }
  }
  attr {
    key: "shape"
    value {
      shape {
        dim {
          size: 960
        }
      }
    }
  }
  attr {
    key: "shared_name"
    value {
      s: ""
    }
  }
}
node {
  name: "densenet121/dense_block4/conv_block15/x1/BatchNorm/moving_mean"
  op: "VariableV2"
  attr {
    key: "_class"
    value {
      list {
        s: "loc:@densenet121/dense_block4/conv_block15/x1/BatchNorm/moving_mean"
      }
    }
  }
  attr {
    key: "container"
    value {
      s: ""
    }
  }
  attr {
    key: "dtype"
    value {
      type: DT_FLOAT
    }
  }
  attr {
    key: "shape"
    value {
      shape {
        dim {
          size: 960
        }
      }
    }
  }
  attr {
    key: "shared_name"
    value {
      s: ""
    }
  }
}
node {
  name: "densenet121/dense_block4/conv_block15/x1/BatchNorm/moving_variance"
  op: "VariableV2"
  attr {
    key: "_class"
    value {
      list {
        s: "loc:@densenet121/dense_block4/conv_block15/x1/BatchNorm/moving_variance"
      }
    }
  }
  attr {
    key: "container"
    value {
      s: ""
    }
  }
  attr {
    key: "dtype"
    value {
      type: DT_FLOAT
    }
  }
  attr {
    key: "shape"
    value {
      shape {
        dim {
          size: 960
        }
      }
    }
  }
  attr {
    key: "shared_name"
    value {
      s: ""
    }
  }
}
node {
  name: "densenet121/dense_block4/conv_block15/x1/BatchNorm/FusedBatchNorm"
  op: "FusedBatchNorm"
  input: "densenet121/dense_block4/conv_block14/concat"
  input: "densenet121/dense_block4/conv_block15/x1/BatchNorm/gamma"
  input: "densenet121/dense_block4/conv_block15/x1/BatchNorm/beta"
  input: "densenet121/dense_block4/conv_block15/x1/BatchNorm/moving_mean"
  input: "densenet121/dense_block4/conv_block15/x1/BatchNorm/moving_variance"
  attr {
    key: "T"
    value {
      type: DT_FLOAT
    }
  }
  attr {
    key: "data_format"
    value {
      s: "NHWC"
    }
  }
  attr {
    key: "epsilon"
    value {
      f: 1.1000000085914508e-05
    }
  }
  attr {
    key: "is_training"
    value {
      b: false
    }
  }
}
node {
  name: "densenet121/dense_block4/conv_block15/x1/Relu"
  op: "Relu"
  input: "densenet121/dense_block4/conv_block15/x1/BatchNorm/FusedBatchNorm"
  attr {
    key: "T"
    value {
      type: DT_FLOAT
    }
  }
}
node {
  name: "densenet121/dense_block4/conv_block15/x1/Conv/weights"
  op: "VariableV2"
  attr {
    key: "_class"
    value {
      list {
        s: "loc:@densenet121/dense_block4/conv_block15/x1/Conv/weights"
      }
    }
  }
  attr {
    key: "container"
    value {
      s: ""
    }
  }
  attr {
    key: "dtype"
    value {
      type: DT_FLOAT
    }
  }
  attr {
    key: "shape"
    value {
      shape {
        dim {
          size: 1
        }
        dim {
          size: 1
        }
        dim {
          size: 960
        }
        dim {
          size: 128
        }
      }
    }
  }
  attr {
    key: "shared_name"
    value {
      s: ""
    }
  }
}
node {
  name: "densenet121/dense_block4/conv_block15/x1/Conv/Conv2D"
  op: "Conv2D"
  input: "densenet121/dense_block4/conv_block15/x1/Relu"
  input: "densenet121/dense_block4/conv_block15/x1/Conv/weights"
  attr {
    key: "T"
    value {
      type: DT_FLOAT
    }
  }
  attr {
    key: "data_format"
    value {
      s: "NHWC"
    }
  }
  attr {
    key: "dilations"
    value {
      list {
        i: 1
        i: 1
        i: 1
        i: 1
      }
    }
  }
  attr {
    key: "explicit_paddings"
    value {
      list {
      }
    }
  }
  attr {
    key: "padding"
    value {
      s: "SAME"
    }
  }
  attr {
    key: "strides"
    value {
      list {
        i: 1
        i: 1
        i: 1
        i: 1
      }
    }
  }
  attr {
    key: "use_cudnn_on_gpu"
    value {
      b: true
    }
  }
}
node {
  name: "densenet121/dense_block4/conv_block15/x2/BatchNorm/gamma"
  op: "VariableV2"
  attr {
    key: "_class"
    value {
      list {
        s: "loc:@densenet121/dense_block4/conv_block15/x2/BatchNorm/gamma"
      }
    }
  }
  attr {
    key: "container"
    value {
      s: ""
    }
  }
  attr {
    key: "dtype"
    value {
      type: DT_FLOAT
    }
  }
  attr {
    key: "shape"
    value {
      shape {
        dim {
          size: 128
        }
      }
    }
  }
  attr {
    key: "shared_name"
    value {
      s: ""
    }
  }
}
node {
  name: "densenet121/dense_block4/conv_block15/x2/BatchNorm/beta"
  op: "VariableV2"
  attr {
    key: "_class"
    value {
      list {
        s: "loc:@densenet121/dense_block4/conv_block15/x2/BatchNorm/beta"
      }
    }
  }
  attr {
    key: "container"
    value {
      s: ""
    }
  }
  attr {
    key: "dtype"
    value {
      type: DT_FLOAT
    }
  }
  attr {
    key: "shape"
    value {
      shape {
        dim {
          size: 128
        }
      }
    }
  }
  attr {
    key: "shared_name"
    value {
      s: ""
    }
  }
}
node {
  name: "densenet121/dense_block4/conv_block15/x2/BatchNorm/moving_mean"
  op: "VariableV2"
  attr {
    key: "_class"
    value {
      list {
        s: "loc:@densenet121/dense_block4/conv_block15/x2/BatchNorm/moving_mean"
      }
    }
  }
  attr {
    key: "container"
    value {
      s: ""
    }
  }
  attr {
    key: "dtype"
    value {
      type: DT_FLOAT
    }
  }
  attr {
    key: "shape"
    value {
      shape {
        dim {
          size: 128
        }
      }
    }
  }
  attr {
    key: "shared_name"
    value {
      s: ""
    }
  }
}
node {
  name: "densenet121/dense_block4/conv_block15/x2/BatchNorm/moving_variance"
  op: "VariableV2"
  attr {
    key: "_class"
    value {
      list {
        s: "loc:@densenet121/dense_block4/conv_block15/x2/BatchNorm/moving_variance"
      }
    }
  }
  attr {
    key: "container"
    value {
      s: ""
    }
  }
  attr {
    key: "dtype"
    value {
      type: DT_FLOAT
    }
  }
  attr {
    key: "shape"
    value {
      shape {
        dim {
          size: 128
        }
      }
    }
  }
  attr {
    key: "shared_name"
    value {
      s: ""
    }
  }
}
node {
  name: "densenet121/dense_block4/conv_block15/x2/BatchNorm/FusedBatchNorm"
  op: "FusedBatchNorm"
  input: "densenet121/dense_block4/conv_block15/x1/Conv/Conv2D"
  input: "densenet121/dense_block4/conv_block15/x2/BatchNorm/gamma"
  input: "densenet121/dense_block4/conv_block15/x2/BatchNorm/beta"
  input: "densenet121/dense_block4/conv_block15/x2/BatchNorm/moving_mean"
  input: "densenet121/dense_block4/conv_block15/x2/BatchNorm/moving_variance"
  attr {
    key: "T"
    value {
      type: DT_FLOAT
    }
  }
  attr {
    key: "data_format"
    value {
      s: "NHWC"
    }
  }
  attr {
    key: "epsilon"
    value {
      f: 1.1000000085914508e-05
    }
  }
  attr {
    key: "is_training"
    value {
      b: false
    }
  }
}
node {
  name: "densenet121/dense_block4/conv_block15/x2/Relu"
  op: "Relu"
  input: "densenet121/dense_block4/conv_block15/x2/BatchNorm/FusedBatchNorm"
  attr {
    key: "T"
    value {
      type: DT_FLOAT
    }
  }
}
node {
  name: "densenet121/dense_block4/conv_block15/x2/Conv/weights"
  op: "VariableV2"
  attr {
    key: "_class"
    value {
      list {
        s: "loc:@densenet121/dense_block4/conv_block15/x2/Conv/weights"
      }
    }
  }
  attr {
    key: "container"
    value {
      s: ""
    }
  }
  attr {
    key: "dtype"
    value {
      type: DT_FLOAT
    }
  }
  attr {
    key: "shape"
    value {
      shape {
        dim {
          size: 3
        }
        dim {
          size: 3
        }
        dim {
          size: 128
        }
        dim {
          size: 32
        }
      }
    }
  }
  attr {
    key: "shared_name"
    value {
      s: ""
    }
  }
}
node {
  name: "densenet121/dense_block4/conv_block15/x2/Conv/Conv2D"
  op: "Conv2D"
  input: "densenet121/dense_block4/conv_block15/x2/Relu"
  input: "densenet121/dense_block4/conv_block15/x2/Conv/weights"
  attr {
    key: "T"
    value {
      type: DT_FLOAT
    }
  }
  attr {
    key: "data_format"
    value {
      s: "NHWC"
    }
  }
  attr {
    key: "dilations"
    value {
      list {
        i: 1
        i: 1
        i: 1
        i: 1
      }
    }
  }
  attr {
    key: "explicit_paddings"
    value {
      list {
      }
    }
  }
  attr {
    key: "padding"
    value {
      s: "SAME"
    }
  }
  attr {
    key: "strides"
    value {
      list {
        i: 1
        i: 1
        i: 1
        i: 1
      }
    }
  }
  attr {
    key: "use_cudnn_on_gpu"
    value {
      b: true
    }
  }
}
node {
  name: "densenet121/dense_block4/conv_block15/concat/axis"
  op: "Const"
  attr {
    key: "dtype"
    value {
      type: DT_INT32
    }
  }
  attr {
    key: "value"
    value {
      tensor {
        dtype: DT_INT32
        tensor_shape {
        }
        int_val: 3
      }
    }
  }
}
node {
  name: "densenet121/dense_block4/conv_block15/concat"
  op: "ConcatV2"
  input: "densenet121/dense_block4/conv_block14/concat"
  input: "densenet121/dense_block4/conv_block15/x2/Conv/Conv2D"
  input: "densenet121/dense_block4/conv_block15/concat/axis"
  attr {
    key: "N"
    value {
      i: 2
    }
  }
  attr {
    key: "T"
    value {
      type: DT_FLOAT
    }
  }
  attr {
    key: "Tidx"
    value {
      type: DT_INT32
    }
  }
}
node {
  name: "densenet121/dense_block4/conv_block16/x1/BatchNorm/gamma"
  op: "VariableV2"
  attr {
    key: "_class"
    value {
      list {
        s: "loc:@densenet121/dense_block4/conv_block16/x1/BatchNorm/gamma"
      }
    }
  }
  attr {
    key: "container"
    value {
      s: ""
    }
  }
  attr {
    key: "dtype"
    value {
      type: DT_FLOAT
    }
  }
  attr {
    key: "shape"
    value {
      shape {
        dim {
          size: 992
        }
      }
    }
  }
  attr {
    key: "shared_name"
    value {
      s: ""
    }
  }
}
node {
  name: "densenet121/dense_block4/conv_block16/x1/BatchNorm/beta"
  op: "VariableV2"
  attr {
    key: "_class"
    value {
      list {
        s: "loc:@densenet121/dense_block4/conv_block16/x1/BatchNorm/beta"
      }
    }
  }
  attr {
    key: "container"
    value {
      s: ""
    }
  }
  attr {
    key: "dtype"
    value {
      type: DT_FLOAT
    }
  }
  attr {
    key: "shape"
    value {
      shape {
        dim {
          size: 992
        }
      }
    }
  }
  attr {
    key: "shared_name"
    value {
      s: ""
    }
  }
}
node {
  name: "densenet121/dense_block4/conv_block16/x1/BatchNorm/moving_mean"
  op: "VariableV2"
  attr {
    key: "_class"
    value {
      list {
        s: "loc:@densenet121/dense_block4/conv_block16/x1/BatchNorm/moving_mean"
      }
    }
  }
  attr {
    key: "container"
    value {
      s: ""
    }
  }
  attr {
    key: "dtype"
    value {
      type: DT_FLOAT
    }
  }
  attr {
    key: "shape"
    value {
      shape {
        dim {
          size: 992
        }
      }
    }
  }
  attr {
    key: "shared_name"
    value {
      s: ""
    }
  }
}
node {
  name: "densenet121/dense_block4/conv_block16/x1/BatchNorm/moving_variance"
  op: "VariableV2"
  attr {
    key: "_class"
    value {
      list {
        s: "loc:@densenet121/dense_block4/conv_block16/x1/BatchNorm/moving_variance"
      }
    }
  }
  attr {
    key: "container"
    value {
      s: ""
    }
  }
  attr {
    key: "dtype"
    value {
      type: DT_FLOAT
    }
  }
  attr {
    key: "shape"
    value {
      shape {
        dim {
          size: 992
        }
      }
    }
  }
  attr {
    key: "shared_name"
    value {
      s: ""
    }
  }
}
node {
  name: "densenet121/dense_block4/conv_block16/x1/BatchNorm/FusedBatchNorm"
  op: "FusedBatchNorm"
  input: "densenet121/dense_block4/conv_block15/concat"
  input: "densenet121/dense_block4/conv_block16/x1/BatchNorm/gamma"
  input: "densenet121/dense_block4/conv_block16/x1/BatchNorm/beta"
  input: "densenet121/dense_block4/conv_block16/x1/BatchNorm/moving_mean"
  input: "densenet121/dense_block4/conv_block16/x1/BatchNorm/moving_variance"
  attr {
    key: "T"
    value {
      type: DT_FLOAT
    }
  }
  attr {
    key: "data_format"
    value {
      s: "NHWC"
    }
  }
  attr {
    key: "epsilon"
    value {
      f: 1.1000000085914508e-05
    }
  }
  attr {
    key: "is_training"
    value {
      b: false
    }
  }
}
node {
  name: "densenet121/dense_block4/conv_block16/x1/Relu"
  op: "Relu"
  input: "densenet121/dense_block4/conv_block16/x1/BatchNorm/FusedBatchNorm"
  attr {
    key: "T"
    value {
      type: DT_FLOAT
    }
  }
}
node {
  name: "densenet121/dense_block4/conv_block16/x1/Conv/weights"
  op: "VariableV2"
  attr {
    key: "_class"
    value {
      list {
        s: "loc:@densenet121/dense_block4/conv_block16/x1/Conv/weights"
      }
    }
  }
  attr {
    key: "container"
    value {
      s: ""
    }
  }
  attr {
    key: "dtype"
    value {
      type: DT_FLOAT
    }
  }
  attr {
    key: "shape"
    value {
      shape {
        dim {
          size: 1
        }
        dim {
          size: 1
        }
        dim {
          size: 992
        }
        dim {
          size: 128
        }
      }
    }
  }
  attr {
    key: "shared_name"
    value {
      s: ""
    }
  }
}
node {
  name: "densenet121/dense_block4/conv_block16/x1/Conv/Conv2D"
  op: "Conv2D"
  input: "densenet121/dense_block4/conv_block16/x1/Relu"
  input: "densenet121/dense_block4/conv_block16/x1/Conv/weights"
  attr {
    key: "T"
    value {
      type: DT_FLOAT
    }
  }
  attr {
    key: "data_format"
    value {
      s: "NHWC"
    }
  }
  attr {
    key: "dilations"
    value {
      list {
        i: 1
        i: 1
        i: 1
        i: 1
      }
    }
  }
  attr {
    key: "explicit_paddings"
    value {
      list {
      }
    }
  }
  attr {
    key: "padding"
    value {
      s: "SAME"
    }
  }
  attr {
    key: "strides"
    value {
      list {
        i: 1
        i: 1
        i: 1
        i: 1
      }
    }
  }
  attr {
    key: "use_cudnn_on_gpu"
    value {
      b: true
    }
  }
}
node {
  name: "densenet121/dense_block4/conv_block16/x2/BatchNorm/gamma"
  op: "VariableV2"
  attr {
    key: "_class"
    value {
      list {
        s: "loc:@densenet121/dense_block4/conv_block16/x2/BatchNorm/gamma"
      }
    }
  }
  attr {
    key: "container"
    value {
      s: ""
    }
  }
  attr {
    key: "dtype"
    value {
      type: DT_FLOAT
    }
  }
  attr {
    key: "shape"
    value {
      shape {
        dim {
          size: 128
        }
      }
    }
  }
  attr {
    key: "shared_name"
    value {
      s: ""
    }
  }
}
node {
  name: "densenet121/dense_block4/conv_block16/x2/BatchNorm/beta"
  op: "VariableV2"
  attr {
    key: "_class"
    value {
      list {
        s: "loc:@densenet121/dense_block4/conv_block16/x2/BatchNorm/beta"
      }
    }
  }
  attr {
    key: "container"
    value {
      s: ""
    }
  }
  attr {
    key: "dtype"
    value {
      type: DT_FLOAT
    }
  }
  attr {
    key: "shape"
    value {
      shape {
        dim {
          size: 128
        }
      }
    }
  }
  attr {
    key: "shared_name"
    value {
      s: ""
    }
  }
}
node {
  name: "densenet121/dense_block4/conv_block16/x2/BatchNorm/moving_mean"
  op: "VariableV2"
  attr {
    key: "_class"
    value {
      list {
        s: "loc:@densenet121/dense_block4/conv_block16/x2/BatchNorm/moving_mean"
      }
    }
  }
  attr {
    key: "container"
    value {
      s: ""
    }
  }
  attr {
    key: "dtype"
    value {
      type: DT_FLOAT
    }
  }
  attr {
    key: "shape"
    value {
      shape {
        dim {
          size: 128
        }
      }
    }
  }
  attr {
    key: "shared_name"
    value {
      s: ""
    }
  }
}
node {
  name: "densenet121/dense_block4/conv_block16/x2/BatchNorm/moving_variance"
  op: "VariableV2"
  attr {
    key: "_class"
    value {
      list {
        s: "loc:@densenet121/dense_block4/conv_block16/x2/BatchNorm/moving_variance"
      }
    }
  }
  attr {
    key: "container"
    value {
      s: ""
    }
  }
  attr {
    key: "dtype"
    value {
      type: DT_FLOAT
    }
  }
  attr {
    key: "shape"
    value {
      shape {
        dim {
          size: 128
        }
      }
    }
  }
  attr {
    key: "shared_name"
    value {
      s: ""
    }
  }
}
node {
  name: "densenet121/dense_block4/conv_block16/x2/BatchNorm/FusedBatchNorm"
  op: "FusedBatchNorm"
  input: "densenet121/dense_block4/conv_block16/x1/Conv/Conv2D"
  input: "densenet121/dense_block4/conv_block16/x2/BatchNorm/gamma"
  input: "densenet121/dense_block4/conv_block16/x2/BatchNorm/beta"
  input: "densenet121/dense_block4/conv_block16/x2/BatchNorm/moving_mean"
  input: "densenet121/dense_block4/conv_block16/x2/BatchNorm/moving_variance"
  attr {
    key: "T"
    value {
      type: DT_FLOAT
    }
  }
  attr {
    key: "data_format"
    value {
      s: "NHWC"
    }
  }
  attr {
    key: "epsilon"
    value {
      f: 1.1000000085914508e-05
    }
  }
  attr {
    key: "is_training"
    value {
      b: false
    }
  }
}
node {
  name: "densenet121/dense_block4/conv_block16/x2/Relu"
  op: "Relu"
  input: "densenet121/dense_block4/conv_block16/x2/BatchNorm/FusedBatchNorm"
  attr {
    key: "T"
    value {
      type: DT_FLOAT
    }
  }
}
node {
  name: "densenet121/dense_block4/conv_block16/x2/Conv/weights"
  op: "VariableV2"
  attr {
    key: "_class"
    value {
      list {
        s: "loc:@densenet121/dense_block4/conv_block16/x2/Conv/weights"
      }
    }
  }
  attr {
    key: "container"
    value {
      s: ""
    }
  }
  attr {
    key: "dtype"
    value {
      type: DT_FLOAT
    }
  }
  attr {
    key: "shape"
    value {
      shape {
        dim {
          size: 3
        }
        dim {
          size: 3
        }
        dim {
          size: 128
        }
        dim {
          size: 32
        }
      }
    }
  }
  attr {
    key: "shared_name"
    value {
      s: ""
    }
  }
}
node {
  name: "densenet121/dense_block4/conv_block16/x2/Conv/Conv2D"
  op: "Conv2D"
  input: "densenet121/dense_block4/conv_block16/x2/Relu"
  input: "densenet121/dense_block4/conv_block16/x2/Conv/weights"
  attr {
    key: "T"
    value {
      type: DT_FLOAT
    }
  }
  attr {
    key: "data_format"
    value {
      s: "NHWC"
    }
  }
  attr {
    key: "dilations"
    value {
      list {
        i: 1
        i: 1
        i: 1
        i: 1
      }
    }
  }
  attr {
    key: "explicit_paddings"
    value {
      list {
      }
    }
  }
  attr {
    key: "padding"
    value {
      s: "SAME"
    }
  }
  attr {
    key: "strides"
    value {
      list {
        i: 1
        i: 1
        i: 1
        i: 1
      }
    }
  }
  attr {
    key: "use_cudnn_on_gpu"
    value {
      b: true
    }
  }
}
node {
  name: "densenet121/dense_block4/conv_block16/concat/axis"
  op: "Const"
  attr {
    key: "dtype"
    value {
      type: DT_INT32
    }
  }
  attr {
    key: "value"
    value {
      tensor {
        dtype: DT_INT32
        tensor_shape {
        }
        int_val: 3
      }
    }
  }
}
node {
  name: "densenet121/dense_block4/conv_block16/concat"
  op: "ConcatV2"
  input: "densenet121/dense_block4/conv_block15/concat"
  input: "densenet121/dense_block4/conv_block16/x2/Conv/Conv2D"
  input: "densenet121/dense_block4/conv_block16/concat/axis"
  attr {
    key: "N"
    value {
      i: 2
    }
  }
  attr {
    key: "T"
    value {
      type: DT_FLOAT
    }
  }
  attr {
    key: "Tidx"
    value {
      type: DT_INT32
    }
  }
}
node {
  name: "densenet121/final_block/BatchNorm/gamma"
  op: "VariableV2"
  attr {
    key: "_class"
    value {
      list {
        s: "loc:@densenet121/final_block/BatchNorm/gamma"
      }
    }
  }
  attr {
    key: "container"
    value {
      s: ""
    }
  }
  attr {
    key: "dtype"
    value {
      type: DT_FLOAT
    }
  }
  attr {
    key: "shape"
    value {
      shape {
        dim {
          size: 1024
        }
      }
    }
  }
  attr {
    key: "shared_name"
    value {
      s: ""
    }
  }
}
node {
  name: "densenet121/final_block/BatchNorm/beta"
  op: "VariableV2"
  attr {
    key: "_class"
    value {
      list {
        s: "loc:@densenet121/final_block/BatchNorm/beta"
      }
    }
  }
  attr {
    key: "container"
    value {
      s: ""
    }
  }
  attr {
    key: "dtype"
    value {
      type: DT_FLOAT
    }
  }
  attr {
    key: "shape"
    value {
      shape {
        dim {
          size: 1024
        }
      }
    }
  }
  attr {
    key: "shared_name"
    value {
      s: ""
    }
  }
}
node {
  name: "densenet121/final_block/BatchNorm/moving_mean"
  op: "VariableV2"
  attr {
    key: "_class"
    value {
      list {
        s: "loc:@densenet121/final_block/BatchNorm/moving_mean"
      }
    }
  }
  attr {
    key: "container"
    value {
      s: ""
    }
  }
  attr {
    key: "dtype"
    value {
      type: DT_FLOAT
    }
  }
  attr {
    key: "shape"
    value {
      shape {
        dim {
          size: 1024
        }
      }
    }
  }
  attr {
    key: "shared_name"
    value {
      s: ""
    }
  }
}
node {
  name: "densenet121/final_block/BatchNorm/moving_variance"
  op: "VariableV2"
  attr {
    key: "_class"
    value {
      list {
        s: "loc:@densenet121/final_block/BatchNorm/moving_variance"
      }
    }
  }
  attr {
    key: "container"
    value {
      s: ""
    }
  }
  attr {
    key: "dtype"
    value {
      type: DT_FLOAT
    }
  }
  attr {
    key: "shape"
    value {
      shape {
        dim {
          size: 1024
        }
      }
    }
  }
  attr {
    key: "shared_name"
    value {
      s: ""
    }
  }
}
node {
  name: "densenet121/final_block/BatchNorm/FusedBatchNorm"
  op: "FusedBatchNorm"
  input: "densenet121/dense_block4/conv_block16/concat"
  input: "densenet121/final_block/BatchNorm/gamma"
  input: "densenet121/final_block/BatchNorm/beta"
  input: "densenet121/final_block/BatchNorm/moving_mean"
  input: "densenet121/final_block/BatchNorm/moving_variance"
  attr {
    key: "T"
    value {
      type: DT_FLOAT
    }
  }
  attr {
    key: "data_format"
    value {
      s: "NHWC"
    }
  }
  attr {
    key: "epsilon"
    value {
      f: 1.1000000085914508e-05
    }
  }
  attr {
    key: "is_training"
    value {
      b: false
    }
  }
}
node {
  name: "densenet121/final_block/Relu"
  op: "Relu"
  input: "densenet121/final_block/BatchNorm/FusedBatchNorm"
  attr {
    key: "T"
    value {
      type: DT_FLOAT
    }
  }
}
node {
  name: "densenet121/final_block/global_avg_pool/AvgPool"
  op: "AvgPool"
  input: "densenet121/final_block/Relu"
  attr {
    key: "T"
    value {
      type: DT_FLOAT
    }
  }
  attr {
    key: "data_format"
    value {
      s: "NHWC"
    }
  }
  attr {
    key: "ksize"
    value {
      list {
        i: 1
        i: 7
        i: 7
        i: 1
      }
    }
  }
  attr {
    key: "padding"
    value {
      s: "VALID"
    }
  }
  attr {
    key: "strides"
    value {
      list {
        i: 1
        i: 1
        i: 1
        i: 1
      }
    }
  }
}
node {
  name: "densenet121/logits/weights"
  op: "VariableV2"
  attr {
    key: "_class"
    value {
      list {
        s: "loc:@densenet121/logits/weights"
      }
    }
  }
  attr {
    key: "container"
    value {
      s: ""
    }
  }
  attr {
    key: "dtype"
    value {
      type: DT_FLOAT
    }
  }
  attr {
    key: "shape"
    value {
      shape {
        dim {
          size: 1
        }
        dim {
          size: 1
        }
        dim {
          size: 1024
        }
        dim {
          size: 1000
        }
      }
    }
  }
  attr {
    key: "shared_name"
    value {
      s: ""
    }
  }
}
node {
  name: "densenet121/logits/biases"
  op: "VariableV2"
  attr {
    key: "_class"
    value {
      list {
        s: "loc:@densenet121/logits/biases"
      }
    }
  }
  attr {
    key: "container"
    value {
      s: ""
    }
  }
  attr {
    key: "dtype"
    value {
      type: DT_FLOAT
    }
  }
  attr {
    key: "shape"
    value {
      shape {
        dim {
          size: 1000
        }
      }
    }
  }
  attr {
    key: "shared_name"
    value {
      s: ""
    }
  }
}
node {
  name: "densenet121/logits/Conv2D"
  op: "Conv2D"
  input: "densenet121/final_block/global_avg_pool/AvgPool"
  input: "densenet121/logits/weights"
  attr {
    key: "T"
    value {
      type: DT_FLOAT
    }
  }
  attr {
    key: "data_format"
    value {
      s: "NHWC"
    }
  }
  attr {
    key: "dilations"
    value {
      list {
        i: 1
        i: 1
        i: 1
        i: 1
      }
    }
  }
  attr {
    key: "explicit_paddings"
    value {
      list {
      }
    }
  }
  attr {
    key: "padding"
    value {
      s: "SAME"
    }
  }
  attr {
    key: "strides"
    value {
      list {
        i: 1
        i: 1
        i: 1
        i: 1
      }
    }
  }
  attr {
    key: "use_cudnn_on_gpu"
    value {
      b: true
    }
  }
}
node {
  name: "densenet121/logits/BiasAdd"
  op: "BiasAdd"
  input: "densenet121/logits/Conv2D"
  input: "densenet121/logits/biases"
  attr {
    key: "T"
    value {
      type: DT_FLOAT
    }
  }
  attr {
    key: "data_format"
    value {
      s: "NHWC"
    }
  }
}
node {
  name: "ArgMax/dimension"
  op: "Const"
  attr {
    key: "dtype"
    value {
      type: DT_INT32
    }
  }
  attr {
    key: "value"
    value {
      tensor {
        dtype: DT_INT32
        tensor_shape {
        }
        int_val: 3
      }
    }
  }
}
node {
  name: "ArgMax"
  op: "ArgMax"
  input: "densenet121/logits/BiasAdd"
  input: "ArgMax/dimension"
  attr {
    key: "T"
    value {
      type: DT_FLOAT
    }
  }
  attr {
    key: "Tidx"
    value {
      type: DT_INT32
    }
  }
  attr {
    key: "output_type"
    value {
      type: DT_INT64
    }
  }
}
library {
}
