node {
  name: "input_x"
  op: "Placeholder"
  attr {
    key: "dtype"
    value {
      type: DT_FLOAT
    }
  }
  attr {
    key: "shape"
    value {
      shape {
        dim {
          size: -1
        }
        dim {
          size: 224
        }
        dim {
          size: 224
        }
        dim {
          size: 3
        }
      }
    }
  }
}
node {
  name: "resnet_model/Pad/paddings"
  op: "Const"
  attr {
    key: "dtype"
    value {
      type: DT_INT32
    }
  }
  attr {
    key: "value"
    value {
      tensor {
        dtype: DT_INT32
        tensor_shape {
          dim {
            size: 4
          }
          dim {
            size: 2
          }
        }
        tensor_content: "…"
      }
    }
  }
}
node {
  name: "resnet_model/Pad"
  op: "Pad"
  input: "input_x"
  input: "resnet_model/Pad/paddings"
  attr {
    key: "T"
    value {
      type: DT_FLOAT
    }
  }
  attr {
    key: "Tpaddings"
    value {
      type: DT_INT32
    }
  }
}
node {
  name: "resnet_model/conv2d/kernel"
  op: "VariableV2"
  attr {
    key: "_class"
    value {
      list {
        s: "loc:@resnet_model/conv2d/kernel"
      }
    }
  }
  attr {
    key: "container"
    value {
      s: ""
    }
  }
  attr {
    key: "dtype"
    value {
      type: DT_FLOAT
    }
  }
  attr {
    key: "shape"
    value {
      shape {
        dim {
          size: 7
        }
        dim {
          size: 7
        }
        dim {
          size: 3
        }
        dim {
          size: 64
        }
      }
    }
  }
  attr {
    key: "shared_name"
    value {
      s: ""
    }
  }
}
node {
  name: "resnet_model/conv2d/Conv2D"
  op: "Conv2D"
  input: "resnet_model/Pad"
  input: "resnet_model/conv2d/kernel"
  attr {
    key: "T"
    value {
      type: DT_FLOAT
    }
  }
  attr {
    key: "data_format"
    value {
      s: "NHWC"
    }
  }
  attr {
    key: "dilations"
    value {
      list {
        i: 1
        i: 1
        i: 1
        i: 1
      }
    }
  }
  attr {
    key: "explicit_paddings"
    value {
      list {
      }
    }
  }
  attr {
    key: "padding"
    value {
      s: "VALID"
    }
  }
  attr {
    key: "strides"
    value {
      list {
        i: 1
        i: 2
        i: 2
        i: 1
      }
    }
  }
  attr {
    key: "use_cudnn_on_gpu"
    value {
      b: true
    }
  }
}
node {
  name: "resnet_model/max_pooling2d/MaxPool"
  op: "MaxPool"
  input: "resnet_model/conv2d/Conv2D"
  attr {
    key: "T"
    value {
      type: DT_FLOAT
    }
  }
  attr {
    key: "data_format"
    value {
      s: "NHWC"
    }
  }
  attr {
    key: "ksize"
    value {
      list {
        i: 1
        i: 3
        i: 3
        i: 1
      }
    }
  }
  attr {
    key: "padding"
    value {
      s: "SAME"
    }
  }
  attr {
    key: "strides"
    value {
      list {
        i: 1
        i: 2
        i: 2
        i: 1
      }
    }
  }
}
node {
  name: "resnet_model/batch_normalization/gamma"
  op: "VariableV2"
  attr {
    key: "_class"
    value {
      list {
        s: "loc:@resnet_model/batch_normalization/gamma"
      }
    }
  }
  attr {
    key: "container"
    value {
      s: ""
    }
  }
  attr {
    key: "dtype"
    value {
      type: DT_FLOAT
    }
  }
  attr {
    key: "shape"
    value {
      shape {
        dim {
          size: 64
        }
      }
    }
  }
  attr {
    key: "shared_name"
    value {
      s: ""
    }
  }
}
node {
  name: "resnet_model/batch_normalization/beta"
  op: "VariableV2"
  attr {
    key: "_class"
    value {
      list {
        s: "loc:@resnet_model/batch_normalization/beta"
      }
    }
  }
  attr {
    key: "container"
    value {
      s: ""
    }
  }
  attr {
    key: "dtype"
    value {
      type: DT_FLOAT
    }
  }
  attr {
    key: "shape"
    value {
      shape {
        dim {
          size: 64
        }
      }
    }
  }
  attr {
    key: "shared_name"
    value {
      s: ""
    }
  }
}
node {
  name: "resnet_model/batch_normalization/moving_mean"
  op: "VariableV2"
  attr {
    key: "_class"
    value {
      list {
        s: "loc:@resnet_model/batch_normalization/moving_mean"
      }
    }
  }
  attr {
    key: "container"
    value {
      s: ""
    }
  }
  attr {
    key: "dtype"
    value {
      type: DT_FLOAT
    }
  }
  attr {
    key: "shape"
    value {
      shape {
        dim {
          size: 64
        }
      }
    }
  }
  attr {
    key: "shared_name"
    value {
      s: ""
    }
  }
}
node {
  name: "resnet_model/batch_normalization/moving_variance"
  op: "VariableV2"
  attr {
    key: "_class"
    value {
      list {
        s: "loc:@resnet_model/batch_normalization/moving_variance"
      }
    }
  }
  attr {
    key: "container"
    value {
      s: ""
    }
  }
  attr {
    key: "dtype"
    value {
      type: DT_FLOAT
    }
  }
  attr {
    key: "shape"
    value {
      shape {
        dim {
          size: 64
        }
      }
    }
  }
  attr {
    key: "shared_name"
    value {
      s: ""
    }
  }
}
node {
  name: "resnet_model/batch_normalization/FusedBatchNorm"
  op: "FusedBatchNorm"
  input: "resnet_model/max_pooling2d/MaxPool"
  input: "resnet_model/batch_normalization/gamma"
  input: "resnet_model/batch_normalization/beta"
  input: "resnet_model/batch_normalization/moving_mean"
  input: "resnet_model/batch_normalization/moving_variance"
  attr {
    key: "T"
    value {
      type: DT_FLOAT
    }
  }
  attr {
    key: "data_format"
    value {
      s: "NHWC"
    }
  }
  attr {
    key: "epsilon"
    value {
      f: 1.0009999641624745e-05
    }
  }
  attr {
    key: "is_training"
    value {
      b: false
    }
  }
}
node {
  name: "resnet_model/Relu"
  op: "Relu"
  input: "resnet_model/batch_normalization/FusedBatchNorm"
  attr {
    key: "T"
    value {
      type: DT_FLOAT
    }
  }
}
node {
  name: "resnet_model/conv2d_1/kernel"
  op: "VariableV2"
  attr {
    key: "_class"
    value {
      list {
        s: "loc:@resnet_model/conv2d_1/kernel"
      }
    }
  }
  attr {
    key: "container"
    value {
      s: ""
    }
  }
  attr {
    key: "dtype"
    value {
      type: DT_FLOAT
    }
  }
  attr {
    key: "shape"
    value {
      shape {
        dim {
          size: 1
        }
        dim {
          size: 1
        }
        dim {
          size: 64
        }
        dim {
          size: 256
        }
      }
    }
  }
  attr {
    key: "shared_name"
    value {
      s: ""
    }
  }
}
node {
  name: "resnet_model/conv2d_1/Conv2D"
  op: "Conv2D"
  input: "resnet_model/Relu"
  input: "resnet_model/conv2d_1/kernel"
  attr {
    key: "T"
    value {
      type: DT_FLOAT
    }
  }
  attr {
    key: "data_format"
    value {
      s: "NHWC"
    }
  }
  attr {
    key: "dilations"
    value {
      list {
        i: 1
        i: 1
        i: 1
        i: 1
      }
    }
  }
  attr {
    key: "explicit_paddings"
    value {
      list {
      }
    }
  }
  attr {
    key: "padding"
    value {
      s: "SAME"
    }
  }
  attr {
    key: "strides"
    value {
      list {
        i: 1
        i: 1
        i: 1
        i: 1
      }
    }
  }
  attr {
    key: "use_cudnn_on_gpu"
    value {
      b: true
    }
  }
}
node {
  name: "resnet_model/conv2d_2/kernel"
  op: "VariableV2"
  attr {
    key: "_class"
    value {
      list {
        s: "loc:@resnet_model/conv2d_2/kernel"
      }
    }
  }
  attr {
    key: "container"
    value {
      s: ""
    }
  }
  attr {
    key: "dtype"
    value {
      type: DT_FLOAT
    }
  }
  attr {
    key: "shape"
    value {
      shape {
        dim {
          size: 1
        }
        dim {
          size: 1
        }
        dim {
          size: 64
        }
        dim {
          size: 64
        }
      }
    }
  }
  attr {
    key: "shared_name"
    value {
      s: ""
    }
  }
}
node {
  name: "resnet_model/conv2d_2/Conv2D"
  op: "Conv2D"
  input: "resnet_model/Relu"
  input: "resnet_model/conv2d_2/kernel"
  attr {
    key: "T"
    value {
      type: DT_FLOAT
    }
  }
  attr {
    key: "data_format"
    value {
      s: "NHWC"
    }
  }
  attr {
    key: "dilations"
    value {
      list {
        i: 1
        i: 1
        i: 1
        i: 1
      }
    }
  }
  attr {
    key: "explicit_paddings"
    value {
      list {
      }
    }
  }
  attr {
    key: "padding"
    value {
      s: "SAME"
    }
  }
  attr {
    key: "strides"
    value {
      list {
        i: 1
        i: 1
        i: 1
        i: 1
      }
    }
  }
  attr {
    key: "use_cudnn_on_gpu"
    value {
      b: true
    }
  }
}
node {
  name: "resnet_model/batch_normalization_1/gamma"
  op: "VariableV2"
  attr {
    key: "_class"
    value {
      list {
        s: "loc:@resnet_model/batch_normalization_1/gamma"
      }
    }
  }
  attr {
    key: "container"
    value {
      s: ""
    }
  }
  attr {
    key: "dtype"
    value {
      type: DT_FLOAT
    }
  }
  attr {
    key: "shape"
    value {
      shape {
        dim {
          size: 64
        }
      }
    }
  }
  attr {
    key: "shared_name"
    value {
      s: ""
    }
  }
}
node {
  name: "resnet_model/batch_normalization_1/beta"
  op: "VariableV2"
  attr {
    key: "_class"
    value {
      list {
        s: "loc:@resnet_model/batch_normalization_1/beta"
      }
    }
  }
  attr {
    key: "container"
    value {
      s: ""
    }
  }
  attr {
    key: "dtype"
    value {
      type: DT_FLOAT
    }
  }
  attr {
    key: "shape"
    value {
      shape {
        dim {
          size: 64
        }
      }
    }
  }
  attr {
    key: "shared_name"
    value {
      s: ""
    }
  }
}
node {
  name: "resnet_model/batch_normalization_1/moving_mean"
  op: "VariableV2"
  attr {
    key: "_class"
    value {
      list {
        s: "loc:@resnet_model/batch_normalization_1/moving_mean"
      }
    }
  }
  attr {
    key: "container"
    value {
      s: ""
    }
  }
  attr {
    key: "dtype"
    value {
      type: DT_FLOAT
    }
  }
  attr {
    key: "shape"
    value {
      shape {
        dim {
          size: 64
        }
      }
    }
  }
  attr {
    key: "shared_name"
    value {
      s: ""
    }
  }
}
node {
  name: "resnet_model/batch_normalization_1/moving_variance"
  op: "VariableV2"
  attr {
    key: "_class"
    value {
      list {
        s: "loc:@resnet_model/batch_normalization_1/moving_variance"
      }
    }
  }
  attr {
    key: "container"
    value {
      s: ""
    }
  }
  attr {
    key: "dtype"
    value {
      type: DT_FLOAT
    }
  }
  attr {
    key: "shape"
    value {
      shape {
        dim {
          size: 64
        }
      }
    }
  }
  attr {
    key: "shared_name"
    value {
      s: ""
    }
  }
}
node {
  name: "resnet_model/batch_normalization_1/FusedBatchNorm"
  op: "FusedBatchNorm"
  input: "resnet_model/conv2d_2/Conv2D"
  input: "resnet_model/batch_normalization_1/gamma"
  input: "resnet_model/batch_normalization_1/beta"
  input: "resnet_model/batch_normalization_1/moving_mean"
  input: "resnet_model/batch_normalization_1/moving_variance"
  attr {
    key: "T"
    value {
      type: DT_FLOAT
    }
  }
  attr {
    key: "data_format"
    value {
      s: "NHWC"
    }
  }
  attr {
    key: "epsilon"
    value {
      f: 1.0009999641624745e-05
    }
  }
  attr {
    key: "is_training"
    value {
      b: false
    }
  }
}
node {
  name: "resnet_model/Relu_1"
  op: "Relu"
  input: "resnet_model/batch_normalization_1/FusedBatchNorm"
  attr {
    key: "T"
    value {
      type: DT_FLOAT
    }
  }
}
node {
  name: "resnet_model/conv2d_3/kernel"
  op: "VariableV2"
  attr {
    key: "_class"
    value {
      list {
        s: "loc:@resnet_model/conv2d_3/kernel"
      }
    }
  }
  attr {
    key: "container"
    value {
      s: ""
    }
  }
  attr {
    key: "dtype"
    value {
      type: DT_FLOAT
    }
  }
  attr {
    key: "shape"
    value {
      shape {
        dim {
          size: 3
        }
        dim {
          size: 3
        }
        dim {
          size: 64
        }
        dim {
          size: 64
        }
      }
    }
  }
  attr {
    key: "shared_name"
    value {
      s: ""
    }
  }
}
node {
  name: "resnet_model/conv2d_3/Conv2D"
  op: "Conv2D"
  input: "resnet_model/Relu_1"
  input: "resnet_model/conv2d_3/kernel"
  attr {
    key: "T"
    value {
      type: DT_FLOAT
    }
  }
  attr {
    key: "data_format"
    value {
      s: "NHWC"
    }
  }
  attr {
    key: "dilations"
    value {
      list {
        i: 1
        i: 1
        i: 1
        i: 1
      }
    }
  }
  attr {
    key: "explicit_paddings"
    value {
      list {
      }
    }
  }
  attr {
    key: "padding"
    value {
      s: "SAME"
    }
  }
  attr {
    key: "strides"
    value {
      list {
        i: 1
        i: 1
        i: 1
        i: 1
      }
    }
  }
  attr {
    key: "use_cudnn_on_gpu"
    value {
      b: true
    }
  }
}
node {
  name: "resnet_model/batch_normalization_2/gamma"
  op: "VariableV2"
  attr {
    key: "_class"
    value {
      list {
        s: "loc:@resnet_model/batch_normalization_2/gamma"
      }
    }
  }
  attr {
    key: "container"
    value {
      s: ""
    }
  }
  attr {
    key: "dtype"
    value {
      type: DT_FLOAT
    }
  }
  attr {
    key: "shape"
    value {
      shape {
        dim {
          size: 64
        }
      }
    }
  }
  attr {
    key: "shared_name"
    value {
      s: ""
    }
  }
}
node {
  name: "resnet_model/batch_normalization_2/beta"
  op: "VariableV2"
  attr {
    key: "_class"
    value {
      list {
        s: "loc:@resnet_model/batch_normalization_2/beta"
      }
    }
  }
  attr {
    key: "container"
    value {
      s: ""
    }
  }
  attr {
    key: "dtype"
    value {
      type: DT_FLOAT
    }
  }
  attr {
    key: "shape"
    value {
      shape {
        dim {
          size: 64
        }
      }
    }
  }
  attr {
    key: "shared_name"
    value {
      s: ""
    }
  }
}
node {
  name: "resnet_model/batch_normalization_2/moving_mean"
  op: "VariableV2"
  attr {
    key: "_class"
    value {
      list {
        s: "loc:@resnet_model/batch_normalization_2/moving_mean"
      }
    }
  }
  attr {
    key: "container"
    value {
      s: ""
    }
  }
  attr {
    key: "dtype"
    value {
      type: DT_FLOAT
    }
  }
  attr {
    key: "shape"
    value {
      shape {
        dim {
          size: 64
        }
      }
    }
  }
  attr {
    key: "shared_name"
    value {
      s: ""
    }
  }
}
node {
  name: "resnet_model/batch_normalization_2/moving_variance"
  op: "VariableV2"
  attr {
    key: "_class"
    value {
      list {
        s: "loc:@resnet_model/batch_normalization_2/moving_variance"
      }
    }
  }
  attr {
    key: "container"
    value {
      s: ""
    }
  }
  attr {
    key: "dtype"
    value {
      type: DT_FLOAT
    }
  }
  attr {
    key: "shape"
    value {
      shape {
        dim {
          size: 64
        }
      }
    }
  }
  attr {
    key: "shared_name"
    value {
      s: ""
    }
  }
}
node {
  name: "resnet_model/batch_normalization_2/FusedBatchNorm"
  op: "FusedBatchNorm"
  input: "resnet_model/conv2d_3/Conv2D"
  input: "resnet_model/batch_normalization_2/gamma"
  input: "resnet_model/batch_normalization_2/beta"
  input: "resnet_model/batch_normalization_2/moving_mean"
  input: "resnet_model/batch_normalization_2/moving_variance"
  attr {
    key: "T"
    value {
      type: DT_FLOAT
    }
  }
  attr {
    key: "data_format"
    value {
      s: "NHWC"
    }
  }
  attr {
    key: "epsilon"
    value {
      f: 1.0009999641624745e-05
    }
  }
  attr {
    key: "is_training"
    value {
      b: false
    }
  }
}
node {
  name: "resnet_model/Relu_2"
  op: "Relu"
  input: "resnet_model/batch_normalization_2/FusedBatchNorm"
  attr {
    key: "T"
    value {
      type: DT_FLOAT
    }
  }
}
node {
  name: "resnet_model/conv2d_4/kernel"
  op: "VariableV2"
  attr {
    key: "_class"
    value {
      list {
        s: "loc:@resnet_model/conv2d_4/kernel"
      }
    }
  }
  attr {
    key: "container"
    value {
      s: ""
    }
  }
  attr {
    key: "dtype"
    value {
      type: DT_FLOAT
    }
  }
  attr {
    key: "shape"
    value {
      shape {
        dim {
          size: 1
        }
        dim {
          size: 1
        }
        dim {
          size: 64
        }
        dim {
          size: 256
        }
      }
    }
  }
  attr {
    key: "shared_name"
    value {
      s: ""
    }
  }
}
node {
  name: "resnet_model/conv2d_4/Conv2D"
  op: "Conv2D"
  input: "resnet_model/Relu_2"
  input: "resnet_model/conv2d_4/kernel"
  attr {
    key: "T"
    value {
      type: DT_FLOAT
    }
  }
  attr {
    key: "data_format"
    value {
      s: "NHWC"
    }
  }
  attr {
    key: "dilations"
    value {
      list {
        i: 1
        i: 1
        i: 1
        i: 1
      }
    }
  }
  attr {
    key: "explicit_paddings"
    value {
      list {
      }
    }
  }
  attr {
    key: "padding"
    value {
      s: "SAME"
    }
  }
  attr {
    key: "strides"
    value {
      list {
        i: 1
        i: 1
        i: 1
        i: 1
      }
    }
  }
  attr {
    key: "use_cudnn_on_gpu"
    value {
      b: true
    }
  }
}
node {
  name: "resnet_model/add"
  op: "Add"
  input: "resnet_model/conv2d_4/Conv2D"
  input: "resnet_model/conv2d_1/Conv2D"
  attr {
    key: "T"
    value {
      type: DT_FLOAT
    }
  }
}
node {
  name: "resnet_model/batch_normalization_3/gamma"
  op: "VariableV2"
  attr {
    key: "_class"
    value {
      list {
        s: "loc:@resnet_model/batch_normalization_3/gamma"
      }
    }
  }
  attr {
    key: "container"
    value {
      s: ""
    }
  }
  attr {
    key: "dtype"
    value {
      type: DT_FLOAT
    }
  }
  attr {
    key: "shape"
    value {
      shape {
        dim {
          size: 256
        }
      }
    }
  }
  attr {
    key: "shared_name"
    value {
      s: ""
    }
  }
}
node {
  name: "resnet_model/batch_normalization_3/beta"
  op: "VariableV2"
  attr {
    key: "_class"
    value {
      list {
        s: "loc:@resnet_model/batch_normalization_3/beta"
      }
    }
  }
  attr {
    key: "container"
    value {
      s: ""
    }
  }
  attr {
    key: "dtype"
    value {
      type: DT_FLOAT
    }
  }
  attr {
    key: "shape"
    value {
      shape {
        dim {
          size: 256
        }
      }
    }
  }
  attr {
    key: "shared_name"
    value {
      s: ""
    }
  }
}
node {
  name: "resnet_model/batch_normalization_3/moving_mean"
  op: "VariableV2"
  attr {
    key: "_class"
    value {
      list {
        s: "loc:@resnet_model/batch_normalization_3/moving_mean"
      }
    }
  }
  attr {
    key: "container"
    value {
      s: ""
    }
  }
  attr {
    key: "dtype"
    value {
      type: DT_FLOAT
    }
  }
  attr {
    key: "shape"
    value {
      shape {
        dim {
          size: 256
        }
      }
    }
  }
  attr {
    key: "shared_name"
    value {
      s: ""
    }
  }
}
node {
  name: "resnet_model/batch_normalization_3/moving_variance"
  op: "VariableV2"
  attr {
    key: "_class"
    value {
      list {
        s: "loc:@resnet_model/batch_normalization_3/moving_variance"
      }
    }
  }
  attr {
    key: "container"
    value {
      s: ""
    }
  }
  attr {
    key: "dtype"
    value {
      type: DT_FLOAT
    }
  }
  attr {
    key: "shape"
    value {
      shape {
        dim {
          size: 256
        }
      }
    }
  }
  attr {
    key: "shared_name"
    value {
      s: ""
    }
  }
}
node {
  name: "resnet_model/batch_normalization_3/FusedBatchNorm"
  op: "FusedBatchNorm"
  input: "resnet_model/add"
  input: "resnet_model/batch_normalization_3/gamma"
  input: "resnet_model/batch_normalization_3/beta"
  input: "resnet_model/batch_normalization_3/moving_mean"
  input: "resnet_model/batch_normalization_3/moving_variance"
  attr {
    key: "T"
    value {
      type: DT_FLOAT
    }
  }
  attr {
    key: "data_format"
    value {
      s: "NHWC"
    }
  }
  attr {
    key: "epsilon"
    value {
      f: 1.0009999641624745e-05
    }
  }
  attr {
    key: "is_training"
    value {
      b: false
    }
  }
}
node {
  name: "resnet_model/Relu_3"
  op: "Relu"
  input: "resnet_model/batch_normalization_3/FusedBatchNorm"
  attr {
    key: "T"
    value {
      type: DT_FLOAT
    }
  }
}
node {
  name: "resnet_model/conv2d_5/kernel"
  op: "VariableV2"
  attr {
    key: "_class"
    value {
      list {
        s: "loc:@resnet_model/conv2d_5/kernel"
      }
    }
  }
  attr {
    key: "container"
    value {
      s: ""
    }
  }
  attr {
    key: "dtype"
    value {
      type: DT_FLOAT
    }
  }
  attr {
    key: "shape"
    value {
      shape {
        dim {
          size: 1
        }
        dim {
          size: 1
        }
        dim {
          size: 256
        }
        dim {
          size: 64
        }
      }
    }
  }
  attr {
    key: "shared_name"
    value {
      s: ""
    }
  }
}
node {
  name: "resnet_model/conv2d_5/Conv2D"
  op: "Conv2D"
  input: "resnet_model/Relu_3"
  input: "resnet_model/conv2d_5/kernel"
  attr {
    key: "T"
    value {
      type: DT_FLOAT
    }
  }
  attr {
    key: "data_format"
    value {
      s: "NHWC"
    }
  }
  attr {
    key: "dilations"
    value {
      list {
        i: 1
        i: 1
        i: 1
        i: 1
      }
    }
  }
  attr {
    key: "explicit_paddings"
    value {
      list {
      }
    }
  }
  attr {
    key: "padding"
    value {
      s: "SAME"
    }
  }
  attr {
    key: "strides"
    value {
      list {
        i: 1
        i: 1
        i: 1
        i: 1
      }
    }
  }
  attr {
    key: "use_cudnn_on_gpu"
    value {
      b: true
    }
  }
}
node {
  name: "resnet_model/batch_normalization_4/gamma"
  op: "VariableV2"
  attr {
    key: "_class"
    value {
      list {
        s: "loc:@resnet_model/batch_normalization_4/gamma"
      }
    }
  }
  attr {
    key: "container"
    value {
      s: ""
    }
  }
  attr {
    key: "dtype"
    value {
      type: DT_FLOAT
    }
  }
  attr {
    key: "shape"
    value {
      shape {
        dim {
          size: 64
        }
      }
    }
  }
  attr {
    key: "shared_name"
    value {
      s: ""
    }
  }
}
node {
  name: "resnet_model/batch_normalization_4/beta"
  op: "VariableV2"
  attr {
    key: "_class"
    value {
      list {
        s: "loc:@resnet_model/batch_normalization_4/beta"
      }
    }
  }
  attr {
    key: "container"
    value {
      s: ""
    }
  }
  attr {
    key: "dtype"
    value {
      type: DT_FLOAT
    }
  }
  attr {
    key: "shape"
    value {
      shape {
        dim {
          size: 64
        }
      }
    }
  }
  attr {
    key: "shared_name"
    value {
      s: ""
    }
  }
}
node {
  name: "resnet_model/batch_normalization_4/moving_mean"
  op: "VariableV2"
  attr {
    key: "_class"
    value {
      list {
        s: "loc:@resnet_model/batch_normalization_4/moving_mean"
      }
    }
  }
  attr {
    key: "container"
    value {
      s: ""
    }
  }
  attr {
    key: "dtype"
    value {
      type: DT_FLOAT
    }
  }
  attr {
    key: "shape"
    value {
      shape {
        dim {
          size: 64
        }
      }
    }
  }
  attr {
    key: "shared_name"
    value {
      s: ""
    }
  }
}
node {
  name: "resnet_model/batch_normalization_4/moving_variance"
  op: "VariableV2"
  attr {
    key: "_class"
    value {
      list {
        s: "loc:@resnet_model/batch_normalization_4/moving_variance"
      }
    }
  }
  attr {
    key: "container"
    value {
      s: ""
    }
  }
  attr {
    key: "dtype"
    value {
      type: DT_FLOAT
    }
  }
  attr {
    key: "shape"
    value {
      shape {
        dim {
          size: 64
        }
      }
    }
  }
  attr {
    key: "shared_name"
    value {
      s: ""
    }
  }
}
node {
  name: "resnet_model/batch_normalization_4/FusedBatchNorm"
  op: "FusedBatchNorm"
  input: "resnet_model/conv2d_5/Conv2D"
  input: "resnet_model/batch_normalization_4/gamma"
  input: "resnet_model/batch_normalization_4/beta"
  input: "resnet_model/batch_normalization_4/moving_mean"
  input: "resnet_model/batch_normalization_4/moving_variance"
  attr {
    key: "T"
    value {
      type: DT_FLOAT
    }
  }
  attr {
    key: "data_format"
    value {
      s: "NHWC"
    }
  }
  attr {
    key: "epsilon"
    value {
      f: 1.0009999641624745e-05
    }
  }
  attr {
    key: "is_training"
    value {
      b: false
    }
  }
}
node {
  name: "resnet_model/Relu_4"
  op: "Relu"
  input: "resnet_model/batch_normalization_4/FusedBatchNorm"
  attr {
    key: "T"
    value {
      type: DT_FLOAT
    }
  }
}
node {
  name: "resnet_model/conv2d_6/kernel"
  op: "VariableV2"
  attr {
    key: "_class"
    value {
      list {
        s: "loc:@resnet_model/conv2d_6/kernel"
      }
    }
  }
  attr {
    key: "container"
    value {
      s: ""
    }
  }
  attr {
    key: "dtype"
    value {
      type: DT_FLOAT
    }
  }
  attr {
    key: "shape"
    value {
      shape {
        dim {
          size: 3
        }
        dim {
          size: 3
        }
        dim {
          size: 64
        }
        dim {
          size: 64
        }
      }
    }
  }
  attr {
    key: "shared_name"
    value {
      s: ""
    }
  }
}
node {
  name: "resnet_model/conv2d_6/Conv2D"
  op: "Conv2D"
  input: "resnet_model/Relu_4"
  input: "resnet_model/conv2d_6/kernel"
  attr {
    key: "T"
    value {
      type: DT_FLOAT
    }
  }
  attr {
    key: "data_format"
    value {
      s: "NHWC"
    }
  }
  attr {
    key: "dilations"
    value {
      list {
        i: 1
        i: 1
        i: 1
        i: 1
      }
    }
  }
  attr {
    key: "explicit_paddings"
    value {
      list {
      }
    }
  }
  attr {
    key: "padding"
    value {
      s: "SAME"
    }
  }
  attr {
    key: "strides"
    value {
      list {
        i: 1
        i: 1
        i: 1
        i: 1
      }
    }
  }
  attr {
    key: "use_cudnn_on_gpu"
    value {
      b: true
    }
  }
}
node {
  name: "resnet_model/batch_normalization_5/gamma"
  op: "VariableV2"
  attr {
    key: "_class"
    value {
      list {
        s: "loc:@resnet_model/batch_normalization_5/gamma"
      }
    }
  }
  attr {
    key: "container"
    value {
      s: ""
    }
  }
  attr {
    key: "dtype"
    value {
      type: DT_FLOAT
    }
  }
  attr {
    key: "shape"
    value {
      shape {
        dim {
          size: 64
        }
      }
    }
  }
  attr {
    key: "shared_name"
    value {
      s: ""
    }
  }
}
node {
  name: "resnet_model/batch_normalization_5/beta"
  op: "VariableV2"
  attr {
    key: "_class"
    value {
      list {
        s: "loc:@resnet_model/batch_normalization_5/beta"
      }
    }
  }
  attr {
    key: "container"
    value {
      s: ""
    }
  }
  attr {
    key: "dtype"
    value {
      type: DT_FLOAT
    }
  }
  attr {
    key: "shape"
    value {
      shape {
        dim {
          size: 64
        }
      }
    }
  }
  attr {
    key: "shared_name"
    value {
      s: ""
    }
  }
}
node {
  name: "resnet_model/batch_normalization_5/moving_mean"
  op: "VariableV2"
  attr {
    key: "_class"
    value {
      list {
        s: "loc:@resnet_model/batch_normalization_5/moving_mean"
      }
    }
  }
  attr {
    key: "container"
    value {
      s: ""
    }
  }
  attr {
    key: "dtype"
    value {
      type: DT_FLOAT
    }
  }
  attr {
    key: "shape"
    value {
      shape {
        dim {
          size: 64
        }
      }
    }
  }
  attr {
    key: "shared_name"
    value {
      s: ""
    }
  }
}
node {
  name: "resnet_model/batch_normalization_5/moving_variance"
  op: "VariableV2"
  attr {
    key: "_class"
    value {
      list {
        s: "loc:@resnet_model/batch_normalization_5/moving_variance"
      }
    }
  }
  attr {
    key: "container"
    value {
      s: ""
    }
  }
  attr {
    key: "dtype"
    value {
      type: DT_FLOAT
    }
  }
  attr {
    key: "shape"
    value {
      shape {
        dim {
          size: 64
        }
      }
    }
  }
  attr {
    key: "shared_name"
    value {
      s: ""
    }
  }
}
node {
  name: "resnet_model/batch_normalization_5/FusedBatchNorm"
  op: "FusedBatchNorm"
  input: "resnet_model/conv2d_6/Conv2D"
  input: "resnet_model/batch_normalization_5/gamma"
  input: "resnet_model/batch_normalization_5/beta"
  input: "resnet_model/batch_normalization_5/moving_mean"
  input: "resnet_model/batch_normalization_5/moving_variance"
  attr {
    key: "T"
    value {
      type: DT_FLOAT
    }
  }
  attr {
    key: "data_format"
    value {
      s: "NHWC"
    }
  }
  attr {
    key: "epsilon"
    value {
      f: 1.0009999641624745e-05
    }
  }
  attr {
    key: "is_training"
    value {
      b: false
    }
  }
}
node {
  name: "resnet_model/Relu_5"
  op: "Relu"
  input: "resnet_model/batch_normalization_5/FusedBatchNorm"
  attr {
    key: "T"
    value {
      type: DT_FLOAT
    }
  }
}
node {
  name: "resnet_model/conv2d_7/kernel"
  op: "VariableV2"
  attr {
    key: "_class"
    value {
      list {
        s: "loc:@resnet_model/conv2d_7/kernel"
      }
    }
  }
  attr {
    key: "container"
    value {
      s: ""
    }
  }
  attr {
    key: "dtype"
    value {
      type: DT_FLOAT
    }
  }
  attr {
    key: "shape"
    value {
      shape {
        dim {
          size: 1
        }
        dim {
          size: 1
        }
        dim {
          size: 64
        }
        dim {
          size: 256
        }
      }
    }
  }
  attr {
    key: "shared_name"
    value {
      s: ""
    }
  }
}
node {
  name: "resnet_model/conv2d_7/Conv2D"
  op: "Conv2D"
  input: "resnet_model/Relu_5"
  input: "resnet_model/conv2d_7/kernel"
  attr {
    key: "T"
    value {
      type: DT_FLOAT
    }
  }
  attr {
    key: "data_format"
    value {
      s: "NHWC"
    }
  }
  attr {
    key: "dilations"
    value {
      list {
        i: 1
        i: 1
        i: 1
        i: 1
      }
    }
  }
  attr {
    key: "explicit_paddings"
    value {
      list {
      }
    }
  }
  attr {
    key: "padding"
    value {
      s: "SAME"
    }
  }
  attr {
    key: "strides"
    value {
      list {
        i: 1
        i: 1
        i: 1
        i: 1
      }
    }
  }
  attr {
    key: "use_cudnn_on_gpu"
    value {
      b: true
    }
  }
}
node {
  name: "resnet_model/add_1"
  op: "Add"
  input: "resnet_model/conv2d_7/Conv2D"
  input: "resnet_model/add"
  attr {
    key: "T"
    value {
      type: DT_FLOAT
    }
  }
}
node {
  name: "resnet_model/batch_normalization_6/gamma"
  op: "VariableV2"
  attr {
    key: "_class"
    value {
      list {
        s: "loc:@resnet_model/batch_normalization_6/gamma"
      }
    }
  }
  attr {
    key: "container"
    value {
      s: ""
    }
  }
  attr {
    key: "dtype"
    value {
      type: DT_FLOAT
    }
  }
  attr {
    key: "shape"
    value {
      shape {
        dim {
          size: 256
        }
      }
    }
  }
  attr {
    key: "shared_name"
    value {
      s: ""
    }
  }
}
node {
  name: "resnet_model/batch_normalization_6/beta"
  op: "VariableV2"
  attr {
    key: "_class"
    value {
      list {
        s: "loc:@resnet_model/batch_normalization_6/beta"
      }
    }
  }
  attr {
    key: "container"
    value {
      s: ""
    }
  }
  attr {
    key: "dtype"
    value {
      type: DT_FLOAT
    }
  }
  attr {
    key: "shape"
    value {
      shape {
        dim {
          size: 256
        }
      }
    }
  }
  attr {
    key: "shared_name"
    value {
      s: ""
    }
  }
}
node {
  name: "resnet_model/batch_normalization_6/moving_mean"
  op: "VariableV2"
  attr {
    key: "_class"
    value {
      list {
        s: "loc:@resnet_model/batch_normalization_6/moving_mean"
      }
    }
  }
  attr {
    key: "container"
    value {
      s: ""
    }
  }
  attr {
    key: "dtype"
    value {
      type: DT_FLOAT
    }
  }
  attr {
    key: "shape"
    value {
      shape {
        dim {
          size: 256
        }
      }
    }
  }
  attr {
    key: "shared_name"
    value {
      s: ""
    }
  }
}
node {
  name: "resnet_model/batch_normalization_6/moving_variance"
  op: "VariableV2"
  attr {
    key: "_class"
    value {
      list {
        s: "loc:@resnet_model/batch_normalization_6/moving_variance"
      }
    }
  }
  attr {
    key: "container"
    value {
      s: ""
    }
  }
  attr {
    key: "dtype"
    value {
      type: DT_FLOAT
    }
  }
  attr {
    key: "shape"
    value {
      shape {
        dim {
          size: 256
        }
      }
    }
  }
  attr {
    key: "shared_name"
    value {
      s: ""
    }
  }
}
node {
  name: "resnet_model/batch_normalization_6/FusedBatchNorm"
  op: "FusedBatchNorm"
  input: "resnet_model/add_1"
  input: "resnet_model/batch_normalization_6/gamma"
  input: "resnet_model/batch_normalization_6/beta"
  input: "resnet_model/batch_normalization_6/moving_mean"
  input: "resnet_model/batch_normalization_6/moving_variance"
  attr {
    key: "T"
    value {
      type: DT_FLOAT
    }
  }
  attr {
    key: "data_format"
    value {
      s: "NHWC"
    }
  }
  attr {
    key: "epsilon"
    value {
      f: 1.0009999641624745e-05
    }
  }
  attr {
    key: "is_training"
    value {
      b: false
    }
  }
}
node {
  name: "resnet_model/Relu_6"
  op: "Relu"
  input: "resnet_model/batch_normalization_6/FusedBatchNorm"
  attr {
    key: "T"
    value {
      type: DT_FLOAT
    }
  }
}
node {
  name: "resnet_model/conv2d_8/kernel"
  op: "VariableV2"
  attr {
    key: "_class"
    value {
      list {
        s: "loc:@resnet_model/conv2d_8/kernel"
      }
    }
  }
  attr {
    key: "container"
    value {
      s: ""
    }
  }
  attr {
    key: "dtype"
    value {
      type: DT_FLOAT
    }
  }
  attr {
    key: "shape"
    value {
      shape {
        dim {
          size: 1
        }
        dim {
          size: 1
        }
        dim {
          size: 256
        }
        dim {
          size: 64
        }
      }
    }
  }
  attr {
    key: "shared_name"
    value {
      s: ""
    }
  }
}
node {
  name: "resnet_model/conv2d_8/Conv2D"
  op: "Conv2D"
  input: "resnet_model/Relu_6"
  input: "resnet_model/conv2d_8/kernel"
  attr {
    key: "T"
    value {
      type: DT_FLOAT
    }
  }
  attr {
    key: "data_format"
    value {
      s: "NHWC"
    }
  }
  attr {
    key: "dilations"
    value {
      list {
        i: 1
        i: 1
        i: 1
        i: 1
      }
    }
  }
  attr {
    key: "explicit_paddings"
    value {
      list {
      }
    }
  }
  attr {
    key: "padding"
    value {
      s: "SAME"
    }
  }
  attr {
    key: "strides"
    value {
      list {
        i: 1
        i: 1
        i: 1
        i: 1
      }
    }
  }
  attr {
    key: "use_cudnn_on_gpu"
    value {
      b: true
    }
  }
}
node {
  name: "resnet_model/batch_normalization_7/gamma"
  op: "VariableV2"
  attr {
    key: "_class"
    value {
      list {
        s: "loc:@resnet_model/batch_normalization_7/gamma"
      }
    }
  }
  attr {
    key: "container"
    value {
      s: ""
    }
  }
  attr {
    key: "dtype"
    value {
      type: DT_FLOAT
    }
  }
  attr {
    key: "shape"
    value {
      shape {
        dim {
          size: 64
        }
      }
    }
  }
  attr {
    key: "shared_name"
    value {
      s: ""
    }
  }
}
node {
  name: "resnet_model/batch_normalization_7/beta"
  op: "VariableV2"
  attr {
    key: "_class"
    value {
      list {
        s: "loc:@resnet_model/batch_normalization_7/beta"
      }
    }
  }
  attr {
    key: "container"
    value {
      s: ""
    }
  }
  attr {
    key: "dtype"
    value {
      type: DT_FLOAT
    }
  }
  attr {
    key: "shape"
    value {
      shape {
        dim {
          size: 64
        }
      }
    }
  }
  attr {
    key: "shared_name"
    value {
      s: ""
    }
  }
}
node {
  name: "resnet_model/batch_normalization_7/moving_mean"
  op: "VariableV2"
  attr {
    key: "_class"
    value {
      list {
        s: "loc:@resnet_model/batch_normalization_7/moving_mean"
      }
    }
  }
  attr {
    key: "container"
    value {
      s: ""
    }
  }
  attr {
    key: "dtype"
    value {
      type: DT_FLOAT
    }
  }
  attr {
    key: "shape"
    value {
      shape {
        dim {
          size: 64
        }
      }
    }
  }
  attr {
    key: "shared_name"
    value {
      s: ""
    }
  }
}
node {
  name: "resnet_model/batch_normalization_7/moving_variance"
  op: "VariableV2"
  attr {
    key: "_class"
    value {
      list {
        s: "loc:@resnet_model/batch_normalization_7/moving_variance"
      }
    }
  }
  attr {
    key: "container"
    value {
      s: ""
    }
  }
  attr {
    key: "dtype"
    value {
      type: DT_FLOAT
    }
  }
  attr {
    key: "shape"
    value {
      shape {
        dim {
          size: 64
        }
      }
    }
  }
  attr {
    key: "shared_name"
    value {
      s: ""
    }
  }
}
node {
  name: "resnet_model/batch_normalization_7/FusedBatchNorm"
  op: "FusedBatchNorm"
  input: "resnet_model/conv2d_8/Conv2D"
  input: "resnet_model/batch_normalization_7/gamma"
  input: "resnet_model/batch_normalization_7/beta"
  input: "resnet_model/batch_normalization_7/moving_mean"
  input: "resnet_model/batch_normalization_7/moving_variance"
  attr {
    key: "T"
    value {
      type: DT_FLOAT
    }
  }
  attr {
    key: "data_format"
    value {
      s: "NHWC"
    }
  }
  attr {
    key: "epsilon"
    value {
      f: 1.0009999641624745e-05
    }
  }
  attr {
    key: "is_training"
    value {
      b: false
    }
  }
}
node {
  name: "resnet_model/Relu_7"
  op: "Relu"
  input: "resnet_model/batch_normalization_7/FusedBatchNorm"
  attr {
    key: "T"
    value {
      type: DT_FLOAT
    }
  }
}
node {
  name: "resnet_model/conv2d_9/kernel"
  op: "VariableV2"
  attr {
    key: "_class"
    value {
      list {
        s: "loc:@resnet_model/conv2d_9/kernel"
      }
    }
  }
  attr {
    key: "container"
    value {
      s: ""
    }
  }
  attr {
    key: "dtype"
    value {
      type: DT_FLOAT
    }
  }
  attr {
    key: "shape"
    value {
      shape {
        dim {
          size: 3
        }
        dim {
          size: 3
        }
        dim {
          size: 64
        }
        dim {
          size: 64
        }
      }
    }
  }
  attr {
    key: "shared_name"
    value {
      s: ""
    }
  }
}
node {
  name: "resnet_model/conv2d_9/Conv2D"
  op: "Conv2D"
  input: "resnet_model/Relu_7"
  input: "resnet_model/conv2d_9/kernel"
  attr {
    key: "T"
    value {
      type: DT_FLOAT
    }
  }
  attr {
    key: "data_format"
    value {
      s: "NHWC"
    }
  }
  attr {
    key: "dilations"
    value {
      list {
        i: 1
        i: 1
        i: 1
        i: 1
      }
    }
  }
  attr {
    key: "explicit_paddings"
    value {
      list {
      }
    }
  }
  attr {
    key: "padding"
    value {
      s: "SAME"
    }
  }
  attr {
    key: "strides"
    value {
      list {
        i: 1
        i: 1
        i: 1
        i: 1
      }
    }
  }
  attr {
    key: "use_cudnn_on_gpu"
    value {
      b: true
    }
  }
}
node {
  name: "resnet_model/batch_normalization_8/gamma"
  op: "VariableV2"
  attr {
    key: "_class"
    value {
      list {
        s: "loc:@resnet_model/batch_normalization_8/gamma"
      }
    }
  }
  attr {
    key: "container"
    value {
      s: ""
    }
  }
  attr {
    key: "dtype"
    value {
      type: DT_FLOAT
    }
  }
  attr {
    key: "shape"
    value {
      shape {
        dim {
          size: 64
        }
      }
    }
  }
  attr {
    key: "shared_name"
    value {
      s: ""
    }
  }
}
node {
  name: "resnet_model/batch_normalization_8/beta"
  op: "VariableV2"
  attr {
    key: "_class"
    value {
      list {
        s: "loc:@resnet_model/batch_normalization_8/beta"
      }
    }
  }
  attr {
    key: "container"
    value {
      s: ""
    }
  }
  attr {
    key: "dtype"
    value {
      type: DT_FLOAT
    }
  }
  attr {
    key: "shape"
    value {
      shape {
        dim {
          size: 64
        }
      }
    }
  }
  attr {
    key: "shared_name"
    value {
      s: ""
    }
  }
}
node {
  name: "resnet_model/batch_normalization_8/moving_mean"
  op: "VariableV2"
  attr {
    key: "_class"
    value {
      list {
        s: "loc:@resnet_model/batch_normalization_8/moving_mean"
      }
    }
  }
  attr {
    key: "container"
    value {
      s: ""
    }
  }
  attr {
    key: "dtype"
    value {
      type: DT_FLOAT
    }
  }
  attr {
    key: "shape"
    value {
      shape {
        dim {
          size: 64
        }
      }
    }
  }
  attr {
    key: "shared_name"
    value {
      s: ""
    }
  }
}
node {
  name: "resnet_model/batch_normalization_8/moving_variance"
  op: "VariableV2"
  attr {
    key: "_class"
    value {
      list {
        s: "loc:@resnet_model/batch_normalization_8/moving_variance"
      }
    }
  }
  attr {
    key: "container"
    value {
      s: ""
    }
  }
  attr {
    key: "dtype"
    value {
      type: DT_FLOAT
    }
  }
  attr {
    key: "shape"
    value {
      shape {
        dim {
          size: 64
        }
      }
    }
  }
  attr {
    key: "shared_name"
    value {
      s: ""
    }
  }
}
node {
  name: "resnet_model/batch_normalization_8/FusedBatchNorm"
  op: "FusedBatchNorm"
  input: "resnet_model/conv2d_9/Conv2D"
  input: "resnet_model/batch_normalization_8/gamma"
  input: "resnet_model/batch_normalization_8/beta"
  input: "resnet_model/batch_normalization_8/moving_mean"
  input: "resnet_model/batch_normalization_8/moving_variance"
  attr {
    key: "T"
    value {
      type: DT_FLOAT
    }
  }
  attr {
    key: "data_format"
    value {
      s: "NHWC"
    }
  }
  attr {
    key: "epsilon"
    value {
      f: 1.0009999641624745e-05
    }
  }
  attr {
    key: "is_training"
    value {
      b: false
    }
  }
}
node {
  name: "resnet_model/Relu_8"
  op: "Relu"
  input: "resnet_model/batch_normalization_8/FusedBatchNorm"
  attr {
    key: "T"
    value {
      type: DT_FLOAT
    }
  }
}
node {
  name: "resnet_model/conv2d_10/kernel"
  op: "VariableV2"
  attr {
    key: "_class"
    value {
      list {
        s: "loc:@resnet_model/conv2d_10/kernel"
      }
    }
  }
  attr {
    key: "container"
    value {
      s: ""
    }
  }
  attr {
    key: "dtype"
    value {
      type: DT_FLOAT
    }
  }
  attr {
    key: "shape"
    value {
      shape {
        dim {
          size: 1
        }
        dim {
          size: 1
        }
        dim {
          size: 64
        }
        dim {
          size: 256
        }
      }
    }
  }
  attr {
    key: "shared_name"
    value {
      s: ""
    }
  }
}
node {
  name: "resnet_model/conv2d_10/Conv2D"
  op: "Conv2D"
  input: "resnet_model/Relu_8"
  input: "resnet_model/conv2d_10/kernel"
  attr {
    key: "T"
    value {
      type: DT_FLOAT
    }
  }
  attr {
    key: "data_format"
    value {
      s: "NHWC"
    }
  }
  attr {
    key: "dilations"
    value {
      list {
        i: 1
        i: 1
        i: 1
        i: 1
      }
    }
  }
  attr {
    key: "explicit_paddings"
    value {
      list {
      }
    }
  }
  attr {
    key: "padding"
    value {
      s: "SAME"
    }
  }
  attr {
    key: "strides"
    value {
      list {
        i: 1
        i: 1
        i: 1
        i: 1
      }
    }
  }
  attr {
    key: "use_cudnn_on_gpu"
    value {
      b: true
    }
  }
}
node {
  name: "resnet_model/add_2"
  op: "Add"
  input: "resnet_model/conv2d_10/Conv2D"
  input: "resnet_model/add_1"
  attr {
    key: "T"
    value {
      type: DT_FLOAT
    }
  }
}
node {
  name: "resnet_model/batch_normalization_9/gamma"
  op: "VariableV2"
  attr {
    key: "_class"
    value {
      list {
        s: "loc:@resnet_model/batch_normalization_9/gamma"
      }
    }
  }
  attr {
    key: "container"
    value {
      s: ""
    }
  }
  attr {
    key: "dtype"
    value {
      type: DT_FLOAT
    }
  }
  attr {
    key: "shape"
    value {
      shape {
        dim {
          size: 256
        }
      }
    }
  }
  attr {
    key: "shared_name"
    value {
      s: ""
    }
  }
}
node {
  name: "resnet_model/batch_normalization_9/beta"
  op: "VariableV2"
  attr {
    key: "_class"
    value {
      list {
        s: "loc:@resnet_model/batch_normalization_9/beta"
      }
    }
  }
  attr {
    key: "container"
    value {
      s: ""
    }
  }
  attr {
    key: "dtype"
    value {
      type: DT_FLOAT
    }
  }
  attr {
    key: "shape"
    value {
      shape {
        dim {
          size: 256
        }
      }
    }
  }
  attr {
    key: "shared_name"
    value {
      s: ""
    }
  }
}
node {
  name: "resnet_model/batch_normalization_9/moving_mean"
  op: "VariableV2"
  attr {
    key: "_class"
    value {
      list {
        s: "loc:@resnet_model/batch_normalization_9/moving_mean"
      }
    }
  }
  attr {
    key: "container"
    value {
      s: ""
    }
  }
  attr {
    key: "dtype"
    value {
      type: DT_FLOAT
    }
  }
  attr {
    key: "shape"
    value {
      shape {
        dim {
          size: 256
        }
      }
    }
  }
  attr {
    key: "shared_name"
    value {
      s: ""
    }
  }
}
node {
  name: "resnet_model/batch_normalization_9/moving_variance"
  op: "VariableV2"
  attr {
    key: "_class"
    value {
      list {
        s: "loc:@resnet_model/batch_normalization_9/moving_variance"
      }
    }
  }
  attr {
    key: "container"
    value {
      s: ""
    }
  }
  attr {
    key: "dtype"
    value {
      type: DT_FLOAT
    }
  }
  attr {
    key: "shape"
    value {
      shape {
        dim {
          size: 256
        }
      }
    }
  }
  attr {
    key: "shared_name"
    value {
      s: ""
    }
  }
}
node {
  name: "resnet_model/batch_normalization_9/FusedBatchNorm"
  op: "FusedBatchNorm"
  input: "resnet_model/add_2"
  input: "resnet_model/batch_normalization_9/gamma"
  input: "resnet_model/batch_normalization_9/beta"
  input: "resnet_model/batch_normalization_9/moving_mean"
  input: "resnet_model/batch_normalization_9/moving_variance"
  attr {
    key: "T"
    value {
      type: DT_FLOAT
    }
  }
  attr {
    key: "data_format"
    value {
      s: "NHWC"
    }
  }
  attr {
    key: "epsilon"
    value {
      f: 1.0009999641624745e-05
    }
  }
  attr {
    key: "is_training"
    value {
      b: false
    }
  }
}
node {
  name: "resnet_model/Relu_9"
  op: "Relu"
  input: "resnet_model/batch_normalization_9/FusedBatchNorm"
  attr {
    key: "T"
    value {
      type: DT_FLOAT
    }
  }
}
node {
  name: "resnet_model/Pad_1/paddings"
  op: "Const"
  attr {
    key: "dtype"
    value {
      type: DT_INT32
    }
  }
  attr {
    key: "value"
    value {
      tensor {
        dtype: DT_INT32
        tensor_shape {
          dim {
            size: 4
          }
          dim {
            size: 2
          }
        }
        tensor_content: "…"
      }
    }
  }
}
node {
  name: "resnet_model/Pad_1"
  op: "Pad"
  input: "resnet_model/Relu_9"
  input: "resnet_model/Pad_1/paddings"
  attr {
    key: "T"
    value {
      type: DT_FLOAT
    }
  }
  attr {
    key: "Tpaddings"
    value {
      type: DT_INT32
    }
  }
}
node {
  name: "resnet_model/conv2d_11/kernel"
  op: "VariableV2"
  attr {
    key: "_class"
    value {
      list {
        s: "loc:@resnet_model/conv2d_11/kernel"
      }
    }
  }
  attr {
    key: "container"
    value {
      s: ""
    }
  }
  attr {
    key: "dtype"
    value {
      type: DT_FLOAT
    }
  }
  attr {
    key: "shape"
    value {
      shape {
        dim {
          size: 1
        }
        dim {
          size: 1
        }
        dim {
          size: 256
        }
        dim {
          size: 512
        }
      }
    }
  }
  attr {
    key: "shared_name"
    value {
      s: ""
    }
  }
}
node {
  name: "resnet_model/conv2d_11/Conv2D"
  op: "Conv2D"
  input: "resnet_model/Pad_1"
  input: "resnet_model/conv2d_11/kernel"
  attr {
    key: "T"
    value {
      type: DT_FLOAT
    }
  }
  attr {
    key: "data_format"
    value {
      s: "NHWC"
    }
  }
  attr {
    key: "dilations"
    value {
      list {
        i: 1
        i: 1
        i: 1
        i: 1
      }
    }
  }
  attr {
    key: "explicit_paddings"
    value {
      list {
      }
    }
  }
  attr {
    key: "padding"
    value {
      s: "VALID"
    }
  }
  attr {
    key: "strides"
    value {
      list {
        i: 1
        i: 2
        i: 2
        i: 1
      }
    }
  }
  attr {
    key: "use_cudnn_on_gpu"
    value {
      b: true
    }
  }
}
node {
  name: "resnet_model/conv2d_12/kernel"
  op: "VariableV2"
  attr {
    key: "_class"
    value {
      list {
        s: "loc:@resnet_model/conv2d_12/kernel"
      }
    }
  }
  attr {
    key: "container"
    value {
      s: ""
    }
  }
  attr {
    key: "dtype"
    value {
      type: DT_FLOAT
    }
  }
  attr {
    key: "shape"
    value {
      shape {
        dim {
          size: 1
        }
        dim {
          size: 1
        }
        dim {
          size: 256
        }
        dim {
          size: 128
        }
      }
    }
  }
  attr {
    key: "shared_name"
    value {
      s: ""
    }
  }
}
node {
  name: "resnet_model/conv2d_12/Conv2D"
  op: "Conv2D"
  input: "resnet_model/Relu_9"
  input: "resnet_model/conv2d_12/kernel"
  attr {
    key: "T"
    value {
      type: DT_FLOAT
    }
  }
  attr {
    key: "data_format"
    value {
      s: "NHWC"
    }
  }
  attr {
    key: "dilations"
    value {
      list {
        i: 1
        i: 1
        i: 1
        i: 1
      }
    }
  }
  attr {
    key: "explicit_paddings"
    value {
      list {
      }
    }
  }
  attr {
    key: "padding"
    value {
      s: "SAME"
    }
  }
  attr {
    key: "strides"
    value {
      list {
        i: 1
        i: 1
        i: 1
        i: 1
      }
    }
  }
  attr {
    key: "use_cudnn_on_gpu"
    value {
      b: true
    }
  }
}
node {
  name: "resnet_model/batch_normalization_10/gamma"
  op: "VariableV2"
  attr {
    key: "_class"
    value {
      list {
        s: "loc:@resnet_model/batch_normalization_10/gamma"
      }
    }
  }
  attr {
    key: "container"
    value {
      s: ""
    }
  }
  attr {
    key: "dtype"
    value {
      type: DT_FLOAT
    }
  }
  attr {
    key: "shape"
    value {
      shape {
        dim {
          size: 128
        }
      }
    }
  }
  attr {
    key: "shared_name"
    value {
      s: ""
    }
  }
}
node {
  name: "resnet_model/batch_normalization_10/beta"
  op: "VariableV2"
  attr {
    key: "_class"
    value {
      list {
        s: "loc:@resnet_model/batch_normalization_10/beta"
      }
    }
  }
  attr {
    key: "container"
    value {
      s: ""
    }
  }
  attr {
    key: "dtype"
    value {
      type: DT_FLOAT
    }
  }
  attr {
    key: "shape"
    value {
      shape {
        dim {
          size: 128
        }
      }
    }
  }
  attr {
    key: "shared_name"
    value {
      s: ""
    }
  }
}
node {
  name: "resnet_model/batch_normalization_10/moving_mean"
  op: "VariableV2"
  attr {
    key: "_class"
    value {
      list {
        s: "loc:@resnet_model/batch_normalization_10/moving_mean"
      }
    }
  }
  attr {
    key: "container"
    value {
      s: ""
    }
  }
  attr {
    key: "dtype"
    value {
      type: DT_FLOAT
    }
  }
  attr {
    key: "shape"
    value {
      shape {
        dim {
          size: 128
        }
      }
    }
  }
  attr {
    key: "shared_name"
    value {
      s: ""
    }
  }
}
node {
  name: "resnet_model/batch_normalization_10/moving_variance"
  op: "VariableV2"
  attr {
    key: "_class"
    value {
      list {
        s: "loc:@resnet_model/batch_normalization_10/moving_variance"
      }
    }
  }
  attr {
    key: "container"
    value {
      s: ""
    }
  }
  attr {
    key: "dtype"
    value {
      type: DT_FLOAT
    }
  }
  attr {
    key: "shape"
    value {
      shape {
        dim {
          size: 128
        }
      }
    }
  }
  attr {
    key: "shared_name"
    value {
      s: ""
    }
  }
}
node {
  name: "resnet_model/batch_normalization_10/FusedBatchNorm"
  op: "FusedBatchNorm"
  input: "resnet_model/conv2d_12/Conv2D"
  input: "resnet_model/batch_normalization_10/gamma"
  input: "resnet_model/batch_normalization_10/beta"
  input: "resnet_model/batch_normalization_10/moving_mean"
  input: "resnet_model/batch_normalization_10/moving_variance"
  attr {
    key: "T"
    value {
      type: DT_FLOAT
    }
  }
  attr {
    key: "data_format"
    value {
      s: "NHWC"
    }
  }
  attr {
    key: "epsilon"
    value {
      f: 1.0009999641624745e-05
    }
  }
  attr {
    key: "is_training"
    value {
      b: false
    }
  }
}
node {
  name: "resnet_model/Relu_10"
  op: "Relu"
  input: "resnet_model/batch_normalization_10/FusedBatchNorm"
  attr {
    key: "T"
    value {
      type: DT_FLOAT
    }
  }
}
node {
  name: "resnet_model/Pad_2/paddings"
  op: "Const"
  attr {
    key: "dtype"
    value {
      type: DT_INT32
    }
  }
  attr {
    key: "value"
    value {
      tensor {
        dtype: DT_INT32
        tensor_shape {
          dim {
            size: 4
          }
          dim {
            size: 2
          }
        }
        tensor_content: "…"
      }
    }
  }
}
node {
  name: "resnet_model/Pad_2"
  op: "Pad"
  input: "resnet_model/Relu_10"
  input: "resnet_model/Pad_2/paddings"
  attr {
    key: "T"
    value {
      type: DT_FLOAT
    }
  }
  attr {
    key: "Tpaddings"
    value {
      type: DT_INT32
    }
  }
}
node {
  name: "resnet_model/conv2d_13/kernel"
  op: "VariableV2"
  attr {
    key: "_class"
    value {
      list {
        s: "loc:@resnet_model/conv2d_13/kernel"
      }
    }
  }
  attr {
    key: "container"
    value {
      s: ""
    }
  }
  attr {
    key: "dtype"
    value {
      type: DT_FLOAT
    }
  }
  attr {
    key: "shape"
    value {
      shape {
        dim {
          size: 3
        }
        dim {
          size: 3
        }
        dim {
          size: 128
        }
        dim {
          size: 128
        }
      }
    }
  }
  attr {
    key: "shared_name"
    value {
      s: ""
    }
  }
}
node {
  name: "resnet_model/conv2d_13/Conv2D"
  op: "Conv2D"
  input: "resnet_model/Pad_2"
  input: "resnet_model/conv2d_13/kernel"
  attr {
    key: "T"
    value {
      type: DT_FLOAT
    }
  }
  attr {
    key: "data_format"
    value {
      s: "NHWC"
    }
  }
  attr {
    key: "dilations"
    value {
      list {
        i: 1
        i: 1
        i: 1
        i: 1
      }
    }
  }
  attr {
    key: "explicit_paddings"
    value {
      list {
      }
    }
  }
  attr {
    key: "padding"
    value {
      s: "VALID"
    }
  }
  attr {
    key: "strides"
    value {
      list {
        i: 1
        i: 2
        i: 2
        i: 1
      }
    }
  }
  attr {
    key: "use_cudnn_on_gpu"
    value {
      b: true
    }
  }
}
node {
  name: "resnet_model/batch_normalization_11/gamma"
  op: "VariableV2"
  attr {
    key: "_class"
    value {
      list {
        s: "loc:@resnet_model/batch_normalization_11/gamma"
      }
    }
  }
  attr {
    key: "container"
    value {
      s: ""
    }
  }
  attr {
    key: "dtype"
    value {
      type: DT_FLOAT
    }
  }
  attr {
    key: "shape"
    value {
      shape {
        dim {
          size: 128
        }
      }
    }
  }
  attr {
    key: "shared_name"
    value {
      s: ""
    }
  }
}
node {
  name: "resnet_model/batch_normalization_11/beta"
  op: "VariableV2"
  attr {
    key: "_class"
    value {
      list {
        s: "loc:@resnet_model/batch_normalization_11/beta"
      }
    }
  }
  attr {
    key: "container"
    value {
      s: ""
    }
  }
  attr {
    key: "dtype"
    value {
      type: DT_FLOAT
    }
  }
  attr {
    key: "shape"
    value {
      shape {
        dim {
          size: 128
        }
      }
    }
  }
  attr {
    key: "shared_name"
    value {
      s: ""
    }
  }
}
node {
  name: "resnet_model/batch_normalization_11/moving_mean"
  op: "VariableV2"
  attr {
    key: "_class"
    value {
      list {
        s: "loc:@resnet_model/batch_normalization_11/moving_mean"
      }
    }
  }
  attr {
    key: "container"
    value {
      s: ""
    }
  }
  attr {
    key: "dtype"
    value {
      type: DT_FLOAT
    }
  }
  attr {
    key: "shape"
    value {
      shape {
        dim {
          size: 128
        }
      }
    }
  }
  attr {
    key: "shared_name"
    value {
      s: ""
    }
  }
}
node {
  name: "resnet_model/batch_normalization_11/moving_variance"
  op: "VariableV2"
  attr {
    key: "_class"
    value {
      list {
        s: "loc:@resnet_model/batch_normalization_11/moving_variance"
      }
    }
  }
  attr {
    key: "container"
    value {
      s: ""
    }
  }
  attr {
    key: "dtype"
    value {
      type: DT_FLOAT
    }
  }
  attr {
    key: "shape"
    value {
      shape {
        dim {
          size: 128
        }
      }
    }
  }
  attr {
    key: "shared_name"
    value {
      s: ""
    }
  }
}
node {
  name: "resnet_model/batch_normalization_11/FusedBatchNorm"
  op: "FusedBatchNorm"
  input: "resnet_model/conv2d_13/Conv2D"
  input: "resnet_model/batch_normalization_11/gamma"
  input: "resnet_model/batch_normalization_11/beta"
  input: "resnet_model/batch_normalization_11/moving_mean"
  input: "resnet_model/batch_normalization_11/moving_variance"
  attr {
    key: "T"
    value {
      type: DT_FLOAT
    }
  }
  attr {
    key: "data_format"
    value {
      s: "NHWC"
    }
  }
  attr {
    key: "epsilon"
    value {
      f: 1.0009999641624745e-05
    }
  }
  attr {
    key: "is_training"
    value {
      b: false
    }
  }
}
node {
  name: "resnet_model/Relu_11"
  op: "Relu"
  input: "resnet_model/batch_normalization_11/FusedBatchNorm"
  attr {
    key: "T"
    value {
      type: DT_FLOAT
    }
  }
}
node {
  name: "resnet_model/conv2d_14/kernel"
  op: "VariableV2"
  attr {
    key: "_class"
    value {
      list {
        s: "loc:@resnet_model/conv2d_14/kernel"
      }
    }
  }
  attr {
    key: "container"
    value {
      s: ""
    }
  }
  attr {
    key: "dtype"
    value {
      type: DT_FLOAT
    }
  }
  attr {
    key: "shape"
    value {
      shape {
        dim {
          size: 1
        }
        dim {
          size: 1
        }
        dim {
          size: 128
        }
        dim {
          size: 512
        }
      }
    }
  }
  attr {
    key: "shared_name"
    value {
      s: ""
    }
  }
}
node {
  name: "resnet_model/conv2d_14/Conv2D"
  op: "Conv2D"
  input: "resnet_model/Relu_11"
  input: "resnet_model/conv2d_14/kernel"
  attr {
    key: "T"
    value {
      type: DT_FLOAT
    }
  }
  attr {
    key: "data_format"
    value {
      s: "NHWC"
    }
  }
  attr {
    key: "dilations"
    value {
      list {
        i: 1
        i: 1
        i: 1
        i: 1
      }
    }
  }
  attr {
    key: "explicit_paddings"
    value {
      list {
      }
    }
  }
  attr {
    key: "padding"
    value {
      s: "SAME"
    }
  }
  attr {
    key: "strides"
    value {
      list {
        i: 1
        i: 1
        i: 1
        i: 1
      }
    }
  }
  attr {
    key: "use_cudnn_on_gpu"
    value {
      b: true
    }
  }
}
node {
  name: "resnet_model/add_3"
  op: "Add"
  input: "resnet_model/conv2d_14/Conv2D"
  input: "resnet_model/conv2d_11/Conv2D"
  attr {
    key: "T"
    value {
      type: DT_FLOAT
    }
  }
}
node {
  name: "resnet_model/batch_normalization_12/gamma"
  op: "VariableV2"
  attr {
    key: "_class"
    value {
      list {
        s: "loc:@resnet_model/batch_normalization_12/gamma"
      }
    }
  }
  attr {
    key: "container"
    value {
      s: ""
    }
  }
  attr {
    key: "dtype"
    value {
      type: DT_FLOAT
    }
  }
  attr {
    key: "shape"
    value {
      shape {
        dim {
          size: 512
        }
      }
    }
  }
  attr {
    key: "shared_name"
    value {
      s: ""
    }
  }
}
node {
  name: "resnet_model/batch_normalization_12/beta"
  op: "VariableV2"
  attr {
    key: "_class"
    value {
      list {
        s: "loc:@resnet_model/batch_normalization_12/beta"
      }
    }
  }
  attr {
    key: "container"
    value {
      s: ""
    }
  }
  attr {
    key: "dtype"
    value {
      type: DT_FLOAT
    }
  }
  attr {
    key: "shape"
    value {
      shape {
        dim {
          size: 512
        }
      }
    }
  }
  attr {
    key: "shared_name"
    value {
      s: ""
    }
  }
}
node {
  name: "resnet_model/batch_normalization_12/moving_mean"
  op: "VariableV2"
  attr {
    key: "_class"
    value {
      list {
        s: "loc:@resnet_model/batch_normalization_12/moving_mean"
      }
    }
  }
  attr {
    key: "container"
    value {
      s: ""
    }
  }
  attr {
    key: "dtype"
    value {
      type: DT_FLOAT
    }
  }
  attr {
    key: "shape"
    value {
      shape {
        dim {
          size: 512
        }
      }
    }
  }
  attr {
    key: "shared_name"
    value {
      s: ""
    }
  }
}
node {
  name: "resnet_model/batch_normalization_12/moving_variance"
  op: "VariableV2"
  attr {
    key: "_class"
    value {
      list {
        s: "loc:@resnet_model/batch_normalization_12/moving_variance"
      }
    }
  }
  attr {
    key: "container"
    value {
      s: ""
    }
  }
  attr {
    key: "dtype"
    value {
      type: DT_FLOAT
    }
  }
  attr {
    key: "shape"
    value {
      shape {
        dim {
          size: 512
        }
      }
    }
  }
  attr {
    key: "shared_name"
    value {
      s: ""
    }
  }
}
node {
  name: "resnet_model/batch_normalization_12/FusedBatchNorm"
  op: "FusedBatchNorm"
  input: "resnet_model/add_3"
  input: "resnet_model/batch_normalization_12/gamma"
  input: "resnet_model/batch_normalization_12/beta"
  input: "resnet_model/batch_normalization_12/moving_mean"
  input: "resnet_model/batch_normalization_12/moving_variance"
  attr {
    key: "T"
    value {
      type: DT_FLOAT
    }
  }
  attr {
    key: "data_format"
    value {
      s: "NHWC"
    }
  }
  attr {
    key: "epsilon"
    value {
      f: 1.0009999641624745e-05
    }
  }
  attr {
    key: "is_training"
    value {
      b: false
    }
  }
}
node {
  name: "resnet_model/Relu_12"
  op: "Relu"
  input: "resnet_model/batch_normalization_12/FusedBatchNorm"
  attr {
    key: "T"
    value {
      type: DT_FLOAT
    }
  }
}
node {
  name: "resnet_model/conv2d_15/kernel"
  op: "VariableV2"
  attr {
    key: "_class"
    value {
      list {
        s: "loc:@resnet_model/conv2d_15/kernel"
      }
    }
  }
  attr {
    key: "container"
    value {
      s: ""
    }
  }
  attr {
    key: "dtype"
    value {
      type: DT_FLOAT
    }
  }
  attr {
    key: "shape"
    value {
      shape {
        dim {
          size: 1
        }
        dim {
          size: 1
        }
        dim {
          size: 512
        }
        dim {
          size: 128
        }
      }
    }
  }
  attr {
    key: "shared_name"
    value {
      s: ""
    }
  }
}
node {
  name: "resnet_model/conv2d_15/Conv2D"
  op: "Conv2D"
  input: "resnet_model/Relu_12"
  input: "resnet_model/conv2d_15/kernel"
  attr {
    key: "T"
    value {
      type: DT_FLOAT
    }
  }
  attr {
    key: "data_format"
    value {
      s: "NHWC"
    }
  }
  attr {
    key: "dilations"
    value {
      list {
        i: 1
        i: 1
        i: 1
        i: 1
      }
    }
  }
  attr {
    key: "explicit_paddings"
    value {
      list {
      }
    }
  }
  attr {
    key: "padding"
    value {
      s: "SAME"
    }
  }
  attr {
    key: "strides"
    value {
      list {
        i: 1
        i: 1
        i: 1
        i: 1
      }
    }
  }
  attr {
    key: "use_cudnn_on_gpu"
    value {
      b: true
    }
  }
}
node {
  name: "resnet_model/batch_normalization_13/gamma"
  op: "VariableV2"
  attr {
    key: "_class"
    value {
      list {
        s: "loc:@resnet_model/batch_normalization_13/gamma"
      }
    }
  }
  attr {
    key: "container"
    value {
      s: ""
    }
  }
  attr {
    key: "dtype"
    value {
      type: DT_FLOAT
    }
  }
  attr {
    key: "shape"
    value {
      shape {
        dim {
          size: 128
        }
      }
    }
  }
  attr {
    key: "shared_name"
    value {
      s: ""
    }
  }
}
node {
  name: "resnet_model/batch_normalization_13/beta"
  op: "VariableV2"
  attr {
    key: "_class"
    value {
      list {
        s: "loc:@resnet_model/batch_normalization_13/beta"
      }
    }
  }
  attr {
    key: "container"
    value {
      s: ""
    }
  }
  attr {
    key: "dtype"
    value {
      type: DT_FLOAT
    }
  }
  attr {
    key: "shape"
    value {
      shape {
        dim {
          size: 128
        }
      }
    }
  }
  attr {
    key: "shared_name"
    value {
      s: ""
    }
  }
}
node {
  name: "resnet_model/batch_normalization_13/moving_mean"
  op: "VariableV2"
  attr {
    key: "_class"
    value {
      list {
        s: "loc:@resnet_model/batch_normalization_13/moving_mean"
      }
    }
  }
  attr {
    key: "container"
    value {
      s: ""
    }
  }
  attr {
    key: "dtype"
    value {
      type: DT_FLOAT
    }
  }
  attr {
    key: "shape"
    value {
      shape {
        dim {
          size: 128
        }
      }
    }
  }
  attr {
    key: "shared_name"
    value {
      s: ""
    }
  }
}
node {
  name: "resnet_model/batch_normalization_13/moving_variance"
  op: "VariableV2"
  attr {
    key: "_class"
    value {
      list {
        s: "loc:@resnet_model/batch_normalization_13/moving_variance"
      }
    }
  }
  attr {
    key: "container"
    value {
      s: ""
    }
  }
  attr {
    key: "dtype"
    value {
      type: DT_FLOAT
    }
  }
  attr {
    key: "shape"
    value {
      shape {
        dim {
          size: 128
        }
      }
    }
  }
  attr {
    key: "shared_name"
    value {
      s: ""
    }
  }
}
node {
  name: "resnet_model/batch_normalization_13/FusedBatchNorm"
  op: "FusedBatchNorm"
  input: "resnet_model/conv2d_15/Conv2D"
  input: "resnet_model/batch_normalization_13/gamma"
  input: "resnet_model/batch_normalization_13/beta"
  input: "resnet_model/batch_normalization_13/moving_mean"
  input: "resnet_model/batch_normalization_13/moving_variance"
  attr {
    key: "T"
    value {
      type: DT_FLOAT
    }
  }
  attr {
    key: "data_format"
    value {
      s: "NHWC"
    }
  }
  attr {
    key: "epsilon"
    value {
      f: 1.0009999641624745e-05
    }
  }
  attr {
    key: "is_training"
    value {
      b: false
    }
  }
}
node {
  name: "resnet_model/Relu_13"
  op: "Relu"
  input: "resnet_model/batch_normalization_13/FusedBatchNorm"
  attr {
    key: "T"
    value {
      type: DT_FLOAT
    }
  }
}
node {
  name: "resnet_model/conv2d_16/kernel"
  op: "VariableV2"
  attr {
    key: "_class"
    value {
      list {
        s: "loc:@resnet_model/conv2d_16/kernel"
      }
    }
  }
  attr {
    key: "container"
    value {
      s: ""
    }
  }
  attr {
    key: "dtype"
    value {
      type: DT_FLOAT
    }
  }
  attr {
    key: "shape"
    value {
      shape {
        dim {
          size: 3
        }
        dim {
          size: 3
        }
        dim {
          size: 128
        }
        dim {
          size: 128
        }
      }
    }
  }
  attr {
    key: "shared_name"
    value {
      s: ""
    }
  }
}
node {
  name: "resnet_model/conv2d_16/Conv2D"
  op: "Conv2D"
  input: "resnet_model/Relu_13"
  input: "resnet_model/conv2d_16/kernel"
  attr {
    key: "T"
    value {
      type: DT_FLOAT
    }
  }
  attr {
    key: "data_format"
    value {
      s: "NHWC"
    }
  }
  attr {
    key: "dilations"
    value {
      list {
        i: 1
        i: 1
        i: 1
        i: 1
      }
    }
  }
  attr {
    key: "explicit_paddings"
    value {
      list {
      }
    }
  }
  attr {
    key: "padding"
    value {
      s: "SAME"
    }
  }
  attr {
    key: "strides"
    value {
      list {
        i: 1
        i: 1
        i: 1
        i: 1
      }
    }
  }
  attr {
    key: "use_cudnn_on_gpu"
    value {
      b: true
    }
  }
}
node {
  name: "resnet_model/batch_normalization_14/gamma"
  op: "VariableV2"
  attr {
    key: "_class"
    value {
      list {
        s: "loc:@resnet_model/batch_normalization_14/gamma"
      }
    }
  }
  attr {
    key: "container"
    value {
      s: ""
    }
  }
  attr {
    key: "dtype"
    value {
      type: DT_FLOAT
    }
  }
  attr {
    key: "shape"
    value {
      shape {
        dim {
          size: 128
        }
      }
    }
  }
  attr {
    key: "shared_name"
    value {
      s: ""
    }
  }
}
node {
  name: "resnet_model/batch_normalization_14/beta"
  op: "VariableV2"
  attr {
    key: "_class"
    value {
      list {
        s: "loc:@resnet_model/batch_normalization_14/beta"
      }
    }
  }
  attr {
    key: "container"
    value {
      s: ""
    }
  }
  attr {
    key: "dtype"
    value {
      type: DT_FLOAT
    }
  }
  attr {
    key: "shape"
    value {
      shape {
        dim {
          size: 128
        }
      }
    }
  }
  attr {
    key: "shared_name"
    value {
      s: ""
    }
  }
}
node {
  name: "resnet_model/batch_normalization_14/moving_mean"
  op: "VariableV2"
  attr {
    key: "_class"
    value {
      list {
        s: "loc:@resnet_model/batch_normalization_14/moving_mean"
      }
    }
  }
  attr {
    key: "container"
    value {
      s: ""
    }
  }
  attr {
    key: "dtype"
    value {
      type: DT_FLOAT
    }
  }
  attr {
    key: "shape"
    value {
      shape {
        dim {
          size: 128
        }
      }
    }
  }
  attr {
    key: "shared_name"
    value {
      s: ""
    }
  }
}
node {
  name: "resnet_model/batch_normalization_14/moving_variance"
  op: "VariableV2"
  attr {
    key: "_class"
    value {
      list {
        s: "loc:@resnet_model/batch_normalization_14/moving_variance"
      }
    }
  }
  attr {
    key: "container"
    value {
      s: ""
    }
  }
  attr {
    key: "dtype"
    value {
      type: DT_FLOAT
    }
  }
  attr {
    key: "shape"
    value {
      shape {
        dim {
          size: 128
        }
      }
    }
  }
  attr {
    key: "shared_name"
    value {
      s: ""
    }
  }
}
node {
  name: "resnet_model/batch_normalization_14/FusedBatchNorm"
  op: "FusedBatchNorm"
  input: "resnet_model/conv2d_16/Conv2D"
  input: "resnet_model/batch_normalization_14/gamma"
  input: "resnet_model/batch_normalization_14/beta"
  input: "resnet_model/batch_normalization_14/moving_mean"
  input: "resnet_model/batch_normalization_14/moving_variance"
  attr {
    key: "T"
    value {
      type: DT_FLOAT
    }
  }
  attr {
    key: "data_format"
    value {
      s: "NHWC"
    }
  }
  attr {
    key: "epsilon"
    value {
      f: 1.0009999641624745e-05
    }
  }
  attr {
    key: "is_training"
    value {
      b: false
    }
  }
}
node {
  name: "resnet_model/Relu_14"
  op: "Relu"
  input: "resnet_model/batch_normalization_14/FusedBatchNorm"
  attr {
    key: "T"
    value {
      type: DT_FLOAT
    }
  }
}
node {
  name: "resnet_model/conv2d_17/kernel"
  op: "VariableV2"
  attr {
    key: "_class"
    value {
      list {
        s: "loc:@resnet_model/conv2d_17/kernel"
      }
    }
  }
  attr {
    key: "container"
    value {
      s: ""
    }
  }
  attr {
    key: "dtype"
    value {
      type: DT_FLOAT
    }
  }
  attr {
    key: "shape"
    value {
      shape {
        dim {
          size: 1
        }
        dim {
          size: 1
        }
        dim {
          size: 128
        }
        dim {
          size: 512
        }
      }
    }
  }
  attr {
    key: "shared_name"
    value {
      s: ""
    }
  }
}
node {
  name: "resnet_model/conv2d_17/Conv2D"
  op: "Conv2D"
  input: "resnet_model/Relu_14"
  input: "resnet_model/conv2d_17/kernel"
  attr {
    key: "T"
    value {
      type: DT_FLOAT
    }
  }
  attr {
    key: "data_format"
    value {
      s: "NHWC"
    }
  }
  attr {
    key: "dilations"
    value {
      list {
        i: 1
        i: 1
        i: 1
        i: 1
      }
    }
  }
  attr {
    key: "explicit_paddings"
    value {
      list {
      }
    }
  }
  attr {
    key: "padding"
    value {
      s: "SAME"
    }
  }
  attr {
    key: "strides"
    value {
      list {
        i: 1
        i: 1
        i: 1
        i: 1
      }
    }
  }
  attr {
    key: "use_cudnn_on_gpu"
    value {
      b: true
    }
  }
}
node {
  name: "resnet_model/add_4"
  op: "Add"
  input: "resnet_model/conv2d_17/Conv2D"
  input: "resnet_model/add_3"
  attr {
    key: "T"
    value {
      type: DT_FLOAT
    }
  }
}
node {
  name: "resnet_model/batch_normalization_15/gamma"
  op: "VariableV2"
  attr {
    key: "_class"
    value {
      list {
        s: "loc:@resnet_model/batch_normalization_15/gamma"
      }
    }
  }
  attr {
    key: "container"
    value {
      s: ""
    }
  }
  attr {
    key: "dtype"
    value {
      type: DT_FLOAT
    }
  }
  attr {
    key: "shape"
    value {
      shape {
        dim {
          size: 512
        }
      }
    }
  }
  attr {
    key: "shared_name"
    value {
      s: ""
    }
  }
}
node {
  name: "resnet_model/batch_normalization_15/beta"
  op: "VariableV2"
  attr {
    key: "_class"
    value {
      list {
        s: "loc:@resnet_model/batch_normalization_15/beta"
      }
    }
  }
  attr {
    key: "container"
    value {
      s: ""
    }
  }
  attr {
    key: "dtype"
    value {
      type: DT_FLOAT
    }
  }
  attr {
    key: "shape"
    value {
      shape {
        dim {
          size: 512
        }
      }
    }
  }
  attr {
    key: "shared_name"
    value {
      s: ""
    }
  }
}
node {
  name: "resnet_model/batch_normalization_15/moving_mean"
  op: "VariableV2"
  attr {
    key: "_class"
    value {
      list {
        s: "loc:@resnet_model/batch_normalization_15/moving_mean"
      }
    }
  }
  attr {
    key: "container"
    value {
      s: ""
    }
  }
  attr {
    key: "dtype"
    value {
      type: DT_FLOAT
    }
  }
  attr {
    key: "shape"
    value {
      shape {
        dim {
          size: 512
        }
      }
    }
  }
  attr {
    key: "shared_name"
    value {
      s: ""
    }
  }
}
node {
  name: "resnet_model/batch_normalization_15/moving_variance"
  op: "VariableV2"
  attr {
    key: "_class"
    value {
      list {
        s: "loc:@resnet_model/batch_normalization_15/moving_variance"
      }
    }
  }
  attr {
    key: "container"
    value {
      s: ""
    }
  }
  attr {
    key: "dtype"
    value {
      type: DT_FLOAT
    }
  }
  attr {
    key: "shape"
    value {
      shape {
        dim {
          size: 512
        }
      }
    }
  }
  attr {
    key: "shared_name"
    value {
      s: ""
    }
  }
}
node {
  name: "resnet_model/batch_normalization_15/FusedBatchNorm"
  op: "FusedBatchNorm"
  input: "resnet_model/add_4"
  input: "resnet_model/batch_normalization_15/gamma"
  input: "resnet_model/batch_normalization_15/beta"
  input: "resnet_model/batch_normalization_15/moving_mean"
  input: "resnet_model/batch_normalization_15/moving_variance"
  attr {
    key: "T"
    value {
      type: DT_FLOAT
    }
  }
  attr {
    key: "data_format"
    value {
      s: "NHWC"
    }
  }
  attr {
    key: "epsilon"
    value {
      f: 1.0009999641624745e-05
    }
  }
  attr {
    key: "is_training"
    value {
      b: false
    }
  }
}
node {
  name: "resnet_model/Relu_15"
  op: "Relu"
  input: "resnet_model/batch_normalization_15/FusedBatchNorm"
  attr {
    key: "T"
    value {
      type: DT_FLOAT
    }
  }
}
node {
  name: "resnet_model/conv2d_18/kernel"
  op: "VariableV2"
  attr {
    key: "_class"
    value {
      list {
        s: "loc:@resnet_model/conv2d_18/kernel"
      }
    }
  }
  attr {
    key: "container"
    value {
      s: ""
    }
  }
  attr {
    key: "dtype"
    value {
      type: DT_FLOAT
    }
  }
  attr {
    key: "shape"
    value {
      shape {
        dim {
          size: 1
        }
        dim {
          size: 1
        }
        dim {
          size: 512
        }
        dim {
          size: 128
        }
      }
    }
  }
  attr {
    key: "shared_name"
    value {
      s: ""
    }
  }
}
node {
  name: "resnet_model/conv2d_18/Conv2D"
  op: "Conv2D"
  input: "resnet_model/Relu_15"
  input: "resnet_model/conv2d_18/kernel"
  attr {
    key: "T"
    value {
      type: DT_FLOAT
    }
  }
  attr {
    key: "data_format"
    value {
      s: "NHWC"
    }
  }
  attr {
    key: "dilations"
    value {
      list {
        i: 1
        i: 1
        i: 1
        i: 1
      }
    }
  }
  attr {
    key: "explicit_paddings"
    value {
      list {
      }
    }
  }
  attr {
    key: "padding"
    value {
      s: "SAME"
    }
  }
  attr {
    key: "strides"
    value {
      list {
        i: 1
        i: 1
        i: 1
        i: 1
      }
    }
  }
  attr {
    key: "use_cudnn_on_gpu"
    value {
      b: true
    }
  }
}
node {
  name: "resnet_model/batch_normalization_16/gamma"
  op: "VariableV2"
  attr {
    key: "_class"
    value {
      list {
        s: "loc:@resnet_model/batch_normalization_16/gamma"
      }
    }
  }
  attr {
    key: "container"
    value {
      s: ""
    }
  }
  attr {
    key: "dtype"
    value {
      type: DT_FLOAT
    }
  }
  attr {
    key: "shape"
    value {
      shape {
        dim {
          size: 128
        }
      }
    }
  }
  attr {
    key: "shared_name"
    value {
      s: ""
    }
  }
}
node {
  name: "resnet_model/batch_normalization_16/beta"
  op: "VariableV2"
  attr {
    key: "_class"
    value {
      list {
        s: "loc:@resnet_model/batch_normalization_16/beta"
      }
    }
  }
  attr {
    key: "container"
    value {
      s: ""
    }
  }
  attr {
    key: "dtype"
    value {
      type: DT_FLOAT
    }
  }
  attr {
    key: "shape"
    value {
      shape {
        dim {
          size: 128
        }
      }
    }
  }
  attr {
    key: "shared_name"
    value {
      s: ""
    }
  }
}
node {
  name: "resnet_model/batch_normalization_16/moving_mean"
  op: "VariableV2"
  attr {
    key: "_class"
    value {
      list {
        s: "loc:@resnet_model/batch_normalization_16/moving_mean"
      }
    }
  }
  attr {
    key: "container"
    value {
      s: ""
    }
  }
  attr {
    key: "dtype"
    value {
      type: DT_FLOAT
    }
  }
  attr {
    key: "shape"
    value {
      shape {
        dim {
          size: 128
        }
      }
    }
  }
  attr {
    key: "shared_name"
    value {
      s: ""
    }
  }
}
node {
  name: "resnet_model/batch_normalization_16/moving_variance"
  op: "VariableV2"
  attr {
    key: "_class"
    value {
      list {
        s: "loc:@resnet_model/batch_normalization_16/moving_variance"
      }
    }
  }
  attr {
    key: "container"
    value {
      s: ""
    }
  }
  attr {
    key: "dtype"
    value {
      type: DT_FLOAT
    }
  }
  attr {
    key: "shape"
    value {
      shape {
        dim {
          size: 128
        }
      }
    }
  }
  attr {
    key: "shared_name"
    value {
      s: ""
    }
  }
}
node {
  name: "resnet_model/batch_normalization_16/FusedBatchNorm"
  op: "FusedBatchNorm"
  input: "resnet_model/conv2d_18/Conv2D"
  input: "resnet_model/batch_normalization_16/gamma"
  input: "resnet_model/batch_normalization_16/beta"
  input: "resnet_model/batch_normalization_16/moving_mean"
  input: "resnet_model/batch_normalization_16/moving_variance"
  attr {
    key: "T"
    value {
      type: DT_FLOAT
    }
  }
  attr {
    key: "data_format"
    value {
      s: "NHWC"
    }
  }
  attr {
    key: "epsilon"
    value {
      f: 1.0009999641624745e-05
    }
  }
  attr {
    key: "is_training"
    value {
      b: false
    }
  }
}
node {
  name: "resnet_model/Relu_16"
  op: "Relu"
  input: "resnet_model/batch_normalization_16/FusedBatchNorm"
  attr {
    key: "T"
    value {
      type: DT_FLOAT
    }
  }
}
node {
  name: "resnet_model/conv2d_19/kernel"
  op: "VariableV2"
  attr {
    key: "_class"
    value {
      list {
        s: "loc:@resnet_model/conv2d_19/kernel"
      }
    }
  }
  attr {
    key: "container"
    value {
      s: ""
    }
  }
  attr {
    key: "dtype"
    value {
      type: DT_FLOAT
    }
  }
  attr {
    key: "shape"
    value {
      shape {
        dim {
          size: 3
        }
        dim {
          size: 3
        }
        dim {
          size: 128
        }
        dim {
          size: 128
        }
      }
    }
  }
  attr {
    key: "shared_name"
    value {
      s: ""
    }
  }
}
node {
  name: "resnet_model/conv2d_19/Conv2D"
  op: "Conv2D"
  input: "resnet_model/Relu_16"
  input: "resnet_model/conv2d_19/kernel"
  attr {
    key: "T"
    value {
      type: DT_FLOAT
    }
  }
  attr {
    key: "data_format"
    value {
      s: "NHWC"
    }
  }
  attr {
    key: "dilations"
    value {
      list {
        i: 1
        i: 1
        i: 1
        i: 1
      }
    }
  }
  attr {
    key: "explicit_paddings"
    value {
      list {
      }
    }
  }
  attr {
    key: "padding"
    value {
      s: "SAME"
    }
  }
  attr {
    key: "strides"
    value {
      list {
        i: 1
        i: 1
        i: 1
        i: 1
      }
    }
  }
  attr {
    key: "use_cudnn_on_gpu"
    value {
      b: true
    }
  }
}
node {
  name: "resnet_model/batch_normalization_17/gamma"
  op: "VariableV2"
  attr {
    key: "_class"
    value {
      list {
        s: "loc:@resnet_model/batch_normalization_17/gamma"
      }
    }
  }
  attr {
    key: "container"
    value {
      s: ""
    }
  }
  attr {
    key: "dtype"
    value {
      type: DT_FLOAT
    }
  }
  attr {
    key: "shape"
    value {
      shape {
        dim {
          size: 128
        }
      }
    }
  }
  attr {
    key: "shared_name"
    value {
      s: ""
    }
  }
}
node {
  name: "resnet_model/batch_normalization_17/beta"
  op: "VariableV2"
  attr {
    key: "_class"
    value {
      list {
        s: "loc:@resnet_model/batch_normalization_17/beta"
      }
    }
  }
  attr {
    key: "container"
    value {
      s: ""
    }
  }
  attr {
    key: "dtype"
    value {
      type: DT_FLOAT
    }
  }
  attr {
    key: "shape"
    value {
      shape {
        dim {
          size: 128
        }
      }
    }
  }
  attr {
    key: "shared_name"
    value {
      s: ""
    }
  }
}
node {
  name: "resnet_model/batch_normalization_17/moving_mean"
  op: "VariableV2"
  attr {
    key: "_class"
    value {
      list {
        s: "loc:@resnet_model/batch_normalization_17/moving_mean"
      }
    }
  }
  attr {
    key: "container"
    value {
      s: ""
    }
  }
  attr {
    key: "dtype"
    value {
      type: DT_FLOAT
    }
  }
  attr {
    key: "shape"
    value {
      shape {
        dim {
          size: 128
        }
      }
    }
  }
  attr {
    key: "shared_name"
    value {
      s: ""
    }
  }
}
node {
  name: "resnet_model/batch_normalization_17/moving_variance"
  op: "VariableV2"
  attr {
    key: "_class"
    value {
      list {
        s: "loc:@resnet_model/batch_normalization_17/moving_variance"
      }
    }
  }
  attr {
    key: "container"
    value {
      s: ""
    }
  }
  attr {
    key: "dtype"
    value {
      type: DT_FLOAT
    }
  }
  attr {
    key: "shape"
    value {
      shape {
        dim {
          size: 128
        }
      }
    }
  }
  attr {
    key: "shared_name"
    value {
      s: ""
    }
  }
}
node {
  name: "resnet_model/batch_normalization_17/FusedBatchNorm"
  op: "FusedBatchNorm"
  input: "resnet_model/conv2d_19/Conv2D"
  input: "resnet_model/batch_normalization_17/gamma"
  input: "resnet_model/batch_normalization_17/beta"
  input: "resnet_model/batch_normalization_17/moving_mean"
  input: "resnet_model/batch_normalization_17/moving_variance"
  attr {
    key: "T"
    value {
      type: DT_FLOAT
    }
  }
  attr {
    key: "data_format"
    value {
      s: "NHWC"
    }
  }
  attr {
    key: "epsilon"
    value {
      f: 1.0009999641624745e-05
    }
  }
  attr {
    key: "is_training"
    value {
      b: false
    }
  }
}
node {
  name: "resnet_model/Relu_17"
  op: "Relu"
  input: "resnet_model/batch_normalization_17/FusedBatchNorm"
  attr {
    key: "T"
    value {
      type: DT_FLOAT
    }
  }
}
node {
  name: "resnet_model/conv2d_20/kernel"
  op: "VariableV2"
  attr {
    key: "_class"
    value {
      list {
        s: "loc:@resnet_model/conv2d_20/kernel"
      }
    }
  }
  attr {
    key: "container"
    value {
      s: ""
    }
  }
  attr {
    key: "dtype"
    value {
      type: DT_FLOAT
    }
  }
  attr {
    key: "shape"
    value {
      shape {
        dim {
          size: 1
        }
        dim {
          size: 1
        }
        dim {
          size: 128
        }
        dim {
          size: 512
        }
      }
    }
  }
  attr {
    key: "shared_name"
    value {
      s: ""
    }
  }
}
node {
  name: "resnet_model/conv2d_20/Conv2D"
  op: "Conv2D"
  input: "resnet_model/Relu_17"
  input: "resnet_model/conv2d_20/kernel"
  attr {
    key: "T"
    value {
      type: DT_FLOAT
    }
  }
  attr {
    key: "data_format"
    value {
      s: "NHWC"
    }
  }
  attr {
    key: "dilations"
    value {
      list {
        i: 1
        i: 1
        i: 1
        i: 1
      }
    }
  }
  attr {
    key: "explicit_paddings"
    value {
      list {
      }
    }
  }
  attr {
    key: "padding"
    value {
      s: "SAME"
    }
  }
  attr {
    key: "strides"
    value {
      list {
        i: 1
        i: 1
        i: 1
        i: 1
      }
    }
  }
  attr {
    key: "use_cudnn_on_gpu"
    value {
      b: true
    }
  }
}
node {
  name: "resnet_model/add_5"
  op: "Add"
  input: "resnet_model/conv2d_20/Conv2D"
  input: "resnet_model/add_4"
  attr {
    key: "T"
    value {
      type: DT_FLOAT
    }
  }
}
node {
  name: "resnet_model/batch_normalization_18/gamma"
  op: "VariableV2"
  attr {
    key: "_class"
    value {
      list {
        s: "loc:@resnet_model/batch_normalization_18/gamma"
      }
    }
  }
  attr {
    key: "container"
    value {
      s: ""
    }
  }
  attr {
    key: "dtype"
    value {
      type: DT_FLOAT
    }
  }
  attr {
    key: "shape"
    value {
      shape {
        dim {
          size: 512
        }
      }
    }
  }
  attr {
    key: "shared_name"
    value {
      s: ""
    }
  }
}
node {
  name: "resnet_model/batch_normalization_18/beta"
  op: "VariableV2"
  attr {
    key: "_class"
    value {
      list {
        s: "loc:@resnet_model/batch_normalization_18/beta"
      }
    }
  }
  attr {
    key: "container"
    value {
      s: ""
    }
  }
  attr {
    key: "dtype"
    value {
      type: DT_FLOAT
    }
  }
  attr {
    key: "shape"
    value {
      shape {
        dim {
          size: 512
        }
      }
    }
  }
  attr {
    key: "shared_name"
    value {
      s: ""
    }
  }
}
node {
  name: "resnet_model/batch_normalization_18/moving_mean"
  op: "VariableV2"
  attr {
    key: "_class"
    value {
      list {
        s: "loc:@resnet_model/batch_normalization_18/moving_mean"
      }
    }
  }
  attr {
    key: "container"
    value {
      s: ""
    }
  }
  attr {
    key: "dtype"
    value {
      type: DT_FLOAT
    }
  }
  attr {
    key: "shape"
    value {
      shape {
        dim {
          size: 512
        }
      }
    }
  }
  attr {
    key: "shared_name"
    value {
      s: ""
    }
  }
}
node {
  name: "resnet_model/batch_normalization_18/moving_variance"
  op: "VariableV2"
  attr {
    key: "_class"
    value {
      list {
        s: "loc:@resnet_model/batch_normalization_18/moving_variance"
      }
    }
  }
  attr {
    key: "container"
    value {
      s: ""
    }
  }
  attr {
    key: "dtype"
    value {
      type: DT_FLOAT
    }
  }
  attr {
    key: "shape"
    value {
      shape {
        dim {
          size: 512
        }
      }
    }
  }
  attr {
    key: "shared_name"
    value {
      s: ""
    }
  }
}
node {
  name: "resnet_model/batch_normalization_18/FusedBatchNorm"
  op: "FusedBatchNorm"
  input: "resnet_model/add_5"
  input: "resnet_model/batch_normalization_18/gamma"
  input: "resnet_model/batch_normalization_18/beta"
  input: "resnet_model/batch_normalization_18/moving_mean"
  input: "resnet_model/batch_normalization_18/moving_variance"
  attr {
    key: "T"
    value {
      type: DT_FLOAT
    }
  }
  attr {
    key: "data_format"
    value {
      s: "NHWC"
    }
  }
  attr {
    key: "epsilon"
    value {
      f: 1.0009999641624745e-05
    }
  }
  attr {
    key: "is_training"
    value {
      b: false
    }
  }
}
node {
  name: "resnet_model/Relu_18"
  op: "Relu"
  input: "resnet_model/batch_normalization_18/FusedBatchNorm"
  attr {
    key: "T"
    value {
      type: DT_FLOAT
    }
  }
}
node {
  name: "resnet_model/conv2d_21/kernel"
  op: "VariableV2"
  attr {
    key: "_class"
    value {
      list {
        s: "loc:@resnet_model/conv2d_21/kernel"
      }
    }
  }
  attr {
    key: "container"
    value {
      s: ""
    }
  }
  attr {
    key: "dtype"
    value {
      type: DT_FLOAT
    }
  }
  attr {
    key: "shape"
    value {
      shape {
        dim {
          size: 1
        }
        dim {
          size: 1
        }
        dim {
          size: 512
        }
        dim {
          size: 128
        }
      }
    }
  }
  attr {
    key: "shared_name"
    value {
      s: ""
    }
  }
}
node {
  name: "resnet_model/conv2d_21/Conv2D"
  op: "Conv2D"
  input: "resnet_model/Relu_18"
  input: "resnet_model/conv2d_21/kernel"
  attr {
    key: "T"
    value {
      type: DT_FLOAT
    }
  }
  attr {
    key: "data_format"
    value {
      s: "NHWC"
    }
  }
  attr {
    key: "dilations"
    value {
      list {
        i: 1
        i: 1
        i: 1
        i: 1
      }
    }
  }
  attr {
    key: "explicit_paddings"
    value {
      list {
      }
    }
  }
  attr {
    key: "padding"
    value {
      s: "SAME"
    }
  }
  attr {
    key: "strides"
    value {
      list {
        i: 1
        i: 1
        i: 1
        i: 1
      }
    }
  }
  attr {
    key: "use_cudnn_on_gpu"
    value {
      b: true
    }
  }
}
node {
  name: "resnet_model/batch_normalization_19/gamma"
  op: "VariableV2"
  attr {
    key: "_class"
    value {
      list {
        s: "loc:@resnet_model/batch_normalization_19/gamma"
      }
    }
  }
  attr {
    key: "container"
    value {
      s: ""
    }
  }
  attr {
    key: "dtype"
    value {
      type: DT_FLOAT
    }
  }
  attr {
    key: "shape"
    value {
      shape {
        dim {
          size: 128
        }
      }
    }
  }
  attr {
    key: "shared_name"
    value {
      s: ""
    }
  }
}
node {
  name: "resnet_model/batch_normalization_19/beta"
  op: "VariableV2"
  attr {
    key: "_class"
    value {
      list {
        s: "loc:@resnet_model/batch_normalization_19/beta"
      }
    }
  }
  attr {
    key: "container"
    value {
      s: ""
    }
  }
  attr {
    key: "dtype"
    value {
      type: DT_FLOAT
    }
  }
  attr {
    key: "shape"
    value {
      shape {
        dim {
          size: 128
        }
      }
    }
  }
  attr {
    key: "shared_name"
    value {
      s: ""
    }
  }
}
node {
  name: "resnet_model/batch_normalization_19/moving_mean"
  op: "VariableV2"
  attr {
    key: "_class"
    value {
      list {
        s: "loc:@resnet_model/batch_normalization_19/moving_mean"
      }
    }
  }
  attr {
    key: "container"
    value {
      s: ""
    }
  }
  attr {
    key: "dtype"
    value {
      type: DT_FLOAT
    }
  }
  attr {
    key: "shape"
    value {
      shape {
        dim {
          size: 128
        }
      }
    }
  }
  attr {
    key: "shared_name"
    value {
      s: ""
    }
  }
}
node {
  name: "resnet_model/batch_normalization_19/moving_variance"
  op: "VariableV2"
  attr {
    key: "_class"
    value {
      list {
        s: "loc:@resnet_model/batch_normalization_19/moving_variance"
      }
    }
  }
  attr {
    key: "container"
    value {
      s: ""
    }
  }
  attr {
    key: "dtype"
    value {
      type: DT_FLOAT
    }
  }
  attr {
    key: "shape"
    value {
      shape {
        dim {
          size: 128
        }
      }
    }
  }
  attr {
    key: "shared_name"
    value {
      s: ""
    }
  }
}
node {
  name: "resnet_model/batch_normalization_19/FusedBatchNorm"
  op: "FusedBatchNorm"
  input: "resnet_model/conv2d_21/Conv2D"
  input: "resnet_model/batch_normalization_19/gamma"
  input: "resnet_model/batch_normalization_19/beta"
  input: "resnet_model/batch_normalization_19/moving_mean"
  input: "resnet_model/batch_normalization_19/moving_variance"
  attr {
    key: "T"
    value {
      type: DT_FLOAT
    }
  }
  attr {
    key: "data_format"
    value {
      s: "NHWC"
    }
  }
  attr {
    key: "epsilon"
    value {
      f: 1.0009999641624745e-05
    }
  }
  attr {
    key: "is_training"
    value {
      b: false
    }
  }
}
node {
  name: "resnet_model/Relu_19"
  op: "Relu"
  input: "resnet_model/batch_normalization_19/FusedBatchNorm"
  attr {
    key: "T"
    value {
      type: DT_FLOAT
    }
  }
}
node {
  name: "resnet_model/conv2d_22/kernel"
  op: "VariableV2"
  attr {
    key: "_class"
    value {
      list {
        s: "loc:@resnet_model/conv2d_22/kernel"
      }
    }
  }
  attr {
    key: "container"
    value {
      s: ""
    }
  }
  attr {
    key: "dtype"
    value {
      type: DT_FLOAT
    }
  }
  attr {
    key: "shape"
    value {
      shape {
        dim {
          size: 3
        }
        dim {
          size: 3
        }
        dim {
          size: 128
        }
        dim {
          size: 128
        }
      }
    }
  }
  attr {
    key: "shared_name"
    value {
      s: ""
    }
  }
}
node {
  name: "resnet_model/conv2d_22/Conv2D"
  op: "Conv2D"
  input: "resnet_model/Relu_19"
  input: "resnet_model/conv2d_22/kernel"
  attr {
    key: "T"
    value {
      type: DT_FLOAT
    }
  }
  attr {
    key: "data_format"
    value {
      s: "NHWC"
    }
  }
  attr {
    key: "dilations"
    value {
      list {
        i: 1
        i: 1
        i: 1
        i: 1
      }
    }
  }
  attr {
    key: "explicit_paddings"
    value {
      list {
      }
    }
  }
  attr {
    key: "padding"
    value {
      s: "SAME"
    }
  }
  attr {
    key: "strides"
    value {
      list {
        i: 1
        i: 1
        i: 1
        i: 1
      }
    }
  }
  attr {
    key: "use_cudnn_on_gpu"
    value {
      b: true
    }
  }
}
node {
  name: "resnet_model/batch_normalization_20/gamma"
  op: "VariableV2"
  attr {
    key: "_class"
    value {
      list {
        s: "loc:@resnet_model/batch_normalization_20/gamma"
      }
    }
  }
  attr {
    key: "container"
    value {
      s: ""
    }
  }
  attr {
    key: "dtype"
    value {
      type: DT_FLOAT
    }
  }
  attr {
    key: "shape"
    value {
      shape {
        dim {
          size: 128
        }
      }
    }
  }
  attr {
    key: "shared_name"
    value {
      s: ""
    }
  }
}
node {
  name: "resnet_model/batch_normalization_20/beta"
  op: "VariableV2"
  attr {
    key: "_class"
    value {
      list {
        s: "loc:@resnet_model/batch_normalization_20/beta"
      }
    }
  }
  attr {
    key: "container"
    value {
      s: ""
    }
  }
  attr {
    key: "dtype"
    value {
      type: DT_FLOAT
    }
  }
  attr {
    key: "shape"
    value {
      shape {
        dim {
          size: 128
        }
      }
    }
  }
  attr {
    key: "shared_name"
    value {
      s: ""
    }
  }
}
node {
  name: "resnet_model/batch_normalization_20/moving_mean"
  op: "VariableV2"
  attr {
    key: "_class"
    value {
      list {
        s: "loc:@resnet_model/batch_normalization_20/moving_mean"
      }
    }
  }
  attr {
    key: "container"
    value {
      s: ""
    }
  }
  attr {
    key: "dtype"
    value {
      type: DT_FLOAT
    }
  }
  attr {
    key: "shape"
    value {
      shape {
        dim {
          size: 128
        }
      }
    }
  }
  attr {
    key: "shared_name"
    value {
      s: ""
    }
  }
}
node {
  name: "resnet_model/batch_normalization_20/moving_variance"
  op: "VariableV2"
  attr {
    key: "_class"
    value {
      list {
        s: "loc:@resnet_model/batch_normalization_20/moving_variance"
      }
    }
  }
  attr {
    key: "container"
    value {
      s: ""
    }
  }
  attr {
    key: "dtype"
    value {
      type: DT_FLOAT
    }
  }
  attr {
    key: "shape"
    value {
      shape {
        dim {
          size: 128
        }
      }
    }
  }
  attr {
    key: "shared_name"
    value {
      s: ""
    }
  }
}
node {
  name: "resnet_model/batch_normalization_20/FusedBatchNorm"
  op: "FusedBatchNorm"
  input: "resnet_model/conv2d_22/Conv2D"
  input: "resnet_model/batch_normalization_20/gamma"
  input: "resnet_model/batch_normalization_20/beta"
  input: "resnet_model/batch_normalization_20/moving_mean"
  input: "resnet_model/batch_normalization_20/moving_variance"
  attr {
    key: "T"
    value {
      type: DT_FLOAT
    }
  }
  attr {
    key: "data_format"
    value {
      s: "NHWC"
    }
  }
  attr {
    key: "epsilon"
    value {
      f: 1.0009999641624745e-05
    }
  }
  attr {
    key: "is_training"
    value {
      b: false
    }
  }
}
node {
  name: "resnet_model/Relu_20"
  op: "Relu"
  input: "resnet_model/batch_normalization_20/FusedBatchNorm"
  attr {
    key: "T"
    value {
      type: DT_FLOAT
    }
  }
}
node {
  name: "resnet_model/conv2d_23/kernel"
  op: "VariableV2"
  attr {
    key: "_class"
    value {
      list {
        s: "loc:@resnet_model/conv2d_23/kernel"
      }
    }
  }
  attr {
    key: "container"
    value {
      s: ""
    }
  }
  attr {
    key: "dtype"
    value {
      type: DT_FLOAT
    }
  }
  attr {
    key: "shape"
    value {
      shape {
        dim {
          size: 1
        }
        dim {
          size: 1
        }
        dim {
          size: 128
        }
        dim {
          size: 512
        }
      }
    }
  }
  attr {
    key: "shared_name"
    value {
      s: ""
    }
  }
}
node {
  name: "resnet_model/conv2d_23/Conv2D"
  op: "Conv2D"
  input: "resnet_model/Relu_20"
  input: "resnet_model/conv2d_23/kernel"
  attr {
    key: "T"
    value {
      type: DT_FLOAT
    }
  }
  attr {
    key: "data_format"
    value {
      s: "NHWC"
    }
  }
  attr {
    key: "dilations"
    value {
      list {
        i: 1
        i: 1
        i: 1
        i: 1
      }
    }
  }
  attr {
    key: "explicit_paddings"
    value {
      list {
      }
    }
  }
  attr {
    key: "padding"
    value {
      s: "SAME"
    }
  }
  attr {
    key: "strides"
    value {
      list {
        i: 1
        i: 1
        i: 1
        i: 1
      }
    }
  }
  attr {
    key: "use_cudnn_on_gpu"
    value {
      b: true
    }
  }
}
node {
  name: "resnet_model/add_6"
  op: "Add"
  input: "resnet_model/conv2d_23/Conv2D"
  input: "resnet_model/add_5"
  attr {
    key: "T"
    value {
      type: DT_FLOAT
    }
  }
}
node {
  name: "resnet_model/batch_normalization_21/gamma"
  op: "VariableV2"
  attr {
    key: "_class"
    value {
      list {
        s: "loc:@resnet_model/batch_normalization_21/gamma"
      }
    }
  }
  attr {
    key: "container"
    value {
      s: ""
    }
  }
  attr {
    key: "dtype"
    value {
      type: DT_FLOAT
    }
  }
  attr {
    key: "shape"
    value {
      shape {
        dim {
          size: 512
        }
      }
    }
  }
  attr {
    key: "shared_name"
    value {
      s: ""
    }
  }
}
node {
  name: "resnet_model/batch_normalization_21/beta"
  op: "VariableV2"
  attr {
    key: "_class"
    value {
      list {
        s: "loc:@resnet_model/batch_normalization_21/beta"
      }
    }
  }
  attr {
    key: "container"
    value {
      s: ""
    }
  }
  attr {
    key: "dtype"
    value {
      type: DT_FLOAT
    }
  }
  attr {
    key: "shape"
    value {
      shape {
        dim {
          size: 512
        }
      }
    }
  }
  attr {
    key: "shared_name"
    value {
      s: ""
    }
  }
}
node {
  name: "resnet_model/batch_normalization_21/moving_mean"
  op: "VariableV2"
  attr {
    key: "_class"
    value {
      list {
        s: "loc:@resnet_model/batch_normalization_21/moving_mean"
      }
    }
  }
  attr {
    key: "container"
    value {
      s: ""
    }
  }
  attr {
    key: "dtype"
    value {
      type: DT_FLOAT
    }
  }
  attr {
    key: "shape"
    value {
      shape {
        dim {
          size: 512
        }
      }
    }
  }
  attr {
    key: "shared_name"
    value {
      s: ""
    }
  }
}
node {
  name: "resnet_model/batch_normalization_21/moving_variance"
  op: "VariableV2"
  attr {
    key: "_class"
    value {
      list {
        s: "loc:@resnet_model/batch_normalization_21/moving_variance"
      }
    }
  }
  attr {
    key: "container"
    value {
      s: ""
    }
  }
  attr {
    key: "dtype"
    value {
      type: DT_FLOAT
    }
  }
  attr {
    key: "shape"
    value {
      shape {
        dim {
          size: 512
        }
      }
    }
  }
  attr {
    key: "shared_name"
    value {
      s: ""
    }
  }
}
node {
  name: "resnet_model/batch_normalization_21/FusedBatchNorm"
  op: "FusedBatchNorm"
  input: "resnet_model/add_6"
  input: "resnet_model/batch_normalization_21/gamma"
  input: "resnet_model/batch_normalization_21/beta"
  input: "resnet_model/batch_normalization_21/moving_mean"
  input: "resnet_model/batch_normalization_21/moving_variance"
  attr {
    key: "T"
    value {
      type: DT_FLOAT
    }
  }
  attr {
    key: "data_format"
    value {
      s: "NHWC"
    }
  }
  attr {
    key: "epsilon"
    value {
      f: 1.0009999641624745e-05
    }
  }
  attr {
    key: "is_training"
    value {
      b: false
    }
  }
}
node {
  name: "resnet_model/Relu_21"
  op: "Relu"
  input: "resnet_model/batch_normalization_21/FusedBatchNorm"
  attr {
    key: "T"
    value {
      type: DT_FLOAT
    }
  }
}
node {
  name: "resnet_model/Pad_3/paddings"
  op: "Const"
  attr {
    key: "dtype"
    value {
      type: DT_INT32
    }
  }
  attr {
    key: "value"
    value {
      tensor {
        dtype: DT_INT32
        tensor_shape {
          dim {
            size: 4
          }
          dim {
            size: 2
          }
        }
        tensor_content: "…"
      }
    }
  }
}
node {
  name: "resnet_model/Pad_3"
  op: "Pad"
  input: "resnet_model/Relu_21"
  input: "resnet_model/Pad_3/paddings"
  attr {
    key: "T"
    value {
      type: DT_FLOAT
    }
  }
  attr {
    key: "Tpaddings"
    value {
      type: DT_INT32
    }
  }
}
node {
  name: "resnet_model/conv2d_24/kernel"
  op: "VariableV2"
  attr {
    key: "_class"
    value {
      list {
        s: "loc:@resnet_model/conv2d_24/kernel"
      }
    }
  }
  attr {
    key: "container"
    value {
      s: ""
    }
  }
  attr {
    key: "dtype"
    value {
      type: DT_FLOAT
    }
  }
  attr {
    key: "shape"
    value {
      shape {
        dim {
          size: 1
        }
        dim {
          size: 1
        }
        dim {
          size: 512
        }
        dim {
          size: 1024
        }
      }
    }
  }
  attr {
    key: "shared_name"
    value {
      s: ""
    }
  }
}
node {
  name: "resnet_model/conv2d_24/Conv2D"
  op: "Conv2D"
  input: "resnet_model/Pad_3"
  input: "resnet_model/conv2d_24/kernel"
  attr {
    key: "T"
    value {
      type: DT_FLOAT
    }
  }
  attr {
    key: "data_format"
    value {
      s: "NHWC"
    }
  }
  attr {
    key: "dilations"
    value {
      list {
        i: 1
        i: 1
        i: 1
        i: 1
      }
    }
  }
  attr {
    key: "explicit_paddings"
    value {
      list {
      }
    }
  }
  attr {
    key: "padding"
    value {
      s: "VALID"
    }
  }
  attr {
    key: "strides"
    value {
      list {
        i: 1
        i: 2
        i: 2
        i: 1
      }
    }
  }
  attr {
    key: "use_cudnn_on_gpu"
    value {
      b: true
    }
  }
}
node {
  name: "resnet_model/conv2d_25/kernel"
  op: "VariableV2"
  attr {
    key: "_class"
    value {
      list {
        s: "loc:@resnet_model/conv2d_25/kernel"
      }
    }
  }
  attr {
    key: "container"
    value {
      s: ""
    }
  }
  attr {
    key: "dtype"
    value {
      type: DT_FLOAT
    }
  }
  attr {
    key: "shape"
    value {
      shape {
        dim {
          size: 1
        }
        dim {
          size: 1
        }
        dim {
          size: 512
        }
        dim {
          size: 256
        }
      }
    }
  }
  attr {
    key: "shared_name"
    value {
      s: ""
    }
  }
}
node {
  name: "resnet_model/conv2d_25/Conv2D"
  op: "Conv2D"
  input: "resnet_model/Relu_21"
  input: "resnet_model/conv2d_25/kernel"
  attr {
    key: "T"
    value {
      type: DT_FLOAT
    }
  }
  attr {
    key: "data_format"
    value {
      s: "NHWC"
    }
  }
  attr {
    key: "dilations"
    value {
      list {
        i: 1
        i: 1
        i: 1
        i: 1
      }
    }
  }
  attr {
    key: "explicit_paddings"
    value {
      list {
      }
    }
  }
  attr {
    key: "padding"
    value {
      s: "SAME"
    }
  }
  attr {
    key: "strides"
    value {
      list {
        i: 1
        i: 1
        i: 1
        i: 1
      }
    }
  }
  attr {
    key: "use_cudnn_on_gpu"
    value {
      b: true
    }
  }
}
node {
  name: "resnet_model/batch_normalization_22/gamma"
  op: "VariableV2"
  attr {
    key: "_class"
    value {
      list {
        s: "loc:@resnet_model/batch_normalization_22/gamma"
      }
    }
  }
  attr {
    key: "container"
    value {
      s: ""
    }
  }
  attr {
    key: "dtype"
    value {
      type: DT_FLOAT
    }
  }
  attr {
    key: "shape"
    value {
      shape {
        dim {
          size: 256
        }
      }
    }
  }
  attr {
    key: "shared_name"
    value {
      s: ""
    }
  }
}
node {
  name: "resnet_model/batch_normalization_22/beta"
  op: "VariableV2"
  attr {
    key: "_class"
    value {
      list {
        s: "loc:@resnet_model/batch_normalization_22/beta"
      }
    }
  }
  attr {
    key: "container"
    value {
      s: ""
    }
  }
  attr {
    key: "dtype"
    value {
      type: DT_FLOAT
    }
  }
  attr {
    key: "shape"
    value {
      shape {
        dim {
          size: 256
        }
      }
    }
  }
  attr {
    key: "shared_name"
    value {
      s: ""
    }
  }
}
node {
  name: "resnet_model/batch_normalization_22/moving_mean"
  op: "VariableV2"
  attr {
    key: "_class"
    value {
      list {
        s: "loc:@resnet_model/batch_normalization_22/moving_mean"
      }
    }
  }
  attr {
    key: "container"
    value {
      s: ""
    }
  }
  attr {
    key: "dtype"
    value {
      type: DT_FLOAT
    }
  }
  attr {
    key: "shape"
    value {
      shape {
        dim {
          size: 256
        }
      }
    }
  }
  attr {
    key: "shared_name"
    value {
      s: ""
    }
  }
}
node {
  name: "resnet_model/batch_normalization_22/moving_variance"
  op: "VariableV2"
  attr {
    key: "_class"
    value {
      list {
        s: "loc:@resnet_model/batch_normalization_22/moving_variance"
      }
    }
  }
  attr {
    key: "container"
    value {
      s: ""
    }
  }
  attr {
    key: "dtype"
    value {
      type: DT_FLOAT
    }
  }
  attr {
    key: "shape"
    value {
      shape {
        dim {
          size: 256
        }
      }
    }
  }
  attr {
    key: "shared_name"
    value {
      s: ""
    }
  }
}
node {
  name: "resnet_model/batch_normalization_22/FusedBatchNorm"
  op: "FusedBatchNorm"
  input: "resnet_model/conv2d_25/Conv2D"
  input: "resnet_model/batch_normalization_22/gamma"
  input: "resnet_model/batch_normalization_22/beta"
  input: "resnet_model/batch_normalization_22/moving_mean"
  input: "resnet_model/batch_normalization_22/moving_variance"
  attr {
    key: "T"
    value {
      type: DT_FLOAT
    }
  }
  attr {
    key: "data_format"
    value {
      s: "NHWC"
    }
  }
  attr {
    key: "epsilon"
    value {
      f: 1.0009999641624745e-05
    }
  }
  attr {
    key: "is_training"
    value {
      b: false
    }
  }
}
node {
  name: "resnet_model/Relu_22"
  op: "Relu"
  input: "resnet_model/batch_normalization_22/FusedBatchNorm"
  attr {
    key: "T"
    value {
      type: DT_FLOAT
    }
  }
}
node {
  name: "resnet_model/Pad_4/paddings"
  op: "Const"
  attr {
    key: "dtype"
    value {
      type: DT_INT32
    }
  }
  attr {
    key: "value"
    value {
      tensor {
        dtype: DT_INT32
        tensor_shape {
          dim {
            size: 4
          }
          dim {
            size: 2
          }
        }
        tensor_content: "…"
      }
    }
  }
}
node {
  name: "resnet_model/Pad_4"
  op: "Pad"
  input: "resnet_model/Relu_22"
  input: "resnet_model/Pad_4/paddings"
  attr {
    key: "T"
    value {
      type: DT_FLOAT
    }
  }
  attr {
    key: "Tpaddings"
    value {
      type: DT_INT32
    }
  }
}
node {
  name: "resnet_model/conv2d_26/kernel"
  op: "VariableV2"
  attr {
    key: "_class"
    value {
      list {
        s: "loc:@resnet_model/conv2d_26/kernel"
      }
    }
  }
  attr {
    key: "container"
    value {
      s: ""
    }
  }
  attr {
    key: "dtype"
    value {
      type: DT_FLOAT
    }
  }
  attr {
    key: "shape"
    value {
      shape {
        dim {
          size: 3
        }
        dim {
          size: 3
        }
        dim {
          size: 256
        }
        dim {
          size: 256
        }
      }
    }
  }
  attr {
    key: "shared_name"
    value {
      s: ""
    }
  }
}
node {
  name: "resnet_model/conv2d_26/Conv2D"
  op: "Conv2D"
  input: "resnet_model/Pad_4"
  input: "resnet_model/conv2d_26/kernel"
  attr {
    key: "T"
    value {
      type: DT_FLOAT
    }
  }
  attr {
    key: "data_format"
    value {
      s: "NHWC"
    }
  }
  attr {
    key: "dilations"
    value {
      list {
        i: 1
        i: 1
        i: 1
        i: 1
      }
    }
  }
  attr {
    key: "explicit_paddings"
    value {
      list {
      }
    }
  }
  attr {
    key: "padding"
    value {
      s: "VALID"
    }
  }
  attr {
    key: "strides"
    value {
      list {
        i: 1
        i: 2
        i: 2
        i: 1
      }
    }
  }
  attr {
    key: "use_cudnn_on_gpu"
    value {
      b: true
    }
  }
}
node {
  name: "resnet_model/batch_normalization_23/gamma"
  op: "VariableV2"
  attr {
    key: "_class"
    value {
      list {
        s: "loc:@resnet_model/batch_normalization_23/gamma"
      }
    }
  }
  attr {
    key: "container"
    value {
      s: ""
    }
  }
  attr {
    key: "dtype"
    value {
      type: DT_FLOAT
    }
  }
  attr {
    key: "shape"
    value {
      shape {
        dim {
          size: 256
        }
      }
    }
  }
  attr {
    key: "shared_name"
    value {
      s: ""
    }
  }
}
node {
  name: "resnet_model/batch_normalization_23/beta"
  op: "VariableV2"
  attr {
    key: "_class"
    value {
      list {
        s: "loc:@resnet_model/batch_normalization_23/beta"
      }
    }
  }
  attr {
    key: "container"
    value {
      s: ""
    }
  }
  attr {
    key: "dtype"
    value {
      type: DT_FLOAT
    }
  }
  attr {
    key: "shape"
    value {
      shape {
        dim {
          size: 256
        }
      }
    }
  }
  attr {
    key: "shared_name"
    value {
      s: ""
    }
  }
}
node {
  name: "resnet_model/batch_normalization_23/moving_mean"
  op: "VariableV2"
  attr {
    key: "_class"
    value {
      list {
        s: "loc:@resnet_model/batch_normalization_23/moving_mean"
      }
    }
  }
  attr {
    key: "container"
    value {
      s: ""
    }
  }
  attr {
    key: "dtype"
    value {
      type: DT_FLOAT
    }
  }
  attr {
    key: "shape"
    value {
      shape {
        dim {
          size: 256
        }
      }
    }
  }
  attr {
    key: "shared_name"
    value {
      s: ""
    }
  }
}
node {
  name: "resnet_model/batch_normalization_23/moving_variance"
  op: "VariableV2"
  attr {
    key: "_class"
    value {
      list {
        s: "loc:@resnet_model/batch_normalization_23/moving_variance"
      }
    }
  }
  attr {
    key: "container"
    value {
      s: ""
    }
  }
  attr {
    key: "dtype"
    value {
      type: DT_FLOAT
    }
  }
  attr {
    key: "shape"
    value {
      shape {
        dim {
          size: 256
        }
      }
    }
  }
  attr {
    key: "shared_name"
    value {
      s: ""
    }
  }
}
node {
  name: "resnet_model/batch_normalization_23/FusedBatchNorm"
  op: "FusedBatchNorm"
  input: "resnet_model/conv2d_26/Conv2D"
  input: "resnet_model/batch_normalization_23/gamma"
  input: "resnet_model/batch_normalization_23/beta"
  input: "resnet_model/batch_normalization_23/moving_mean"
  input: "resnet_model/batch_normalization_23/moving_variance"
  attr {
    key: "T"
    value {
      type: DT_FLOAT
    }
  }
  attr {
    key: "data_format"
    value {
      s: "NHWC"
    }
  }
  attr {
    key: "epsilon"
    value {
      f: 1.0009999641624745e-05
    }
  }
  attr {
    key: "is_training"
    value {
      b: false
    }
  }
}
node {
  name: "resnet_model/Relu_23"
  op: "Relu"
  input: "resnet_model/batch_normalization_23/FusedBatchNorm"
  attr {
    key: "T"
    value {
      type: DT_FLOAT
    }
  }
}
node {
  name: "resnet_model/conv2d_27/kernel"
  op: "VariableV2"
  attr {
    key: "_class"
    value {
      list {
        s: "loc:@resnet_model/conv2d_27/kernel"
      }
    }
  }
  attr {
    key: "container"
    value {
      s: ""
    }
  }
  attr {
    key: "dtype"
    value {
      type: DT_FLOAT
    }
  }
  attr {
    key: "shape"
    value {
      shape {
        dim {
          size: 1
        }
        dim {
          size: 1
        }
        dim {
          size: 256
        }
        dim {
          size: 1024
        }
      }
    }
  }
  attr {
    key: "shared_name"
    value {
      s: ""
    }
  }
}
node {
  name: "resnet_model/conv2d_27/Conv2D"
  op: "Conv2D"
  input: "resnet_model/Relu_23"
  input: "resnet_model/conv2d_27/kernel"
  attr {
    key: "T"
    value {
      type: DT_FLOAT
    }
  }
  attr {
    key: "data_format"
    value {
      s: "NHWC"
    }
  }
  attr {
    key: "dilations"
    value {
      list {
        i: 1
        i: 1
        i: 1
        i: 1
      }
    }
  }
  attr {
    key: "explicit_paddings"
    value {
      list {
      }
    }
  }
  attr {
    key: "padding"
    value {
      s: "SAME"
    }
  }
  attr {
    key: "strides"
    value {
      list {
        i: 1
        i: 1
        i: 1
        i: 1
      }
    }
  }
  attr {
    key: "use_cudnn_on_gpu"
    value {
      b: true
    }
  }
}
node {
  name: "resnet_model/add_7"
  op: "Add"
  input: "resnet_model/conv2d_27/Conv2D"
  input: "resnet_model/conv2d_24/Conv2D"
  attr {
    key: "T"
    value {
      type: DT_FLOAT
    }
  }
}
node {
  name: "resnet_model/batch_normalization_24/gamma"
  op: "VariableV2"
  attr {
    key: "_class"
    value {
      list {
        s: "loc:@resnet_model/batch_normalization_24/gamma"
      }
    }
  }
  attr {
    key: "container"
    value {
      s: ""
    }
  }
  attr {
    key: "dtype"
    value {
      type: DT_FLOAT
    }
  }
  attr {
    key: "shape"
    value {
      shape {
        dim {
          size: 1024
        }
      }
    }
  }
  attr {
    key: "shared_name"
    value {
      s: ""
    }
  }
}
node {
  name: "resnet_model/batch_normalization_24/beta"
  op: "VariableV2"
  attr {
    key: "_class"
    value {
      list {
        s: "loc:@resnet_model/batch_normalization_24/beta"
      }
    }
  }
  attr {
    key: "container"
    value {
      s: ""
    }
  }
  attr {
    key: "dtype"
    value {
      type: DT_FLOAT
    }
  }
  attr {
    key: "shape"
    value {
      shape {
        dim {
          size: 1024
        }
      }
    }
  }
  attr {
    key: "shared_name"
    value {
      s: ""
    }
  }
}
node {
  name: "resnet_model/batch_normalization_24/moving_mean"
  op: "VariableV2"
  attr {
    key: "_class"
    value {
      list {
        s: "loc:@resnet_model/batch_normalization_24/moving_mean"
      }
    }
  }
  attr {
    key: "container"
    value {
      s: ""
    }
  }
  attr {
    key: "dtype"
    value {
      type: DT_FLOAT
    }
  }
  attr {
    key: "shape"
    value {
      shape {
        dim {
          size: 1024
        }
      }
    }
  }
  attr {
    key: "shared_name"
    value {
      s: ""
    }
  }
}
node {
  name: "resnet_model/batch_normalization_24/moving_variance"
  op: "VariableV2"
  attr {
    key: "_class"
    value {
      list {
        s: "loc:@resnet_model/batch_normalization_24/moving_variance"
      }
    }
  }
  attr {
    key: "container"
    value {
      s: ""
    }
  }
  attr {
    key: "dtype"
    value {
      type: DT_FLOAT
    }
  }
  attr {
    key: "shape"
    value {
      shape {
        dim {
          size: 1024
        }
      }
    }
  }
  attr {
    key: "shared_name"
    value {
      s: ""
    }
  }
}
node {
  name: "resnet_model/batch_normalization_24/FusedBatchNorm"
  op: "FusedBatchNorm"
  input: "resnet_model/add_7"
  input: "resnet_model/batch_normalization_24/gamma"
  input: "resnet_model/batch_normalization_24/beta"
  input: "resnet_model/batch_normalization_24/moving_mean"
  input: "resnet_model/batch_normalization_24/moving_variance"
  attr {
    key: "T"
    value {
      type: DT_FLOAT
    }
  }
  attr {
    key: "data_format"
    value {
      s: "NHWC"
    }
  }
  attr {
    key: "epsilon"
    value {
      f: 1.0009999641624745e-05
    }
  }
  attr {
    key: "is_training"
    value {
      b: false
    }
  }
}
node {
  name: "resnet_model/Relu_24"
  op: "Relu"
  input: "resnet_model/batch_normalization_24/FusedBatchNorm"
  attr {
    key: "T"
    value {
      type: DT_FLOAT
    }
  }
}
node {
  name: "resnet_model/conv2d_28/kernel"
  op: "VariableV2"
  attr {
    key: "_class"
    value {
      list {
        s: "loc:@resnet_model/conv2d_28/kernel"
      }
    }
  }
  attr {
    key: "container"
    value {
      s: ""
    }
  }
  attr {
    key: "dtype"
    value {
      type: DT_FLOAT
    }
  }
  attr {
    key: "shape"
    value {
      shape {
        dim {
          size: 1
        }
        dim {
          size: 1
        }
        dim {
          size: 1024
        }
        dim {
          size: 256
        }
      }
    }
  }
  attr {
    key: "shared_name"
    value {
      s: ""
    }
  }
}
node {
  name: "resnet_model/conv2d_28/Conv2D"
  op: "Conv2D"
  input: "resnet_model/Relu_24"
  input: "resnet_model/conv2d_28/kernel"
  attr {
    key: "T"
    value {
      type: DT_FLOAT
    }
  }
  attr {
    key: "data_format"
    value {
      s: "NHWC"
    }
  }
  attr {
    key: "dilations"
    value {
      list {
        i: 1
        i: 1
        i: 1
        i: 1
      }
    }
  }
  attr {
    key: "explicit_paddings"
    value {
      list {
      }
    }
  }
  attr {
    key: "padding"
    value {
      s: "SAME"
    }
  }
  attr {
    key: "strides"
    value {
      list {
        i: 1
        i: 1
        i: 1
        i: 1
      }
    }
  }
  attr {
    key: "use_cudnn_on_gpu"
    value {
      b: true
    }
  }
}
node {
  name: "resnet_model/batch_normalization_25/gamma"
  op: "VariableV2"
  attr {
    key: "_class"
    value {
      list {
        s: "loc:@resnet_model/batch_normalization_25/gamma"
      }
    }
  }
  attr {
    key: "container"
    value {
      s: ""
    }
  }
  attr {
    key: "dtype"
    value {
      type: DT_FLOAT
    }
  }
  attr {
    key: "shape"
    value {
      shape {
        dim {
          size: 256
        }
      }
    }
  }
  attr {
    key: "shared_name"
    value {
      s: ""
    }
  }
}
node {
  name: "resnet_model/batch_normalization_25/beta"
  op: "VariableV2"
  attr {
    key: "_class"
    value {
      list {
        s: "loc:@resnet_model/batch_normalization_25/beta"
      }
    }
  }
  attr {
    key: "container"
    value {
      s: ""
    }
  }
  attr {
    key: "dtype"
    value {
      type: DT_FLOAT
    }
  }
  attr {
    key: "shape"
    value {
      shape {
        dim {
          size: 256
        }
      }
    }
  }
  attr {
    key: "shared_name"
    value {
      s: ""
    }
  }
}
node {
  name: "resnet_model/batch_normalization_25/moving_mean"
  op: "VariableV2"
  attr {
    key: "_class"
    value {
      list {
        s: "loc:@resnet_model/batch_normalization_25/moving_mean"
      }
    }
  }
  attr {
    key: "container"
    value {
      s: ""
    }
  }
  attr {
    key: "dtype"
    value {
      type: DT_FLOAT
    }
  }
  attr {
    key: "shape"
    value {
      shape {
        dim {
          size: 256
        }
      }
    }
  }
  attr {
    key: "shared_name"
    value {
      s: ""
    }
  }
}
node {
  name: "resnet_model/batch_normalization_25/moving_variance"
  op: "VariableV2"
  attr {
    key: "_class"
    value {
      list {
        s: "loc:@resnet_model/batch_normalization_25/moving_variance"
      }
    }
  }
  attr {
    key: "container"
    value {
      s: ""
    }
  }
  attr {
    key: "dtype"
    value {
      type: DT_FLOAT
    }
  }
  attr {
    key: "shape"
    value {
      shape {
        dim {
          size: 256
        }
      }
    }
  }
  attr {
    key: "shared_name"
    value {
      s: ""
    }
  }
}
node {
  name: "resnet_model/batch_normalization_25/FusedBatchNorm"
  op: "FusedBatchNorm"
  input: "resnet_model/conv2d_28/Conv2D"
  input: "resnet_model/batch_normalization_25/gamma"
  input: "resnet_model/batch_normalization_25/beta"
  input: "resnet_model/batch_normalization_25/moving_mean"
  input: "resnet_model/batch_normalization_25/moving_variance"
  attr {
    key: "T"
    value {
      type: DT_FLOAT
    }
  }
  attr {
    key: "data_format"
    value {
      s: "NHWC"
    }
  }
  attr {
    key: "epsilon"
    value {
      f: 1.0009999641624745e-05
    }
  }
  attr {
    key: "is_training"
    value {
      b: false
    }
  }
}
node {
  name: "resnet_model/Relu_25"
  op: "Relu"
  input: "resnet_model/batch_normalization_25/FusedBatchNorm"
  attr {
    key: "T"
    value {
      type: DT_FLOAT
    }
  }
}
node {
  name: "resnet_model/conv2d_29/kernel"
  op: "VariableV2"
  attr {
    key: "_class"
    value {
      list {
        s: "loc:@resnet_model/conv2d_29/kernel"
      }
    }
  }
  attr {
    key: "container"
    value {
      s: ""
    }
  }
  attr {
    key: "dtype"
    value {
      type: DT_FLOAT
    }
  }
  attr {
    key: "shape"
    value {
      shape {
        dim {
          size: 3
        }
        dim {
          size: 3
        }
        dim {
          size: 256
        }
        dim {
          size: 256
        }
      }
    }
  }
  attr {
    key: "shared_name"
    value {
      s: ""
    }
  }
}
node {
  name: "resnet_model/conv2d_29/Conv2D"
  op: "Conv2D"
  input: "resnet_model/Relu_25"
  input: "resnet_model/conv2d_29/kernel"
  attr {
    key: "T"
    value {
      type: DT_FLOAT
    }
  }
  attr {
    key: "data_format"
    value {
      s: "NHWC"
    }
  }
  attr {
    key: "dilations"
    value {
      list {
        i: 1
        i: 1
        i: 1
        i: 1
      }
    }
  }
  attr {
    key: "explicit_paddings"
    value {
      list {
      }
    }
  }
  attr {
    key: "padding"
    value {
      s: "SAME"
    }
  }
  attr {
    key: "strides"
    value {
      list {
        i: 1
        i: 1
        i: 1
        i: 1
      }
    }
  }
  attr {
    key: "use_cudnn_on_gpu"
    value {
      b: true
    }
  }
}
node {
  name: "resnet_model/batch_normalization_26/gamma"
  op: "VariableV2"
  attr {
    key: "_class"
    value {
      list {
        s: "loc:@resnet_model/batch_normalization_26/gamma"
      }
    }
  }
  attr {
    key: "container"
    value {
      s: ""
    }
  }
  attr {
    key: "dtype"
    value {
      type: DT_FLOAT
    }
  }
  attr {
    key: "shape"
    value {
      shape {
        dim {
          size: 256
        }
      }
    }
  }
  attr {
    key: "shared_name"
    value {
      s: ""
    }
  }
}
node {
  name: "resnet_model/batch_normalization_26/beta"
  op: "VariableV2"
  attr {
    key: "_class"
    value {
      list {
        s: "loc:@resnet_model/batch_normalization_26/beta"
      }
    }
  }
  attr {
    key: "container"
    value {
      s: ""
    }
  }
  attr {
    key: "dtype"
    value {
      type: DT_FLOAT
    }
  }
  attr {
    key: "shape"
    value {
      shape {
        dim {
          size: 256
        }
      }
    }
  }
  attr {
    key: "shared_name"
    value {
      s: ""
    }
  }
}
node {
  name: "resnet_model/batch_normalization_26/moving_mean"
  op: "VariableV2"
  attr {
    key: "_class"
    value {
      list {
        s: "loc:@resnet_model/batch_normalization_26/moving_mean"
      }
    }
  }
  attr {
    key: "container"
    value {
      s: ""
    }
  }
  attr {
    key: "dtype"
    value {
      type: DT_FLOAT
    }
  }
  attr {
    key: "shape"
    value {
      shape {
        dim {
          size: 256
        }
      }
    }
  }
  attr {
    key: "shared_name"
    value {
      s: ""
    }
  }
}
node {
  name: "resnet_model/batch_normalization_26/moving_variance"
  op: "VariableV2"
  attr {
    key: "_class"
    value {
      list {
        s: "loc:@resnet_model/batch_normalization_26/moving_variance"
      }
    }
  }
  attr {
    key: "container"
    value {
      s: ""
    }
  }
  attr {
    key: "dtype"
    value {
      type: DT_FLOAT
    }
  }
  attr {
    key: "shape"
    value {
      shape {
        dim {
          size: 256
        }
      }
    }
  }
  attr {
    key: "shared_name"
    value {
      s: ""
    }
  }
}
node {
  name: "resnet_model/batch_normalization_26/FusedBatchNorm"
  op: "FusedBatchNorm"
  input: "resnet_model/conv2d_29/Conv2D"
  input: "resnet_model/batch_normalization_26/gamma"
  input: "resnet_model/batch_normalization_26/beta"
  input: "resnet_model/batch_normalization_26/moving_mean"
  input: "resnet_model/batch_normalization_26/moving_variance"
  attr {
    key: "T"
    value {
      type: DT_FLOAT
    }
  }
  attr {
    key: "data_format"
    value {
      s: "NHWC"
    }
  }
  attr {
    key: "epsilon"
    value {
      f: 1.0009999641624745e-05
    }
  }
  attr {
    key: "is_training"
    value {
      b: false
    }
  }
}
node {
  name: "resnet_model/Relu_26"
  op: "Relu"
  input: "resnet_model/batch_normalization_26/FusedBatchNorm"
  attr {
    key: "T"
    value {
      type: DT_FLOAT
    }
  }
}
node {
  name: "resnet_model/conv2d_30/kernel"
  op: "VariableV2"
  attr {
    key: "_class"
    value {
      list {
        s: "loc:@resnet_model/conv2d_30/kernel"
      }
    }
  }
  attr {
    key: "container"
    value {
      s: ""
    }
  }
  attr {
    key: "dtype"
    value {
      type: DT_FLOAT
    }
  }
  attr {
    key: "shape"
    value {
      shape {
        dim {
          size: 1
        }
        dim {
          size: 1
        }
        dim {
          size: 256
        }
        dim {
          size: 1024
        }
      }
    }
  }
  attr {
    key: "shared_name"
    value {
      s: ""
    }
  }
}
node {
  name: "resnet_model/conv2d_30/Conv2D"
  op: "Conv2D"
  input: "resnet_model/Relu_26"
  input: "resnet_model/conv2d_30/kernel"
  attr {
    key: "T"
    value {
      type: DT_FLOAT
    }
  }
  attr {
    key: "data_format"
    value {
      s: "NHWC"
    }
  }
  attr {
    key: "dilations"
    value {
      list {
        i: 1
        i: 1
        i: 1
        i: 1
      }
    }
  }
  attr {
    key: "explicit_paddings"
    value {
      list {
      }
    }
  }
  attr {
    key: "padding"
    value {
      s: "SAME"
    }
  }
  attr {
    key: "strides"
    value {
      list {
        i: 1
        i: 1
        i: 1
        i: 1
      }
    }
  }
  attr {
    key: "use_cudnn_on_gpu"
    value {
      b: true
    }
  }
}
node {
  name: "resnet_model/add_8"
  op: "Add"
  input: "resnet_model/conv2d_30/Conv2D"
  input: "resnet_model/add_7"
  attr {
    key: "T"
    value {
      type: DT_FLOAT
    }
  }
}
node {
  name: "resnet_model/batch_normalization_27/gamma"
  op: "VariableV2"
  attr {
    key: "_class"
    value {
      list {
        s: "loc:@resnet_model/batch_normalization_27/gamma"
      }
    }
  }
  attr {
    key: "container"
    value {
      s: ""
    }
  }
  attr {
    key: "dtype"
    value {
      type: DT_FLOAT
    }
  }
  attr {
    key: "shape"
    value {
      shape {
        dim {
          size: 1024
        }
      }
    }
  }
  attr {
    key: "shared_name"
    value {
      s: ""
    }
  }
}
node {
  name: "resnet_model/batch_normalization_27/beta"
  op: "VariableV2"
  attr {
    key: "_class"
    value {
      list {
        s: "loc:@resnet_model/batch_normalization_27/beta"
      }
    }
  }
  attr {
    key: "container"
    value {
      s: ""
    }
  }
  attr {
    key: "dtype"
    value {
      type: DT_FLOAT
    }
  }
  attr {
    key: "shape"
    value {
      shape {
        dim {
          size: 1024
        }
      }
    }
  }
  attr {
    key: "shared_name"
    value {
      s: ""
    }
  }
}
node {
  name: "resnet_model/batch_normalization_27/moving_mean"
  op: "VariableV2"
  attr {
    key: "_class"
    value {
      list {
        s: "loc:@resnet_model/batch_normalization_27/moving_mean"
      }
    }
  }
  attr {
    key: "container"
    value {
      s: ""
    }
  }
  attr {
    key: "dtype"
    value {
      type: DT_FLOAT
    }
  }
  attr {
    key: "shape"
    value {
      shape {
        dim {
          size: 1024
        }
      }
    }
  }
  attr {
    key: "shared_name"
    value {
      s: ""
    }
  }
}
node {
  name: "resnet_model/batch_normalization_27/moving_variance"
  op: "VariableV2"
  attr {
    key: "_class"
    value {
      list {
        s: "loc:@resnet_model/batch_normalization_27/moving_variance"
      }
    }
  }
  attr {
    key: "container"
    value {
      s: ""
    }
  }
  attr {
    key: "dtype"
    value {
      type: DT_FLOAT
    }
  }
  attr {
    key: "shape"
    value {
      shape {
        dim {
          size: 1024
        }
      }
    }
  }
  attr {
    key: "shared_name"
    value {
      s: ""
    }
  }
}
node {
  name: "resnet_model/batch_normalization_27/FusedBatchNorm"
  op: "FusedBatchNorm"
  input: "resnet_model/add_8"
  input: "resnet_model/batch_normalization_27/gamma"
  input: "resnet_model/batch_normalization_27/beta"
  input: "resnet_model/batch_normalization_27/moving_mean"
  input: "resnet_model/batch_normalization_27/moving_variance"
  attr {
    key: "T"
    value {
      type: DT_FLOAT
    }
  }
  attr {
    key: "data_format"
    value {
      s: "NHWC"
    }
  }
  attr {
    key: "epsilon"
    value {
      f: 1.0009999641624745e-05
    }
  }
  attr {
    key: "is_training"
    value {
      b: false
    }
  }
}
node {
  name: "resnet_model/Relu_27"
  op: "Relu"
  input: "resnet_model/batch_normalization_27/FusedBatchNorm"
  attr {
    key: "T"
    value {
      type: DT_FLOAT
    }
  }
}
node {
  name: "resnet_model/conv2d_31/kernel"
  op: "VariableV2"
  attr {
    key: "_class"
    value {
      list {
        s: "loc:@resnet_model/conv2d_31/kernel"
      }
    }
  }
  attr {
    key: "container"
    value {
      s: ""
    }
  }
  attr {
    key: "dtype"
    value {
      type: DT_FLOAT
    }
  }
  attr {
    key: "shape"
    value {
      shape {
        dim {
          size: 1
        }
        dim {
          size: 1
        }
        dim {
          size: 1024
        }
        dim {
          size: 256
        }
      }
    }
  }
  attr {
    key: "shared_name"
    value {
      s: ""
    }
  }
}
node {
  name: "resnet_model/conv2d_31/Conv2D"
  op: "Conv2D"
  input: "resnet_model/Relu_27"
  input: "resnet_model/conv2d_31/kernel"
  attr {
    key: "T"
    value {
      type: DT_FLOAT
    }
  }
  attr {
    key: "data_format"
    value {
      s: "NHWC"
    }
  }
  attr {
    key: "dilations"
    value {
      list {
        i: 1
        i: 1
        i: 1
        i: 1
      }
    }
  }
  attr {
    key: "explicit_paddings"
    value {
      list {
      }
    }
  }
  attr {
    key: "padding"
    value {
      s: "SAME"
    }
  }
  attr {
    key: "strides"
    value {
      list {
        i: 1
        i: 1
        i: 1
        i: 1
      }
    }
  }
  attr {
    key: "use_cudnn_on_gpu"
    value {
      b: true
    }
  }
}
node {
  name: "resnet_model/batch_normalization_28/gamma"
  op: "VariableV2"
  attr {
    key: "_class"
    value {
      list {
        s: "loc:@resnet_model/batch_normalization_28/gamma"
      }
    }
  }
  attr {
    key: "container"
    value {
      s: ""
    }
  }
  attr {
    key: "dtype"
    value {
      type: DT_FLOAT
    }
  }
  attr {
    key: "shape"
    value {
      shape {
        dim {
          size: 256
        }
      }
    }
  }
  attr {
    key: "shared_name"
    value {
      s: ""
    }
  }
}
node {
  name: "resnet_model/batch_normalization_28/beta"
  op: "VariableV2"
  attr {
    key: "_class"
    value {
      list {
        s: "loc:@resnet_model/batch_normalization_28/beta"
      }
    }
  }
  attr {
    key: "container"
    value {
      s: ""
    }
  }
  attr {
    key: "dtype"
    value {
      type: DT_FLOAT
    }
  }
  attr {
    key: "shape"
    value {
      shape {
        dim {
          size: 256
        }
      }
    }
  }
  attr {
    key: "shared_name"
    value {
      s: ""
    }
  }
}
node {
  name: "resnet_model/batch_normalization_28/moving_mean"
  op: "VariableV2"
  attr {
    key: "_class"
    value {
      list {
        s: "loc:@resnet_model/batch_normalization_28/moving_mean"
      }
    }
  }
  attr {
    key: "container"
    value {
      s: ""
    }
  }
  attr {
    key: "dtype"
    value {
      type: DT_FLOAT
    }
  }
  attr {
    key: "shape"
    value {
      shape {
        dim {
          size: 256
        }
      }
    }
  }
  attr {
    key: "shared_name"
    value {
      s: ""
    }
  }
}
node {
  name: "resnet_model/batch_normalization_28/moving_variance"
  op: "VariableV2"
  attr {
    key: "_class"
    value {
      list {
        s: "loc:@resnet_model/batch_normalization_28/moving_variance"
      }
    }
  }
  attr {
    key: "container"
    value {
      s: ""
    }
  }
  attr {
    key: "dtype"
    value {
      type: DT_FLOAT
    }
  }
  attr {
    key: "shape"
    value {
      shape {
        dim {
          size: 256
        }
      }
    }
  }
  attr {
    key: "shared_name"
    value {
      s: ""
    }
  }
}
node {
  name: "resnet_model/batch_normalization_28/FusedBatchNorm"
  op: "FusedBatchNorm"
  input: "resnet_model/conv2d_31/Conv2D"
  input: "resnet_model/batch_normalization_28/gamma"
  input: "resnet_model/batch_normalization_28/beta"
  input: "resnet_model/batch_normalization_28/moving_mean"
  input: "resnet_model/batch_normalization_28/moving_variance"
  attr {
    key: "T"
    value {
      type: DT_FLOAT
    }
  }
  attr {
    key: "data_format"
    value {
      s: "NHWC"
    }
  }
  attr {
    key: "epsilon"
    value {
      f: 1.0009999641624745e-05
    }
  }
  attr {
    key: "is_training"
    value {
      b: false
    }
  }
}
node {
  name: "resnet_model/Relu_28"
  op: "Relu"
  input: "resnet_model/batch_normalization_28/FusedBatchNorm"
  attr {
    key: "T"
    value {
      type: DT_FLOAT
    }
  }
}
node {
  name: "resnet_model/conv2d_32/kernel"
  op: "VariableV2"
  attr {
    key: "_class"
    value {
      list {
        s: "loc:@resnet_model/conv2d_32/kernel"
      }
    }
  }
  attr {
    key: "container"
    value {
      s: ""
    }
  }
  attr {
    key: "dtype"
    value {
      type: DT_FLOAT
    }
  }
  attr {
    key: "shape"
    value {
      shape {
        dim {
          size: 3
        }
        dim {
          size: 3
        }
        dim {
          size: 256
        }
        dim {
          size: 256
        }
      }
    }
  }
  attr {
    key: "shared_name"
    value {
      s: ""
    }
  }
}
node {
  name: "resnet_model/conv2d_32/Conv2D"
  op: "Conv2D"
  input: "resnet_model/Relu_28"
  input: "resnet_model/conv2d_32/kernel"
  attr {
    key: "T"
    value {
      type: DT_FLOAT
    }
  }
  attr {
    key: "data_format"
    value {
      s: "NHWC"
    }
  }
  attr {
    key: "dilations"
    value {
      list {
        i: 1
        i: 1
        i: 1
        i: 1
      }
    }
  }
  attr {
    key: "explicit_paddings"
    value {
      list {
      }
    }
  }
  attr {
    key: "padding"
    value {
      s: "SAME"
    }
  }
  attr {
    key: "strides"
    value {
      list {
        i: 1
        i: 1
        i: 1
        i: 1
      }
    }
  }
  attr {
    key: "use_cudnn_on_gpu"
    value {
      b: true
    }
  }
}
node {
  name: "resnet_model/batch_normalization_29/gamma"
  op: "VariableV2"
  attr {
    key: "_class"
    value {
      list {
        s: "loc:@resnet_model/batch_normalization_29/gamma"
      }
    }
  }
  attr {
    key: "container"
    value {
      s: ""
    }
  }
  attr {
    key: "dtype"
    value {
      type: DT_FLOAT
    }
  }
  attr {
    key: "shape"
    value {
      shape {
        dim {
          size: 256
        }
      }
    }
  }
  attr {
    key: "shared_name"
    value {
      s: ""
    }
  }
}
node {
  name: "resnet_model/batch_normalization_29/beta"
  op: "VariableV2"
  attr {
    key: "_class"
    value {
      list {
        s: "loc:@resnet_model/batch_normalization_29/beta"
      }
    }
  }
  attr {
    key: "container"
    value {
      s: ""
    }
  }
  attr {
    key: "dtype"
    value {
      type: DT_FLOAT
    }
  }
  attr {
    key: "shape"
    value {
      shape {
        dim {
          size: 256
        }
      }
    }
  }
  attr {
    key: "shared_name"
    value {
      s: ""
    }
  }
}
node {
  name: "resnet_model/batch_normalization_29/moving_mean"
  op: "VariableV2"
  attr {
    key: "_class"
    value {
      list {
        s: "loc:@resnet_model/batch_normalization_29/moving_mean"
      }
    }
  }
  attr {
    key: "container"
    value {
      s: ""
    }
  }
  attr {
    key: "dtype"
    value {
      type: DT_FLOAT
    }
  }
  attr {
    key: "shape"
    value {
      shape {
        dim {
          size: 256
        }
      }
    }
  }
  attr {
    key: "shared_name"
    value {
      s: ""
    }
  }
}
node {
  name: "resnet_model/batch_normalization_29/moving_variance"
  op: "VariableV2"
  attr {
    key: "_class"
    value {
      list {
        s: "loc:@resnet_model/batch_normalization_29/moving_variance"
      }
    }
  }
  attr {
    key: "container"
    value {
      s: ""
    }
  }
  attr {
    key: "dtype"
    value {
      type: DT_FLOAT
    }
  }
  attr {
    key: "shape"
    value {
      shape {
        dim {
          size: 256
        }
      }
    }
  }
  attr {
    key: "shared_name"
    value {
      s: ""
    }
  }
}
node {
  name: "resnet_model/batch_normalization_29/FusedBatchNorm"
  op: "FusedBatchNorm"
  input: "resnet_model/conv2d_32/Conv2D"
  input: "resnet_model/batch_normalization_29/gamma"
  input: "resnet_model/batch_normalization_29/beta"
  input: "resnet_model/batch_normalization_29/moving_mean"
  input: "resnet_model/batch_normalization_29/moving_variance"
  attr {
    key: "T"
    value {
      type: DT_FLOAT
    }
  }
  attr {
    key: "data_format"
    value {
      s: "NHWC"
    }
  }
  attr {
    key: "epsilon"
    value {
      f: 1.0009999641624745e-05
    }
  }
  attr {
    key: "is_training"
    value {
      b: false
    }
  }
}
node {
  name: "resnet_model/Relu_29"
  op: "Relu"
  input: "resnet_model/batch_normalization_29/FusedBatchNorm"
  attr {
    key: "T"
    value {
      type: DT_FLOAT
    }
  }
}
node {
  name: "resnet_model/conv2d_33/kernel"
  op: "VariableV2"
  attr {
    key: "_class"
    value {
      list {
        s: "loc:@resnet_model/conv2d_33/kernel"
      }
    }
  }
  attr {
    key: "container"
    value {
      s: ""
    }
  }
  attr {
    key: "dtype"
    value {
      type: DT_FLOAT
    }
  }
  attr {
    key: "shape"
    value {
      shape {
        dim {
          size: 1
        }
        dim {
          size: 1
        }
        dim {
          size: 256
        }
        dim {
          size: 1024
        }
      }
    }
  }
  attr {
    key: "shared_name"
    value {
      s: ""
    }
  }
}
node {
  name: "resnet_model/conv2d_33/Conv2D"
  op: "Conv2D"
  input: "resnet_model/Relu_29"
  input: "resnet_model/conv2d_33/kernel"
  attr {
    key: "T"
    value {
      type: DT_FLOAT
    }
  }
  attr {
    key: "data_format"
    value {
      s: "NHWC"
    }
  }
  attr {
    key: "dilations"
    value {
      list {
        i: 1
        i: 1
        i: 1
        i: 1
      }
    }
  }
  attr {
    key: "explicit_paddings"
    value {
      list {
      }
    }
  }
  attr {
    key: "padding"
    value {
      s: "SAME"
    }
  }
  attr {
    key: "strides"
    value {
      list {
        i: 1
        i: 1
        i: 1
        i: 1
      }
    }
  }
  attr {
    key: "use_cudnn_on_gpu"
    value {
      b: true
    }
  }
}
node {
  name: "resnet_model/add_9"
  op: "Add"
  input: "resnet_model/conv2d_33/Conv2D"
  input: "resnet_model/add_8"
  attr {
    key: "T"
    value {
      type: DT_FLOAT
    }
  }
}
node {
  name: "resnet_model/batch_normalization_30/gamma"
  op: "VariableV2"
  attr {
    key: "_class"
    value {
      list {
        s: "loc:@resnet_model/batch_normalization_30/gamma"
      }
    }
  }
  attr {
    key: "container"
    value {
      s: ""
    }
  }
  attr {
    key: "dtype"
    value {
      type: DT_FLOAT
    }
  }
  attr {
    key: "shape"
    value {
      shape {
        dim {
          size: 1024
        }
      }
    }
  }
  attr {
    key: "shared_name"
    value {
      s: ""
    }
  }
}
node {
  name: "resnet_model/batch_normalization_30/beta"
  op: "VariableV2"
  attr {
    key: "_class"
    value {
      list {
        s: "loc:@resnet_model/batch_normalization_30/beta"
      }
    }
  }
  attr {
    key: "container"
    value {
      s: ""
    }
  }
  attr {
    key: "dtype"
    value {
      type: DT_FLOAT
    }
  }
  attr {
    key: "shape"
    value {
      shape {
        dim {
          size: 1024
        }
      }
    }
  }
  attr {
    key: "shared_name"
    value {
      s: ""
    }
  }
}
node {
  name: "resnet_model/batch_normalization_30/moving_mean"
  op: "VariableV2"
  attr {
    key: "_class"
    value {
      list {
        s: "loc:@resnet_model/batch_normalization_30/moving_mean"
      }
    }
  }
  attr {
    key: "container"
    value {
      s: ""
    }
  }
  attr {
    key: "dtype"
    value {
      type: DT_FLOAT
    }
  }
  attr {
    key: "shape"
    value {
      shape {
        dim {
          size: 1024
        }
      }
    }
  }
  attr {
    key: "shared_name"
    value {
      s: ""
    }
  }
}
node {
  name: "resnet_model/batch_normalization_30/moving_variance"
  op: "VariableV2"
  attr {
    key: "_class"
    value {
      list {
        s: "loc:@resnet_model/batch_normalization_30/moving_variance"
      }
    }
  }
  attr {
    key: "container"
    value {
      s: ""
    }
  }
  attr {
    key: "dtype"
    value {
      type: DT_FLOAT
    }
  }
  attr {
    key: "shape"
    value {
      shape {
        dim {
          size: 1024
        }
      }
    }
  }
  attr {
    key: "shared_name"
    value {
      s: ""
    }
  }
}
node {
  name: "resnet_model/batch_normalization_30/FusedBatchNorm"
  op: "FusedBatchNorm"
  input: "resnet_model/add_9"
  input: "resnet_model/batch_normalization_30/gamma"
  input: "resnet_model/batch_normalization_30/beta"
  input: "resnet_model/batch_normalization_30/moving_mean"
  input: "resnet_model/batch_normalization_30/moving_variance"
  attr {
    key: "T"
    value {
      type: DT_FLOAT
    }
  }
  attr {
    key: "data_format"
    value {
      s: "NHWC"
    }
  }
  attr {
    key: "epsilon"
    value {
      f: 1.0009999641624745e-05
    }
  }
  attr {
    key: "is_training"
    value {
      b: false
    }
  }
}
node {
  name: "resnet_model/Relu_30"
  op: "Relu"
  input: "resnet_model/batch_normalization_30/FusedBatchNorm"
  attr {
    key: "T"
    value {
      type: DT_FLOAT
    }
  }
}
node {
  name: "resnet_model/conv2d_34/kernel"
  op: "VariableV2"
  attr {
    key: "_class"
    value {
      list {
        s: "loc:@resnet_model/conv2d_34/kernel"
      }
    }
  }
  attr {
    key: "container"
    value {
      s: ""
    }
  }
  attr {
    key: "dtype"
    value {
      type: DT_FLOAT
    }
  }
  attr {
    key: "shape"
    value {
      shape {
        dim {
          size: 1
        }
        dim {
          size: 1
        }
        dim {
          size: 1024
        }
        dim {
          size: 256
        }
      }
    }
  }
  attr {
    key: "shared_name"
    value {
      s: ""
    }
  }
}
node {
  name: "resnet_model/conv2d_34/Conv2D"
  op: "Conv2D"
  input: "resnet_model/Relu_30"
  input: "resnet_model/conv2d_34/kernel"
  attr {
    key: "T"
    value {
      type: DT_FLOAT
    }
  }
  attr {
    key: "data_format"
    value {
      s: "NHWC"
    }
  }
  attr {
    key: "dilations"
    value {
      list {
        i: 1
        i: 1
        i: 1
        i: 1
      }
    }
  }
  attr {
    key: "explicit_paddings"
    value {
      list {
      }
    }
  }
  attr {
    key: "padding"
    value {
      s: "SAME"
    }
  }
  attr {
    key: "strides"
    value {
      list {
        i: 1
        i: 1
        i: 1
        i: 1
      }
    }
  }
  attr {
    key: "use_cudnn_on_gpu"
    value {
      b: true
    }
  }
}
node {
  name: "resnet_model/batch_normalization_31/gamma"
  op: "VariableV2"
  attr {
    key: "_class"
    value {
      list {
        s: "loc:@resnet_model/batch_normalization_31/gamma"
      }
    }
  }
  attr {
    key: "container"
    value {
      s: ""
    }
  }
  attr {
    key: "dtype"
    value {
      type: DT_FLOAT
    }
  }
  attr {
    key: "shape"
    value {
      shape {
        dim {
          size: 256
        }
      }
    }
  }
  attr {
    key: "shared_name"
    value {
      s: ""
    }
  }
}
node {
  name: "resnet_model/batch_normalization_31/beta"
  op: "VariableV2"
  attr {
    key: "_class"
    value {
      list {
        s: "loc:@resnet_model/batch_normalization_31/beta"
      }
    }
  }
  attr {
    key: "container"
    value {
      s: ""
    }
  }
  attr {
    key: "dtype"
    value {
      type: DT_FLOAT
    }
  }
  attr {
    key: "shape"
    value {
      shape {
        dim {
          size: 256
        }
      }
    }
  }
  attr {
    key: "shared_name"
    value {
      s: ""
    }
  }
}
node {
  name: "resnet_model/batch_normalization_31/moving_mean"
  op: "VariableV2"
  attr {
    key: "_class"
    value {
      list {
        s: "loc:@resnet_model/batch_normalization_31/moving_mean"
      }
    }
  }
  attr {
    key: "container"
    value {
      s: ""
    }
  }
  attr {
    key: "dtype"
    value {
      type: DT_FLOAT
    }
  }
  attr {
    key: "shape"
    value {
      shape {
        dim {
          size: 256
        }
      }
    }
  }
  attr {
    key: "shared_name"
    value {
      s: ""
    }
  }
}
node {
  name: "resnet_model/batch_normalization_31/moving_variance"
  op: "VariableV2"
  attr {
    key: "_class"
    value {
      list {
        s: "loc:@resnet_model/batch_normalization_31/moving_variance"
      }
    }
  }
  attr {
    key: "container"
    value {
      s: ""
    }
  }
  attr {
    key: "dtype"
    value {
      type: DT_FLOAT
    }
  }
  attr {
    key: "shape"
    value {
      shape {
        dim {
          size: 256
        }
      }
    }
  }
  attr {
    key: "shared_name"
    value {
      s: ""
    }
  }
}
node {
  name: "resnet_model/batch_normalization_31/FusedBatchNorm"
  op: "FusedBatchNorm"
  input: "resnet_model/conv2d_34/Conv2D"
  input: "resnet_model/batch_normalization_31/gamma"
  input: "resnet_model/batch_normalization_31/beta"
  input: "resnet_model/batch_normalization_31/moving_mean"
  input: "resnet_model/batch_normalization_31/moving_variance"
  attr {
    key: "T"
    value {
      type: DT_FLOAT
    }
  }
  attr {
    key: "data_format"
    value {
      s: "NHWC"
    }
  }
  attr {
    key: "epsilon"
    value {
      f: 1.0009999641624745e-05
    }
  }
  attr {
    key: "is_training"
    value {
      b: false
    }
  }
}
node {
  name: "resnet_model/Relu_31"
  op: "Relu"
  input: "resnet_model/batch_normalization_31/FusedBatchNorm"
  attr {
    key: "T"
    value {
      type: DT_FLOAT
    }
  }
}
node {
  name: "resnet_model/conv2d_35/kernel"
  op: "VariableV2"
  attr {
    key: "_class"
    value {
      list {
        s: "loc:@resnet_model/conv2d_35/kernel"
      }
    }
  }
  attr {
    key: "container"
    value {
      s: ""
    }
  }
  attr {
    key: "dtype"
    value {
      type: DT_FLOAT
    }
  }
  attr {
    key: "shape"
    value {
      shape {
        dim {
          size: 3
        }
        dim {
          size: 3
        }
        dim {
          size: 256
        }
        dim {
          size: 256
        }
      }
    }
  }
  attr {
    key: "shared_name"
    value {
      s: ""
    }
  }
}
node {
  name: "resnet_model/conv2d_35/Conv2D"
  op: "Conv2D"
  input: "resnet_model/Relu_31"
  input: "resnet_model/conv2d_35/kernel"
  attr {
    key: "T"
    value {
      type: DT_FLOAT
    }
  }
  attr {
    key: "data_format"
    value {
      s: "NHWC"
    }
  }
  attr {
    key: "dilations"
    value {
      list {
        i: 1
        i: 1
        i: 1
        i: 1
      }
    }
  }
  attr {
    key: "explicit_paddings"
    value {
      list {
      }
    }
  }
  attr {
    key: "padding"
    value {
      s: "SAME"
    }
  }
  attr {
    key: "strides"
    value {
      list {
        i: 1
        i: 1
        i: 1
        i: 1
      }
    }
  }
  attr {
    key: "use_cudnn_on_gpu"
    value {
      b: true
    }
  }
}
node {
  name: "resnet_model/batch_normalization_32/gamma"
  op: "VariableV2"
  attr {
    key: "_class"
    value {
      list {
        s: "loc:@resnet_model/batch_normalization_32/gamma"
      }
    }
  }
  attr {
    key: "container"
    value {
      s: ""
    }
  }
  attr {
    key: "dtype"
    value {
      type: DT_FLOAT
    }
  }
  attr {
    key: "shape"
    value {
      shape {
        dim {
          size: 256
        }
      }
    }
  }
  attr {
    key: "shared_name"
    value {
      s: ""
    }
  }
}
node {
  name: "resnet_model/batch_normalization_32/beta"
  op: "VariableV2"
  attr {
    key: "_class"
    value {
      list {
        s: "loc:@resnet_model/batch_normalization_32/beta"
      }
    }
  }
  attr {
    key: "container"
    value {
      s: ""
    }
  }
  attr {
    key: "dtype"
…
    value {
      type: DT_FLOAT
    }
  }
  attr {
    key: "data_format"
    value {
      s: "NHWC"
    }
  }
  attr {
    key: "epsilon"
    value {
      f: 1.0009999641624745e-05
    }
  }
  attr {
    key: "is_training"
    value {
      b: false
    }
  }
}
node {
  name: "resnet_model/Relu_38"
  op: "Relu"
  input: "resnet_model/batch_normalization_38/FusedBatchNorm"
  attr {
    key: "T"
    value {
      type: DT_FLOAT
    }
  }
}
node {
  name: "resnet_model/conv2d_42/kernel"
  op: "VariableV2"
  attr {
    key: "_class"
    value {
      list {
        s: "loc:@resnet_model/conv2d_42/kernel"
      }
    }
  }
  attr {
    key: "container"
    value {
      s: ""
    }
  }
  attr {
    key: "dtype"
    value {
      type: DT_FLOAT
    }
  }
  attr {
    key: "shape"
    value {
      shape {
        dim {
          size: 1
        }
        dim {
          size: 1
        }
        dim {
          size: 256
        }
        dim {
          size: 1024
        }
      }
    }
  }
  attr {
    key: "shared_name"
    value {
      s: ""
    }
  }
}
node {
  name: "resnet_model/conv2d_42/Conv2D"
  op: "Conv2D"
  input: "resnet_model/Relu_38"
  input: "resnet_model/conv2d_42/kernel"
  attr {
    key: "T"
    value {
      type: DT_FLOAT
    }
  }
  attr {
    key: "data_format"
    value {
      s: "NHWC"
    }
  }
  attr {
    key: "dilations"
    value {
      list {
        i: 1
        i: 1
        i: 1
        i: 1
      }
    }
  }
  attr {
    key: "explicit_paddings"
    value {
      list {
      }
    }
  }
  attr {
    key: "padding"
    value {
      s: "SAME"
    }
  }
  attr {
    key: "strides"
    value {
      list {
        i: 1
        i: 1
        i: 1
        i: 1
      }
    }
  }
  attr {
    key: "use_cudnn_on_gpu"
    value {
      b: true
    }
  }
}
node {
  name: "resnet_model/add_12"
  op: "Add"
  input: "resnet_model/conv2d_42/Conv2D"
  input: "resnet_model/add_11"
  attr {
    key: "T"
    value {
      type: DT_FLOAT
    }
  }
}
node {
  name: "resnet_model/batch_normalization_39/gamma"
  op: "VariableV2"
  attr {
    key: "_class"
    value {
      list {
        s: "loc:@resnet_model/batch_normalization_39/gamma"
      }
    }
  }
  attr {
    key: "container"
    value {
      s: ""
    }
  }
  attr {
    key: "dtype"
    value {
      type: DT_FLOAT
    }
  }
  attr {
    key: "shape"
    value {
      shape {
        dim {
          size: 1024
        }
      }
    }
  }
  attr {
    key: "shared_name"
    value {
      s: ""
    }
  }
}
node {
  name: "resnet_model/batch_normalization_39/beta"
  op: "VariableV2"
  attr {
    key: "_class"
    value {
      list {
        s: "loc:@resnet_model/batch_normalization_39/beta"
      }
    }
  }
  attr {
    key: "container"
    value {
      s: ""
    }
  }
  attr {
    key: "dtype"
    value {
      type: DT_FLOAT
    }
  }
  attr {
    key: "shape"
    value {
      shape {
        dim {
          size: 1024
        }
      }
    }
  }
  attr {
    key: "shared_name"
    value {
      s: ""
    }
  }
}
node {
  name: "resnet_model/batch_normalization_39/moving_mean"
  op: "VariableV2"
  attr {
    key: "_class"
    value {
      list {
        s: "loc:@resnet_model/batch_normalization_39/moving_mean"
      }
    }
  }
  attr {
    key: "container"
    value {
      s: ""
    }
  }
  attr {
    key: "dtype"
    value {
      type: DT_FLOAT
    }
  }
  attr {
    key: "shape"
    value {
      shape {
        dim {
          size: 1024
        }
      }
    }
  }
  attr {
    key: "shared_name"
    value {
      s: ""
    }
  }
}
node {
  name: "resnet_model/batch_normalization_39/moving_variance"
  op: "VariableV2"
  attr {
    key: "_class"
    value {
      list {
        s: "loc:@resnet_model/batch_normalization_39/moving_variance"
      }
    }
  }
  attr {
    key: "container"
    value {
      s: ""
    }
  }
  attr {
    key: "dtype"
    value {
      type: DT_FLOAT
    }
  }
  attr {
    key: "shape"
    value {
      shape {
        dim {
          size: 1024
        }
      }
    }
  }
  attr {
    key: "shared_name"
    value {
      s: ""
    }
  }
}
node {
  name: "resnet_model/batch_normalization_39/FusedBatchNorm"
  op: "FusedBatchNorm"
  input: "resnet_model/add_12"
  input: "resnet_model/batch_normalization_39/gamma"
  input: "resnet_model/batch_normalization_39/beta"
  input: "resnet_model/batch_normalization_39/moving_mean"
  input: "resnet_model/batch_normalization_39/moving_variance"
  attr {
    key: "T"
    value {
      type: DT_FLOAT
    }
  }
  attr {
    key: "data_format"
    value {
      s: "NHWC"
    }
  }
  attr {
    key: "epsilon"
    value {
      f: 1.0009999641624745e-05
    }
  }
  attr {
    key: "is_training"
    value {
      b: false
    }
  }
}
node {
  name: "resnet_model/Relu_39"
  op: "Relu"
  input: "resnet_model/batch_normalization_39/FusedBatchNorm"
  attr {
    key: "T"
    value {
      type: DT_FLOAT
    }
  }
}
node {
  name: "resnet_model/Pad_5/paddings"
  op: "Const"
  attr {
    key: "dtype"
    value {
      type: DT_INT32
    }
  }
  attr {
    key: "value"
    value {
      tensor {
        dtype: DT_INT32
        tensor_shape {
          dim {
            size: 4
          }
          dim {
            size: 2
          }
        }
        tensor_content: "…"
      }
    }
  }
}
node {
  name: "resnet_model/Pad_5"
  op: "Pad"
  input: "resnet_model/Relu_39"
  input: "resnet_model/Pad_5/paddings"
  attr {
    key: "T"
    value {
      type: DT_FLOAT
    }
  }
  attr {
    key: "Tpaddings"
    value {
      type: DT_INT32
    }
  }
}
node {
  name: "resnet_model/conv2d_43/kernel"
  op: "VariableV2"
  attr {
    key: "_class"
    value {
      list {
        s: "loc:@resnet_model/conv2d_43/kernel"
      }
    }
  }
  attr {
    key: "container"
    value {
      s: ""
    }
  }
  attr {
    key: "dtype"
    value {
      type: DT_FLOAT
    }
  }
  attr {
    key: "shape"
    value {
      shape {
        dim {
          size: 1
        }
        dim {
          size: 1
        }
        dim {
          size: 1024
        }
        dim {
          size: 2048
        }
      }
    }
  }
  attr {
    key: "shared_name"
    value {
      s: ""
    }
  }
}
node {
  name: "resnet_model/conv2d_43/Conv2D"
  op: "Conv2D"
  input: "resnet_model/Pad_5"
  input: "resnet_model/conv2d_43/kernel"
  attr {
    key: "T"
    value {
      type: DT_FLOAT
    }
  }
  attr {
    key: "data_format"
    value {
      s: "NHWC"
    }
  }
  attr {
    key: "dilations"
    value {
      list {
        i: 1
        i: 1
        i: 1
        i: 1
      }
    }
  }
  attr {
    key: "explicit_paddings"
    value {
      list {
      }
    }
  }
  attr {
    key: "padding"
    value {
      s: "VALID"
    }
  }
  attr {
    key: "strides"
    value {
      list {
        i: 1
        i: 2
        i: 2
        i: 1
      }
    }
  }
  attr {
    key: "use_cudnn_on_gpu"
    value {
      b: true
    }
  }
}
node {
  name: "resnet_model/conv2d_44/kernel"
  op: "VariableV2"
  attr {
    key: "_class"
    value {
      list {
        s: "loc:@resnet_model/conv2d_44/kernel"
      }
    }
  }
  attr {
    key: "container"
    value {
      s: ""
    }
  }
  attr {
    key: "dtype"
    value {
      type: DT_FLOAT
    }
  }
  attr {
    key: "shape"
    value {
      shape {
        dim {
          size: 1
        }
        dim {
          size: 1
        }
        dim {
          size: 1024
        }
        dim {
          size: 512
        }
      }
    }
  }
  attr {
    key: "shared_name"
    value {
      s: ""
    }
  }
}
node {
  name: "resnet_model/conv2d_44/Conv2D"
  op: "Conv2D"
  input: "resnet_model/Relu_39"
  input: "resnet_model/conv2d_44/kernel"
  attr {
    key: "T"
    value {
      type: DT_FLOAT
    }
  }
  attr {
    key: "data_format"
    value {
      s: "NHWC"
    }
  }
  attr {
    key: "dilations"
    value {
      list {
        i: 1
        i: 1
        i: 1
        i: 1
      }
    }
  }
  attr {
    key: "explicit_paddings"
    value {
      list {
      }
    }
  }
  attr {
    key: "padding"
    value {
      s: "SAME"
    }
  }
  attr {
    key: "strides"
    value {
      list {
        i: 1
        i: 1
        i: 1
        i: 1
      }
    }
  }
  attr {
    key: "use_cudnn_on_gpu"
    value {
      b: true
    }
  }
}
node {
  name: "resnet_model/batch_normalization_40/gamma"
  op: "VariableV2"
  attr {
    key: "_class"
    value {
      list {
        s: "loc:@resnet_model/batch_normalization_40/gamma"
      }
    }
  }
  attr {
    key: "container"
    value {
      s: ""
    }
  }
  attr {
    key: "dtype"
    value {
      type: DT_FLOAT
    }
  }
  attr {
    key: "shape"
    value {
      shape {
        dim {
          size: 512
        }
      }
    }
  }
  attr {
    key: "shared_name"
    value {
      s: ""
    }
  }
}
node {
  name: "resnet_model/batch_normalization_40/beta"
  op: "VariableV2"
  attr {
    key: "_class"
    value {
      list {
        s: "loc:@resnet_model/batch_normalization_40/beta"
      }
    }
  }
  attr {
    key: "container"
    value {
      s: ""
    }
  }
  attr {
    key: "dtype"
    value {
      type: DT_FLOAT
    }
  }
  attr {
    key: "shape"
    value {
      shape {
        dim {
          size: 512
        }
      }
    }
  }
  attr {
    key: "shared_name"
    value {
      s: ""
    }
  }
}
node {
  name: "resnet_model/batch_normalization_40/moving_mean"
  op: "VariableV2"
  attr {
    key: "_class"
    value {
      list {
        s: "loc:@resnet_model/batch_normalization_40/moving_mean"
      }
    }
  }
  attr {
    key: "container"
    value {
      s: ""
    }
  }
  attr {
    key: "dtype"
    value {
      type: DT_FLOAT
    }
  }
  attr {
    key: "shape"
    value {
      shape {
        dim {
          size: 512
        }
      }
    }
  }
  attr {
    key: "shared_name"
    value {
      s: ""
    }
  }
}
node {
  name: "resnet_model/batch_normalization_40/moving_variance"
  op: "VariableV2"
  attr {
    key: "_class"
    value {
      list {
        s: "loc:@resnet_model/batch_normalization_40/moving_variance"
      }
    }
  }
  attr {
    key: "container"
    value {
      s: ""
    }
  }
  attr {
    key: "dtype"
    value {
      type: DT_FLOAT
    }
  }
  attr {
    key: "shape"
    value {
      shape {
        dim {
          size: 512
        }
      }
    }
  }
  attr {
    key: "shared_name"
    value {
      s: ""
    }
  }
}
node {
  name: "resnet_model/batch_normalization_40/FusedBatchNorm"
  op: "FusedBatchNorm"
  input: "resnet_model/conv2d_44/Conv2D"
  input: "resnet_model/batch_normalization_40/gamma"
  input: "resnet_model/batch_normalization_40/beta"
  input: "resnet_model/batch_normalization_40/moving_mean"
  input: "resnet_model/batch_normalization_40/moving_variance"
  attr {
    key: "T"
    value {
      type: DT_FLOAT
    }
  }
  attr {
    key: "data_format"
    value {
      s: "NHWC"
    }
  }
  attr {
    key: "epsilon"
    value {
      f: 1.0009999641624745e-05
    }
  }
  attr {
    key: "is_training"
    value {
      b: false
    }
  }
}
node {
  name: "resnet_model/Relu_40"
  op: "Relu"
  input: "resnet_model/batch_normalization_40/FusedBatchNorm"
  attr {
    key: "T"
    value {
      type: DT_FLOAT
    }
  }
}
node {
  name: "resnet_model/Pad_6/paddings"
  op: "Const"
  attr {
    key: "dtype"
    value {
      type: DT_INT32
    }
  }
  attr {
    key: "value"
    value {
      tensor {
        dtype: DT_INT32
        tensor_shape {
          dim {
            size: 4
          }
          dim {
            size: 2
          }
        }
        tensor_content: "…"
      }
    }
  }
}
node {
  name: "resnet_model/Pad_6"
  op: "Pad"
  input: "resnet_model/Relu_40"
  input: "resnet_model/Pad_6/paddings"
  attr {
    key: "T"
    value {
      type: DT_FLOAT
    }
  }
  attr {
    key: "Tpaddings"
    value {
      type: DT_INT32
    }
  }
}
node {
  name: "resnet_model/conv2d_45/kernel"
  op: "VariableV2"
  attr {
    key: "_class"
    value {
      list {
        s: "loc:@resnet_model/conv2d_45/kernel"
      }
    }
  }
  attr {
    key: "container"
    value {
      s: ""
    }
  }
  attr {
    key: "dtype"
    value {
      type: DT_FLOAT
    }
  }
  attr {
    key: "shape"
    value {
      shape {
        dim {
          size: 3
        }
        dim {
          size: 3
        }
        dim {
          size: 512
        }
        dim {
          size: 512
        }
      }
    }
  }
  attr {
    key: "shared_name"
    value {
      s: ""
    }
  }
}
node {
  name: "resnet_model/conv2d_45/Conv2D"
  op: "Conv2D"
  input: "resnet_model/Pad_6"
  input: "resnet_model/conv2d_45/kernel"
  attr {
    key: "T"
    value {
      type: DT_FLOAT
    }
  }
  attr {
    key: "data_format"
    value {
      s: "NHWC"
    }
  }
  attr {
    key: "dilations"
    value {
      list {
        i: 1
        i: 1
        i: 1
        i: 1
      }
    }
  }
  attr {
    key: "explicit_paddings"
    value {
      list {
      }
    }
  }
  attr {
    key: "padding"
    value {
      s: "VALID"
    }
  }
  attr {
    key: "strides"
    value {
      list {
        i: 1
        i: 2
        i: 2
        i: 1
      }
    }
  }
  attr {
    key: "use_cudnn_on_gpu"
    value {
      b: true
    }
  }
}
node {
  name: "resnet_model/batch_normalization_41/gamma"
  op: "VariableV2"
  attr {
    key: "_class"
    value {
      list {
        s: "loc:@resnet_model/batch_normalization_41/gamma"
      }
    }
  }
  attr {
    key: "container"
    value {
      s: ""
    }
  }
  attr {
    key: "dtype"
    value {
      type: DT_FLOAT
    }
  }
  attr {
    key: "shape"
    value {
      shape {
        dim {
          size: 512
        }
      }
    }
  }
  attr {
    key: "shared_name"
    value {
      s: ""
    }
  }
}
node {
  name: "resnet_model/batch_normalization_41/beta"
  op: "VariableV2"
  attr {
    key: "_class"
    value {
      list {
        s: "loc:@resnet_model/batch_normalization_41/beta"
      }
    }
  }
  attr {
    key: "container"
    value {
      s: ""
    }
  }
  attr {
    key: "dtype"
    value {
      type: DT_FLOAT
    }
  }
  attr {
    key: "shape"
    value {
      shape {
        dim {
          size: 512
        }
      }
    }
  }
  attr {
    key: "shared_name"
    value {
      s: ""
    }
  }
}
node {
  name: "resnet_model/batch_normalization_41/moving_mean"
  op: "VariableV2"
  attr {
    key: "_class"
    value {
      list {
        s: "loc:@resnet_model/batch_normalization_41/moving_mean"
      }
    }
  }
  attr {
    key: "container"
    value {
      s: ""
    }
  }
  attr {
    key: "dtype"
    value {
      type: DT_FLOAT
    }
  }
  attr {
    key: "shape"
    value {
      shape {
        dim {
          size: 512
        }
      }
    }
  }
  attr {
    key: "shared_name"
    value {
      s: ""
    }
  }
}
node {
  name: "resnet_model/batch_normalization_41/moving_variance"
  op: "VariableV2"
  attr {
    key: "_class"
    value {
      list {
        s: "loc:@resnet_model/batch_normalization_41/moving_variance"
      }
    }
  }
  attr {
    key: "container"
    value {
      s: ""
    }
  }
  attr {
    key: "dtype"
    value {
      type: DT_FLOAT
    }
  }
  attr {
    key: "shape"
    value {
      shape {
        dim {
          size: 512
        }
      }
    }
  }
  attr {
    key: "shared_name"
    value {
      s: ""
    }
  }
}
node {
  name: "resnet_model/batch_normalization_41/FusedBatchNorm"
  op: "FusedBatchNorm"
  input: "resnet_model/conv2d_45/Conv2D"
  input: "resnet_model/batch_normalization_41/gamma"
  input: "resnet_model/batch_normalization_41/beta"
  input: "resnet_model/batch_normalization_41/moving_mean"
  input: "resnet_model/batch_normalization_41/moving_variance"
  attr {
    key: "T"
    value {
      type: DT_FLOAT
    }
  }
  attr {
    key: "data_format"
    value {
      s: "NHWC"
    }
  }
  attr {
    key: "epsilon"
    value {
      f: 1.0009999641624745e-05
    }
  }
  attr {
    key: "is_training"
    value {
      b: false
    }
  }
}
node {
  name: "resnet_model/Relu_41"
  op: "Relu"
  input: "resnet_model/batch_normalization_41/FusedBatchNorm"
  attr {
    key: "T"
    value {
      type: DT_FLOAT
    }
  }
}
node {
  name: "resnet_model/conv2d_46/kernel"
  op: "VariableV2"
  attr {
    key: "_class"
    value {
      list {
        s: "loc:@resnet_model/conv2d_46/kernel"
      }
    }
  }
  attr {
    key: "container"
    value {
      s: ""
    }
  }
  attr {
    key: "dtype"
    value {
      type: DT_FLOAT
    }
  }
  attr {
    key: "shape"
    value {
      shape {
        dim {
          size: 1
        }
        dim {
          size: 1
        }
        dim {
          size: 512
        }
        dim {
          size: 2048
        }
      }
    }
  }
  attr {
    key: "shared_name"
    value {
      s: ""
    }
  }
}
node {
  name: "resnet_model/conv2d_46/Conv2D"
  op: "Conv2D"
  input: "resnet_model/Relu_41"
  input: "resnet_model/conv2d_46/kernel"
  attr {
    key: "T"
    value {
      type: DT_FLOAT
    }
  }
  attr {
    key: "data_format"
    value {
      s: "NHWC"
    }
  }
  attr {
    key: "dilations"
    value {
      list {
        i: 1
        i: 1
        i: 1
        i: 1
      }
    }
  }
  attr {
    key: "explicit_paddings"
    value {
      list {
      }
    }
  }
  attr {
    key: "padding"
    value {
      s: "SAME"
    }
  }
  attr {
    key: "strides"
    value {
      list {
        i: 1
        i: 1
        i: 1
        i: 1
      }
    }
  }
  attr {
    key: "use_cudnn_on_gpu"
    value {
      b: true
    }
  }
}
node {
  name: "resnet_model/add_13"
  op: "Add"
  input: "resnet_model/conv2d_46/Conv2D"
  input: "resnet_model/conv2d_43/Conv2D"
  attr {
    key: "T"
    value {
      type: DT_FLOAT
    }
  }
}
node {
  name: "resnet_model/batch_normalization_42/gamma"
  op: "VariableV2"
  attr {
    key: "_class"
    value {
      list {
        s: "loc:@resnet_model/batch_normalization_42/gamma"
      }
    }
  }
  attr {
    key: "container"
    value {
      s: ""
    }
  }
  attr {
    key: "dtype"
    value {
      type: DT_FLOAT
    }
  }
  attr {
    key: "shape"
    value {
      shape {
        dim {
          size: 2048
        }
      }
    }
  }
  attr {
    key: "shared_name"
    value {
      s: ""
    }
  }
}
node {
  name: "resnet_model/batch_normalization_42/beta"
  op: "VariableV2"
  attr {
    key: "_class"
    value {
      list {
        s: "loc:@resnet_model/batch_normalization_42/beta"
      }
    }
  }
  attr {
    key: "container"
    value {
      s: ""
    }
  }
  attr {
    key: "dtype"
    value {
      type: DT_FLOAT
    }
  }
  attr {
    key: "shape"
    value {
      shape {
        dim {
          size: 2048
        }
      }
    }
  }
  attr {
    key: "shared_name"
    value {
      s: ""
    }
  }
}
node {
  name: "resnet_model/batch_normalization_42/moving_mean"
  op: "VariableV2"
  attr {
    key: "_class"
    value {
      list {
        s: "loc:@resnet_model/batch_normalization_42/moving_mean"
      }
    }
  }
  attr {
    key: "container"
    value {
      s: ""
    }
  }
  attr {
    key: "dtype"
    value {
      type: DT_FLOAT
    }
  }
  attr {
    key: "shape"
    value {
      shape {
        dim {
          size: 2048
        }
      }
    }
  }
  attr {
    key: "shared_name"
    value {
      s: ""
    }
  }
}
node {
  name: "resnet_model/batch_normalization_42/moving_variance"
  op: "VariableV2"
  attr {
    key: "_class"
    value {
      list {
        s: "loc:@resnet_model/batch_normalization_42/moving_variance"
      }
    }
  }
  attr {
    key: "container"
    value {
      s: ""
    }
  }
  attr {
    key: "dtype"
    value {
      type: DT_FLOAT
    }
  }
  attr {
    key: "shape"
    value {
      shape {
        dim {
          size: 2048
        }
      }
    }
  }
  attr {
    key: "shared_name"
    value {
      s: ""
    }
  }
}
node {
  name: "resnet_model/batch_normalization_42/FusedBatchNorm"
  op: "FusedBatchNorm"
  input: "resnet_model/add_13"
  input: "resnet_model/batch_normalization_42/gamma"
  input: "resnet_model/batch_normalization_42/beta"
  input: "resnet_model/batch_normalization_42/moving_mean"
  input: "resnet_model/batch_normalization_42/moving_variance"
  attr {
    key: "T"
    value {
      type: DT_FLOAT
    }
  }
  attr {
    key: "data_format"
    value {
      s: "NHWC"
    }
  }
  attr {
    key: "epsilon"
    value {
      f: 1.0009999641624745e-05
    }
  }
  attr {
    key: "is_training"
    value {
      b: false
    }
  }
}
node {
  name: "resnet_model/Relu_42"
  op: "Relu"
  input: "resnet_model/batch_normalization_42/FusedBatchNorm"
  attr {
    key: "T"
    value {
      type: DT_FLOAT
    }
  }
}
node {
  name: "resnet_model/conv2d_47/kernel"
  op: "VariableV2"
  attr {
    key: "_class"
    value {
      list {
        s: "loc:@resnet_model/conv2d_47/kernel"
      }
    }
  }
  attr {
    key: "container"
    value {
      s: ""
    }
  }
  attr {
    key: "dtype"
    value {
      type: DT_FLOAT
    }
  }
  attr {
    key: "shape"
    value {
      shape {
        dim {
          size: 1
        }
        dim {
          size: 1
        }
        dim {
          size: 2048
        }
        dim {
          size: 512
        }
      }
    }
  }
  attr {
    key: "shared_name"
    value {
      s: ""
    }
  }
}
node {
  name: "resnet_model/conv2d_47/Conv2D"
  op: "Conv2D"
  input: "resnet_model/Relu_42"
  input: "resnet_model/conv2d_47/kernel"
  attr {
    key: "T"
    value {
      type: DT_FLOAT
    }
  }
  attr {
    key: "data_format"
    value {
      s: "NHWC"
    }
  }
  attr {
    key: "dilations"
    value {
      list {
        i: 1
        i: 1
        i: 1
        i: 1
      }
    }
  }
  attr {
    key: "explicit_paddings"
    value {
      list {
      }
    }
  }
  attr {
    key: "padding"
    value {
      s: "SAME"
    }
  }
  attr {
    key: "strides"
    value {
      list {
        i: 1
        i: 1
        i: 1
        i: 1
      }
    }
  }
  attr {
    key: "use_cudnn_on_gpu"
    value {
      b: true
    }
  }
}
node {
  name: "resnet_model/batch_normalization_43/gamma"
  op: "VariableV2"
  attr {
    key: "_class"
    value {
      list {
        s: "loc:@resnet_model/batch_normalization_43/gamma"
      }
    }
  }
  attr {
    key: "container"
    value {
      s: ""
    }
  }
  attr {
    key: "dtype"
    value {
      type: DT_FLOAT
    }
  }
  attr {
    key: "shape"
    value {
      shape {
        dim {
          size: 512
        }
      }
    }
  }
  attr {
    key: "shared_name"
    value {
      s: ""
    }
  }
}
node {
  name: "resnet_model/batch_normalization_43/beta"
  op: "VariableV2"
  attr {
    key: "_class"
    value {
      list {
        s: "loc:@resnet_model/batch_normalization_43/beta"
      }
    }
  }
  attr {
    key: "container"
    value {
      s: ""
    }
  }
  attr {
    key: "dtype"
    value {
      type: DT_FLOAT
    }
  }
  attr {
    key: "shape"
    value {
      shape {
        dim {
          size: 512
        }
      }
    }
  }
  attr {
    key: "shared_name"
    value {
      s: ""
    }
  }
}
node {
  name: "resnet_model/batch_normalization_43/moving_mean"
  op: "VariableV2"
  attr {
    key: "_class"
    value {
      list {
        s: "loc:@resnet_model/batch_normalization_43/moving_mean"
      }
    }
  }
  attr {
    key: "container"
    value {
      s: ""
    }
  }
  attr {
    key: "dtype"
    value {
      type: DT_FLOAT
    }
  }
  attr {
    key: "shape"
    value {
      shape {
        dim {
          size: 512
        }
      }
    }
  }
  attr {
    key: "shared_name"
    value {
      s: ""
    }
  }
}
node {
  name: "resnet_model/batch_normalization_43/moving_variance"
  op: "VariableV2"
  attr {
    key: "_class"
    value {
      list {
        s: "loc:@resnet_model/batch_normalization_43/moving_variance"
      }
    }
  }
  attr {
    key: "container"
    value {
      s: ""
    }
  }
  attr {
    key: "dtype"
    value {
      type: DT_FLOAT
    }
  }
  attr {
    key: "shape"
    value {
      shape {
        dim {
          size: 512
        }
      }
    }
  }
  attr {
    key: "shared_name"
    value {
      s: ""
    }
  }
}
node {
  name: "resnet_model/batch_normalization_43/FusedBatchNorm"
  op: "FusedBatchNorm"
  input: "resnet_model/conv2d_47/Conv2D"
  input: "resnet_model/batch_normalization_43/gamma"
  input: "resnet_model/batch_normalization_43/beta"
  input: "resnet_model/batch_normalization_43/moving_mean"
  input: "resnet_model/batch_normalization_43/moving_variance"
  attr {
    key: "T"
    value {
      type: DT_FLOAT
    }
  }
  attr {
    key: "data_format"
    value {
      s: "NHWC"
    }
  }
  attr {
    key: "epsilon"
    value {
      f: 1.0009999641624745e-05
    }
  }
  attr {
    key: "is_training"
    value {
      b: false
    }
  }
}
node {
  name: "resnet_model/Relu_43"
  op: "Relu"
  input: "resnet_model/batch_normalization_43/FusedBatchNorm"
  attr {
    key: "T"
    value {
      type: DT_FLOAT
    }
  }
}
node {
  name: "resnet_model/conv2d_48/kernel"
  op: "VariableV2"
  attr {
    key: "_class"
    value {
      list {
        s: "loc:@resnet_model/conv2d_48/kernel"
      }
    }
  }
  attr {
    key: "container"
    value {
      s: ""
    }
  }
  attr {
    key: "dtype"
    value {
      type: DT_FLOAT
    }
  }
  attr {
    key: "shape"
    value {
      shape {
        dim {
          size: 3
        }
        dim {
          size: 3
        }
        dim {
          size: 512
        }
        dim {
          size: 512
        }
      }
    }
  }
  attr {
    key: "shared_name"
    value {
      s: ""
    }
  }
}
node {
  name: "resnet_model/conv2d_48/Conv2D"
  op: "Conv2D"
  input: "resnet_model/Relu_43"
  input: "resnet_model/conv2d_48/kernel"
  attr {
    key: "T"
    value {
      type: DT_FLOAT
    }
  }
  attr {
    key: "data_format"
    value {
      s: "NHWC"
    }
  }
  attr {
    key: "dilations"
    value {
      list {
        i: 1
        i: 1
        i: 1
        i: 1
      }
    }
  }
  attr {
    key: "explicit_paddings"
    value {
      list {
      }
    }
  }
  attr {
    key: "padding"
    value {
      s: "SAME"
    }
  }
  attr {
    key: "strides"
    value {
      list {
        i: 1
        i: 1
        i: 1
        i: 1
      }
    }
  }
  attr {
    key: "use_cudnn_on_gpu"
    value {
      b: true
    }
  }
}
node {
  name: "resnet_model/batch_normalization_44/gamma"
  op: "VariableV2"
  attr {
    key: "_class"
    value {
      list {
        s: "loc:@resnet_model/batch_normalization_44/gamma"
      }
    }
  }
  attr {
    key: "container"
    value {
      s: ""
    }
  }
  attr {
    key: "dtype"
    value {
      type: DT_FLOAT
    }
  }
  attr {
    key: "shape"
    value {
      shape {
        dim {
          size: 512
        }
      }
    }
  }
  attr {
    key: "shared_name"
    value {
      s: ""
    }
  }
}
node {
  name: "resnet_model/batch_normalization_44/beta"
  op: "VariableV2"
  attr {
    key: "_class"
    value {
      list {
        s: "loc:@resnet_model/batch_normalization_44/beta"
      }
    }
  }
  attr {
    key: "container"
    value {
      s: ""
    }
  }
  attr {
    key: "dtype"
    value {
      type: DT_FLOAT
    }
  }
  attr {
    key: "shape"
    value {
      shape {
        dim {
          size: 512
        }
      }
    }
  }
  attr {
    key: "shared_name"
    value {
      s: ""
    }
  }
}
node {
  name: "resnet_model/batch_normalization_44/moving_mean"
  op: "VariableV2"
  attr {
    key: "_class"
    value {
      list {
        s: "loc:@resnet_model/batch_normalization_44/moving_mean"
      }
    }
  }
  attr {
    key: "container"
    value {
      s: ""
    }
  }
  attr {
    key: "dtype"
    value {
      type: DT_FLOAT
    }
  }
  attr {
    key: "shape"
    value {
      shape {
        dim {
          size: 512
        }
      }
    }
  }
  attr {
    key: "shared_name"
    value {
      s: ""
    }
  }
}
node {
  name: "resnet_model/batch_normalization_44/moving_variance"
  op: "VariableV2"
  attr {
    key: "_class"
    value {
      list {
        s: "loc:@resnet_model/batch_normalization_44/moving_variance"
      }
    }
  }
  attr {
    key: "container"
    value {
      s: ""
    }
  }
  attr {
    key: "dtype"
    value {
      type: DT_FLOAT
    }
  }
  attr {
    key: "shape"
    value {
      shape {
        dim {
          size: 512
        }
      }
    }
  }
  attr {
    key: "shared_name"
    value {
      s: ""
    }
  }
}
node {
  name: "resnet_model/batch_normalization_44/FusedBatchNorm"
  op: "FusedBatchNorm"
  input: "resnet_model/conv2d_48/Conv2D"
  input: "resnet_model/batch_normalization_44/gamma"
  input: "resnet_model/batch_normalization_44/beta"
  input: "resnet_model/batch_normalization_44/moving_mean"
  input: "resnet_model/batch_normalization_44/moving_variance"
  attr {
    key: "T"
    value {
      type: DT_FLOAT
    }
  }
  attr {
    key: "data_format"
    value {
      s: "NHWC"
    }
  }
  attr {
    key: "epsilon"
    value {
      f: 1.0009999641624745e-05
    }
  }
  attr {
    key: "is_training"
    value {
      b: false
    }
  }
}
node {
  name: "resnet_model/Relu_44"
  op: "Relu"
  input: "resnet_model/batch_normalization_44/FusedBatchNorm"
  attr {
    key: "T"
    value {
      type: DT_FLOAT
    }
  }
}
node {
  name: "resnet_model/conv2d_49/kernel"
  op: "VariableV2"
  attr {
    key: "_class"
    value {
      list {
        s: "loc:@resnet_model/conv2d_49/kernel"
      }
    }
  }
  attr {
    key: "container"
    value {
      s: ""
    }
  }
  attr {
    key: "dtype"
    value {
      type: DT_FLOAT
    }
  }
  attr {
    key: "shape"
    value {
      shape {
        dim {
          size: 1
        }
        dim {
          size: 1
        }
        dim {
          size: 512
        }
        dim {
          size: 2048
        }
      }
    }
  }
  attr {
    key: "shared_name"
    value {
      s: ""
    }
  }
}
node {
  name: "resnet_model/conv2d_49/Conv2D"
  op: "Conv2D"
  input: "resnet_model/Relu_44"
  input: "resnet_model/conv2d_49/kernel"
  attr {
    key: "T"
    value {
      type: DT_FLOAT
    }
  }
  attr {
    key: "data_format"
    value {
      s: "NHWC"
    }
  }
  attr {
    key: "dilations"
    value {
      list {
        i: 1
        i: 1
        i: 1
        i: 1
      }
    }
  }
  attr {
    key: "explicit_paddings"
    value {
      list {
      }
    }
  }
  attr {
    key: "padding"
    value {
      s: "SAME"
    }
  }
  attr {
    key: "strides"
    value {
      list {
        i: 1
        i: 1
        i: 1
        i: 1
      }
    }
  }
  attr {
    key: "use_cudnn_on_gpu"
    value {
      b: true
    }
  }
}
node {
  name: "resnet_model/add_14"
  op: "Add"
  input: "resnet_model/conv2d_49/Conv2D"
  input: "resnet_model/add_13"
  attr {
    key: "T"
    value {
      type: DT_FLOAT
    }
  }
}
node {
  name: "resnet_model/batch_normalization_45/gamma"
  op: "VariableV2"
  attr {
    key: "_class"
    value {
      list {
        s: "loc:@resnet_model/batch_normalization_45/gamma"
      }
    }
  }
  attr {
    key: "container"
    value {
      s: ""
    }
  }
  attr {
    key: "dtype"
    value {
      type: DT_FLOAT
    }
  }
  attr {
    key: "shape"
    value {
      shape {
        dim {
          size: 2048
        }
      }
    }
  }
  attr {
    key: "shared_name"
    value {
      s: ""
    }
  }
}
node {
  name: "resnet_model/batch_normalization_45/beta"
  op: "VariableV2"
  attr {
    key: "_class"
    value {
      list {
        s: "loc:@resnet_model/batch_normalization_45/beta"
      }
    }
  }
  attr {
    key: "container"
    value {
      s: ""
    }
  }
  attr {
    key: "dtype"
    value {
      type: DT_FLOAT
    }
  }
  attr {
    key: "shape"
    value {
      shape {
        dim {
          size: 2048
        }
      }
    }
  }
  attr {
    key: "shared_name"
    value {
      s: ""
    }
  }
}
node {
  name: "resnet_model/batch_normalization_45/moving_mean"
  op: "VariableV2"
  attr {
    key: "_class"
    value {
      list {
        s: "loc:@resnet_model/batch_normalization_45/moving_mean"
      }
    }
  }
  attr {
    key: "container"
    value {
      s: ""
    }
  }
  attr {
    key: "dtype"
    value {
      type: DT_FLOAT
    }
  }
  attr {
    key: "shape"
    value {
      shape {
        dim {
          size: 2048
        }
      }
    }
  }
  attr {
    key: "shared_name"
    value {
      s: ""
    }
  }
}
node {
  name: "resnet_model/batch_normalization_45/moving_variance"
  op: "VariableV2"
  attr {
    key: "_class"
    value {
      list {
        s: "loc:@resnet_model/batch_normalization_45/moving_variance"
      }
    }
  }
  attr {
    key: "container"
    value {
      s: ""
    }
  }
  attr {
    key: "dtype"
    value {
      type: DT_FLOAT
    }
  }
  attr {
    key: "shape"
    value {
      shape {
        dim {
          size: 2048
        }
      }
    }
  }
  attr {
    key: "shared_name"
    value {
      s: ""
    }
  }
}
node {
  name: "resnet_model/batch_normalization_45/FusedBatchNorm"
  op: "FusedBatchNorm"
  input: "resnet_model/add_14"
  input: "resnet_model/batch_normalization_45/gamma"
  input: "resnet_model/batch_normalization_45/beta"
  input: "resnet_model/batch_normalization_45/moving_mean"
  input: "resnet_model/batch_normalization_45/moving_variance"
  attr {
    key: "T"
    value {
      type: DT_FLOAT
    }
  }
  attr {
    key: "data_format"
    value {
      s: "NHWC"
    }
  }
  attr {
    key: "epsilon"
    value {
      f: 1.0009999641624745e-05
    }
  }
  attr {
    key: "is_training"
    value {
      b: false
    }
  }
}
node {
  name: "resnet_model/Relu_45"
  op: "Relu"
  input: "resnet_model/batch_normalization_45/FusedBatchNorm"
  attr {
    key: "T"
    value {
      type: DT_FLOAT
    }
  }
}
node {
  name: "resnet_model/conv2d_50/kernel"
  op: "VariableV2"
  attr {
    key: "_class"
    value {
      list {
        s: "loc:@resnet_model/conv2d_50/kernel"
      }
    }
  }
  attr {
    key: "container"
    value {
      s: ""
    }
  }
  attr {
    key: "dtype"
    value {
      type: DT_FLOAT
    }
  }
  attr {
    key: "shape"
    value {
      shape {
        dim {
          size: 1
        }
        dim {
          size: 1
        }
        dim {
          size: 2048
        }
        dim {
          size: 512
        }
      }
    }
  }
  attr {
    key: "shared_name"
    value {
      s: ""
    }
  }
}
node {
  name: "resnet_model/conv2d_50/Conv2D"
  op: "Conv2D"
  input: "resnet_model/Relu_45"
  input: "resnet_model/conv2d_50/kernel"
  attr {
    key: "T"
    value {
      type: DT_FLOAT
    }
  }
  attr {
    key: "data_format"
    value {
      s: "NHWC"
    }
  }
  attr {
    key: "dilations"
    value {
      list {
        i: 1
        i: 1
        i: 1
        i: 1
      }
    }
  }
  attr {
    key: "explicit_paddings"
    value {
      list {
      }
    }
  }
  attr {
    key: "padding"
    value {
      s: "SAME"
    }
  }
  attr {
    key: "strides"
    value {
      list {
        i: 1
        i: 1
        i: 1
        i: 1
      }
    }
  }
  attr {
    key: "use_cudnn_on_gpu"
    value {
      b: true
    }
  }
}
node {
  name: "resnet_model/batch_normalization_46/gamma"
  op: "VariableV2"
  attr {
    key: "_class"
    value {
      list {
        s: "loc:@resnet_model/batch_normalization_46/gamma"
      }
    }
  }
  attr {
    key: "container"
    value {
      s: ""
    }
  }
  attr {
    key: "dtype"
    value {
      type: DT_FLOAT
    }
  }
  attr {
    key: "shape"
    value {
      shape {
        dim {
          size: 512
        }
      }
    }
  }
  attr {
    key: "shared_name"
    value {
      s: ""
    }
  }
}
node {
  name: "resnet_model/batch_normalization_46/beta"
  op: "VariableV2"
  attr {
    key: "_class"
    value {
      list {
        s: "loc:@resnet_model/batch_normalization_46/beta"
      }
    }
  }
  attr {
    key: "container"
    value {
      s: ""
    }
  }
  attr {
    key: "dtype"
    value {
      type: DT_FLOAT
    }
  }
  attr {
    key: "shape"
    value {
      shape {
        dim {
          size: 512
        }
      }
    }
  }
  attr {
    key: "shared_name"
    value {
      s: ""
    }
  }
}
node {
  name: "resnet_model/batch_normalization_46/moving_mean"
  op: "VariableV2"
  attr {
    key: "_class"
    value {
      list {
        s: "loc:@resnet_model/batch_normalization_46/moving_mean"
      }
    }
  }
  attr {
    key: "container"
    value {
      s: ""
    }
  }
  attr {
    key: "dtype"
    value {
      type: DT_FLOAT
    }
  }
  attr {
    key: "shape"
    value {
      shape {
        dim {
          size: 512
        }
      }
    }
  }
  attr {
    key: "shared_name"
    value {
      s: ""
    }
  }
}
node {
  name: "resnet_model/batch_normalization_46/moving_variance"
  op: "VariableV2"
  attr {
    key: "_class"
    value {
      list {
        s: "loc:@resnet_model/batch_normalization_46/moving_variance"
      }
    }
  }
  attr {
    key: "container"
    value {
      s: ""
    }
  }
  attr {
    key: "dtype"
    value {
      type: DT_FLOAT
    }
  }
  attr {
    key: "shape"
    value {
      shape {
        dim {
          size: 512
        }
      }
    }
  }
  attr {
    key: "shared_name"
    value {
      s: ""
    }
  }
}
node {
  name: "resnet_model/batch_normalization_46/FusedBatchNorm"
  op: "FusedBatchNorm"
  input: "resnet_model/conv2d_50/Conv2D"
  input: "resnet_model/batch_normalization_46/gamma"
  input: "resnet_model/batch_normalization_46/beta"
  input: "resnet_model/batch_normalization_46/moving_mean"
  input: "resnet_model/batch_normalization_46/moving_variance"
  attr {
    key: "T"
    value {
      type: DT_FLOAT
    }
  }
  attr {
    key: "data_format"
    value {
      s: "NHWC"
    }
  }
  attr {
    key: "epsilon"
    value {
      f: 1.0009999641624745e-05
    }
  }
  attr {
    key: "is_training"
    value {
      b: false
    }
  }
}
node {
  name: "resnet_model/Relu_46"
  op: "Relu"
  input: "resnet_model/batch_normalization_46/FusedBatchNorm"
  attr {
    key: "T"
    value {
      type: DT_FLOAT
    }
  }
}
node {
  name: "resnet_model/conv2d_51/kernel"
  op: "VariableV2"
  attr {
    key: "_class"
    value {
      list {
        s: "loc:@resnet_model/conv2d_51/kernel"
      }
    }
  }
  attr {
    key: "container"
    value {
      s: ""
    }
  }
  attr {
    key: "dtype"
    value {
      type: DT_FLOAT
    }
  }
  attr {
    key: "shape"
    value {
      shape {
        dim {
          size: 3
        }
        dim {
          size: 3
        }
        dim {
          size: 512
        }
        dim {
          size: 512
        }
      }
    }
  }
  attr {
    key: "shared_name"
    value {
      s: ""
    }
  }
}
node {
  name: "resnet_model/conv2d_51/Conv2D"
  op: "Conv2D"
  input: "resnet_model/Relu_46"
  input: "resnet_model/conv2d_51/kernel"
  attr {
    key: "T"
    value {
      type: DT_FLOAT
    }
  }
  attr {
    key: "data_format"
    value {
      s: "NHWC"
    }
  }
  attr {
    key: "dilations"
    value {
      list {
        i: 1
        i: 1
        i: 1
        i: 1
      }
    }
  }
  attr {
    key: "explicit_paddings"
    value {
      list {
      }
    }
  }
  attr {
    key: "padding"
    value {
      s: "SAME"
    }
  }
  attr {
    key: "strides"
    value {
      list {
        i: 1
        i: 1
        i: 1
        i: 1
      }
    }
  }
  attr {
    key: "use_cudnn_on_gpu"
    value {
      b: true
    }
  }
}
node {
  name: "resnet_model/batch_normalization_47/gamma"
  op: "VariableV2"
  attr {
    key: "_class"
    value {
      list {
        s: "loc:@resnet_model/batch_normalization_47/gamma"
      }
    }
  }
  attr {
    key: "container"
    value {
      s: ""
    }
  }
  attr {
    key: "dtype"
    value {
      type: DT_FLOAT
    }
  }
  attr {
    key: "shape"
    value {
      shape {
        dim {
          size: 512
        }
      }
    }
  }
  attr {
    key: "shared_name"
    value {
      s: ""
    }
  }
}
node {
  name: "resnet_model/batch_normalization_47/beta"
  op: "VariableV2"
  attr {
    key: "_class"
    value {
      list {
        s: "loc:@resnet_model/batch_normalization_47/beta"
      }
    }
  }
  attr {
    key: "container"
    value {
      s: ""
    }
  }
  attr {
    key: "dtype"
    value {
      type: DT_FLOAT
    }
  }
  attr {
    key: "shape"
    value {
      shape {
        dim {
          size: 512
        }
      }
    }
  }
  attr {
    key: "shared_name"
    value {
      s: ""
    }
  }
}
node {
  name: "resnet_model/batch_normalization_47/moving_mean"
  op: "VariableV2"
  attr {
    key: "_class"
    value {
      list {
        s: "loc:@resnet_model/batch_normalization_47/moving_mean"
      }
    }
  }
  attr {
    key: "container"
    value {
      s: ""
    }
  }
  attr {
    key: "dtype"
    value {
      type: DT_FLOAT
    }
  }
  attr {
    key: "shape"
    value {
      shape {
        dim {
          size: 512
        }
      }
    }
  }
  attr {
    key: "shared_name"
    value {
      s: ""
    }
  }
}
node {
  name: "resnet_model/batch_normalization_47/moving_variance"
  op: "VariableV2"
  attr {
    key: "_class"
    value {
      list {
        s: "loc:@resnet_model/batch_normalization_47/moving_variance"
      }
    }
  }
  attr {
    key: "container"
    value {
      s: ""
    }
  }
  attr {
    key: "dtype"
    value {
      type: DT_FLOAT
    }
  }
  attr {
    key: "shape"
    value {
      shape {
        dim {
          size: 512
        }
      }
    }
  }
  attr {
    key: "shared_name"
    value {
      s: ""
    }
  }
}
node {
  name: "resnet_model/batch_normalization_47/FusedBatchNorm"
  op: "FusedBatchNorm"
  input: "resnet_model/conv2d_51/Conv2D"
  input: "resnet_model/batch_normalization_47/gamma"
  input: "resnet_model/batch_normalization_47/beta"
  input: "resnet_model/batch_normalization_47/moving_mean"
  input: "resnet_model/batch_normalization_47/moving_variance"
  attr {
    key: "T"
    value {
      type: DT_FLOAT
    }
  }
  attr {
    key: "data_format"
    value {
      s: "NHWC"
    }
  }
  attr {
    key: "epsilon"
    value {
      f: 1.0009999641624745e-05
    }
  }
  attr {
    key: "is_training"
    value {
      b: false
    }
  }
}
node {
  name: "resnet_model/Relu_47"
  op: "Relu"
  input: "resnet_model/batch_normalization_47/FusedBatchNorm"
  attr {
    key: "T"
    value {
      type: DT_FLOAT
    }
  }
}
node {
  name: "resnet_model/conv2d_52/kernel"
  op: "VariableV2"
  attr {
    key: "_class"
    value {
      list {
        s: "loc:@resnet_model/conv2d_52/kernel"
      }
    }
  }
  attr {
    key: "container"
    value {
      s: ""
    }
  }
  attr {
    key: "dtype"
    value {
      type: DT_FLOAT
    }
  }
  attr {
    key: "shape"
    value {
      shape {
        dim {
          size: 1
        }
        dim {
          size: 1
        }
        dim {
          size: 512
        }
        dim {
          size: 2048
        }
      }
    }
  }
  attr {
    key: "shared_name"
    value {
      s: ""
    }
  }
}
node {
  name: "resnet_model/conv2d_52/Conv2D"
  op: "Conv2D"
  input: "resnet_model/Relu_47"
  input: "resnet_model/conv2d_52/kernel"
  attr {
    key: "T"
    value {
      type: DT_FLOAT
    }
  }
  attr {
    key: "data_format"
    value {
      s: "NHWC"
    }
  }
  attr {
    key: "dilations"
    value {
      list {
        i: 1
        i: 1
        i: 1
        i: 1
      }
    }
  }
  attr {
    key: "explicit_paddings"
    value {
      list {
      }
    }
  }
  attr {
    key: "padding"
    value {
      s: "SAME"
    }
  }
  attr {
    key: "strides"
    value {
      list {
        i: 1
        i: 1
        i: 1
        i: 1
      }
    }
  }
  attr {
    key: "use_cudnn_on_gpu"
    value {
      b: true
    }
  }
}
node {
  name: "resnet_model/add_15"
  op: "Add"
  input: "resnet_model/conv2d_52/Conv2D"
  input: "resnet_model/add_14"
  attr {
    key: "T"
    value {
      type: DT_FLOAT
    }
  }
}
node {
  name: "resnet_model/batch_normalization_48/gamma"
  op: "VariableV2"
  attr {
    key: "_class"
    value {
      list {
        s: "loc:@resnet_model/batch_normalization_48/gamma"
      }
    }
  }
  attr {
    key: "container"
    value {
      s: ""
    }
  }
  attr {
    key: "dtype"
    value {
      type: DT_FLOAT
    }
  }
  attr {
    key: "shape"
    value {
      shape {
        dim {
          size: 2048
        }
      }
    }
  }
  attr {
    key: "shared_name"
    value {
      s: ""
    }
  }
}
node {
  name: "resnet_model/batch_normalization_48/beta"
  op: "VariableV2"
  attr {
    key: "_class"
    value {
      list {
        s: "loc:@resnet_model/batch_normalization_48/beta"
      }
    }
  }
  attr {
    key: "container"
    value {
      s: ""
    }
  }
  attr {
    key: "dtype"
    value {
      type: DT_FLOAT
    }
  }
  attr {
    key: "shape"
    value {
      shape {
        dim {
          size: 2048
        }
      }
    }
  }
  attr {
    key: "shared_name"
    value {
      s: ""
    }
  }
}
node {
  name: "resnet_model/batch_normalization_48/moving_mean"
  op: "VariableV2"
  attr {
    key: "_class"
    value {
      list {
        s: "loc:@resnet_model/batch_normalization_48/moving_mean"
      }
    }
  }
  attr {
    key: "container"
    value {
      s: ""
    }
  }
  attr {
    key: "dtype"
    value {
      type: DT_FLOAT
    }
  }
  attr {
    key: "shape"
    value {
      shape {
        dim {
          size: 2048
        }
      }
    }
  }
  attr {
    key: "shared_name"
    value {
      s: ""
    }
  }
}
node {
  name: "resnet_model/batch_normalization_48/moving_variance"
  op: "VariableV2"
  attr {
    key: "_class"
    value {
      list {
        s: "loc:@resnet_model/batch_normalization_48/moving_variance"
      }
    }
  }
  attr {
    key: "container"
    value {
      s: ""
    }
  }
  attr {
    key: "dtype"
    value {
      type: DT_FLOAT
    }
  }
  attr {
    key: "shape"
    value {
      shape {
        dim {
          size: 2048
        }
      }
    }
  }
  attr {
    key: "shared_name"
    value {
      s: ""
    }
  }
}
node {
  name: "resnet_model/batch_normalization_48/FusedBatchNorm"
  op: "FusedBatchNorm"
  input: "resnet_model/add_15"
  input: "resnet_model/batch_normalization_48/gamma"
  input: "resnet_model/batch_normalization_48/beta"
  input: "resnet_model/batch_normalization_48/moving_mean"
  input: "resnet_model/batch_normalization_48/moving_variance"
  attr {
    key: "T"
    value {
      type: DT_FLOAT
    }
  }
  attr {
    key: "data_format"
    value {
      s: "NHWC"
    }
  }
  attr {
    key: "epsilon"
    value {
      f: 1.0009999641624745e-05
    }
  }
  attr {
    key: "is_training"
    value {
      b: false
    }
  }
}
node {
  name: "resnet_model/Relu_48"
  op: "Relu"
  input: "resnet_model/batch_normalization_48/FusedBatchNorm"
  attr {
    key: "T"
    value {
      type: DT_FLOAT
    }
  }
}
node {
  name: "resnet_model/AvgPool"
  op: "AvgPool"
  input: "resnet_model/Relu_48"
  attr {
    key: "T"
    value {
      type: DT_FLOAT
    }
  }
  attr {
    key: "data_format"
    value {
      s: "NHWC"
    }
  }
  attr {
    key: "ksize"
    value {
      list {
        i: 1
        i: 7
        i: 7
        i: 1
      }
    }
  }
  attr {
    key: "padding"
    value {
      s: "VALID"
    }
  }
  attr {
    key: "strides"
    value {
      list {
        i: 1
        i: 1
        i: 1
        i: 1
      }
    }
  }
}
node {
  name: "resnet_model/Squeeze"
  op: "Squeeze"
  input: "resnet_model/AvgPool"
  attr {
    key: "T"
    value {
      type: DT_FLOAT
    }
  }
  attr {
    key: "squeeze_dims"
    value {
      list {
        i: 1
        i: 2
      }
    }
  }
}
node {
  name: "resnet_model/dense/kernel"
  op: "VariableV2"
  attr {
    key: "_class"
    value {
      list {
        s: "loc:@resnet_model/dense/kernel"
      }
    }
  }
  attr {
    key: "container"
    value {
      s: ""
    }
  }
  attr {
    key: "dtype"
    value {
      type: DT_FLOAT
    }
  }
  attr {
    key: "shape"
    value {
      shape {
        dim {
          size: 2048
        }
        dim {
          size: 1001
        }
      }
    }
  }
  attr {
    key: "shared_name"
    value {
      s: ""
    }
  }
}
node {
  name: "resnet_model/dense/bias"
  op: "VariableV2"
  attr {
    key: "_class"
    value {
      list {
        s: "loc:@resnet_model/dense/bias"
      }
    }
  }
  attr {
    key: "container"
    value {
      s: ""
    }
  }
  attr {
    key: "dtype"
    value {
      type: DT_FLOAT
    }
  }
  attr {
    key: "shape"
    value {
      shape {
        dim {
          size: 1001
        }
      }
    }
  }
  attr {
    key: "shared_name"
    value {
      s: ""
    }
  }
}
node {
  name: "resnet_model/dense/MatMul"
  op: "MatMul"
  input: "resnet_model/Squeeze"
  input: "resnet_model/dense/kernel"
  attr {
    key: "T"
    value {
      type: DT_FLOAT
    }
  }
  attr {
    key: "transpose_a"
    value {
      b: false
    }
  }
  attr {
    key: "transpose_b"
    value {
      b: false
    }
  }
}
node {
  name: "resnet_model/dense/BiasAdd"
  op: "BiasAdd"
  input: "resnet_model/dense/MatMul"
  input: "resnet_model/dense/bias"
  attr {
    key: "T"
    value {
      type: DT_FLOAT
    }
  }
  attr {
    key: "data_format"
    value {
      s: "NHWC"
    }
  }
}
node {
  name: "ArgMax/dimension"
  op: "Const"
  attr {
    key: "dtype"
    value {
      type: DT_INT32
    }
  }
  attr {
    key: "value"
    value {
      tensor {
        dtype: DT_INT32
        tensor_shape {
        }
        int_val: 1
      }
    }
  }
}
node {
  name: "ArgMax"
  op: "ArgMax"
  input: "resnet_model/dense/BiasAdd"
  input: "ArgMax/dimension"
  attr {
    key: "T"
    value {
      type: DT_FLOAT
    }
  }
  attr {
    key: "Tidx"
    value {
      type: DT_INT32
    }
  }
  attr {
    key: "output_type"
    value {
      type: DT_INT64
    }
  }
}
library {
}
